models/cnn_weights_buy.pth (torch, 2768 bytes, 3 tensors)

conv1.weight f4 [32, 1, 3]
0	0x3d85fd2f	0.065424316
1	0x3e1b65cc	0.15175551
2	0xbeb742b0	-0.35793066
3	0xbf0a5135	-0.5403016
4	0xbeb83f5b	-0.35985836
5	0x3ecce0ef	0.4001536
6	0xbec091a1	-0.37611106
7	0xbf05056d	-0.51961404
8	0xbe507ae1	-0.20359375
9	0x3ed6505e	0.4185819
10	0xbe1f9679	-0.15584745
11	0x3e2149d6	0.15750822
12	0xbe19a242	-0.15003303
13	0xbd96e9c7	-0.07368808
14	0xbf0cfb58	-0.5507102
15	0xbf05963f	-0.5218238
16	0xbed877f8	-0.4227903
17	0xbefcd697	-0.4938247
18	0xbf139e87	-0.5766377
19	0x3ebe70c0	0.37195396
20	0x3e407599	0.1879486
21	0x3d99a2e0	0.07501769
22	0x3d921008	0.07131964
23	0xbeabfec6	-0.33592814
24	0x3ec71c1e	0.3888864
25	0xbf03e9fd	-0.5152891
26	0x3f11e453	0.5698902
27	0xbeba38cc	-0.36371458
28	0xbef97cf8	-0.48728156
29	0x3ed36ef4	0.41295588
30	0x3d9b3ed2	0.075803414
31	0xbe4bc4bf	-0.19899271
32	0xbecfbf58	-0.4057567
33	0x3f105390	0.56377506
34	0xbe905cef	-0.28195903
35	0x3f10b3da	0.5652443
36	0x3e68ae22	0.22722676
37	0xbe20d470	-0.15706038
38	0xbdb83fd4	-0.08996549
39	0xbea4106f	-0.32043788
40	0xbbe8892d	-0.0070964308
41	0xbf0bd45a	-0.546209
42	0xbebfb866	-0.37445372
43	0xbe8d1197	-0.27552482
44	0x3ee6c16c	0.45069444
45	0xbeedb80d	-0.46429482
46	0x3dbdb282	0.09262563
47	0xbe720350	-0.23634076
48	0xbe17b3ea	-0.14814726
49	0x3e53a9ce	0.20670244
50	0x3f0dbd2f	0.55366796
51	0x3e617b70	0.22019744
52	0xbedc3ea1	-0.43016532
53	0x3e964f59	0.29357412
54	0xbf02cc8f	-0.5109338
55	0x3f05d4a6	0.522776
56	0xbd1902cc	-0.037356183
57	0xbeff9f48	-0.4992621
58	0x3ee57fea	0.44824153
59	0xbe9a1f23	-0.3010188
60	0x3eb3b0dd	0.35095873
61	0x3e8b1303	0.27162942
62	0x3dec49f3	0.11537542
63	0xbf077470	-0.52912045
64	0x3e93ba43	0.28853044
65	0xbdbdb89f	-0.09263729
66	0x3ef0446d	0.46927205
67	0x3e4f894f	0.20267223
68	0x3ebc7d14	0.36814177
69	0x3d9a2d16	0.07528131
70	0x3f0c990a	0.5492102
71	0xbdc7876a	-0.09742625
72	0x3d2731d8	0.04081902
73	0x3e0b7207	0.13617717
74	0x3e08c29b	0.13355486
75	0x3d56615b	0.05233894
76	0x3ee6cdbd	0.4507884
77	0x3d8ebe72	0.06969918
78	0x3c9efdc9	0.019408124
79	0x3e9b682c	0.30352914
80	0xbe15001f	-0.14550827
81	0x3ed71985	0.42011657
82	0x3ea6e52f	0.32596728
83	0x3ee9db09	0.45674923
84	0xbe78beaa	-0.24291483
85	0xbe7bf010	-0.24603295
86	0x3ca5921b	0.02021127
87	0xbf14aec7	-0.5807919
88	0x3e9c6cbc	0.30551708
89	0x3ef93edf	0.4868078
90	0x3ee06dd9	0.43833807
91	0xbe9c9872	-0.30585057
92	0x3eacfa4b	0.33784708
93	0x3daab259	0.08334798
94	0x3e9b3426	0.30313224
95	0xbab2bed0	-0.0013637189

conv1.bias f4 [32]
0	0xbea09a0c	-0.31367528
1	0x3f0a504b	0.5402877
2	0xbe2acfe0	-0.1668086
3	0xbef0a5d1	-0.47001508
4	0x3ee4b31b	0.44667897
5	0x3e81f1d9	0.25379828
6	0xbdd4cd10	-0.10390675
7	0x3e6bf7e4	0.23043782
8	0x3eb64902	0.35602576
9	0x3de24e62	0.110501066
10	0x3e3d8410	0.18507409
11	0xbdbc88ff	-0.092058174
12	0x3c0178ab	0.007902305
13	0xbdbceb84	-0.092246085
14	0xbee0d7ad	-0.43914548
15	0x3ef71547	0.4825842
16	0x3ea684aa	0.3252309
17	0xbe8bf842	-0.27337843
18	0x3f00bb34	0.5028565
19	0x3ee9c412	0.45657402
20	0x3ee01a7a	0.437702
21	0x3ead888e	0.33893245
22	0xbc2c62fd	-0.0105216475
23	0x3f0a1875	0.5394357
24	0xbd162042	-0.036651857
25	0x3dcbf948	0.09959656
26	0xbedcfef8	-0.43163276
27	0x3ea7d81d	0.3278207
28	0x3e0f582a	0.13998476
29	0x3ecf0dfe	0.40440363
30	0xbd79fdc4	-0.061033025
31	0xbeb9f809	-0.36322048

fc.weight f4 [1, 32]
0	0xbd6a0aeb	-0.05713932
1	0xbcfc0b0f	-0.030766992
2	0xbdc265d1	-0.09492076
3	0x3d4d24cf	0.05008393
4	0x3d446739	0.047950003
5	0x3c1b88a4	0.009493027
6	0x3dbe4bee	0.09291826
7	0xbe01243a	-0.12611476
8	0x3d8d5930	0.06901777
9	0xbdbd1656	-0.09232776
10	0x3e08a936	0.13345799
11	0xbe1b6634	-0.15175706
12	0x3e19ddae	0.1502597
13	0x3d85e5cd	0.06537972
14	0xbdc77a52	-0.097401276
15	0x3d120452	0.03564865
16	0x3db33a42	0.08751346
17	0x3ceb6756	0.028735798
18	0xbe2ac036	-0.16674885
19	0x3e1d74f0	0.1537664
20	0x3da9d22b	0.082920395
21	0xbc89a4fb	-0.016802302
22	0xbad204da	-0.0016023174
23	0xbd244f88	-0.04011491
24	0x3d5f8d40	0.054578066
25	0x3e0e7e8c	0.13915461
26	0xbdfa1c78	-0.12212461
27	0x3d84d762	0.064863935
28	0x3dd4d328	0.10391837
29	0x3d8c216a	0.06842311
30	0x3d84c2fc	0.06482503
31	0x3d2193ec	0.03944771
