models/cnn_weights_price.pth (torch, 2784 bytes, 3 tensors)

conv1.weight f4 [32, 1, 3]
000000 dc 90 4a be c0 79 a7 3c d3 9a 9b 3e 6d be c9 3e
       -0.19781822 0.020443797 0.3039156 0.39403096
000010 64 db 06 3f 56 3b cc 3e f5 17 15 be b9 bb 07 3f
       0.52678514 0.3988902 -0.1455992 0.5302082
000020 a2 8f 1a 3d 3e 7c 92 3c fe 9f 8b 3e d4 23 39 bd
       0.037734635 0.017881509 0.27270502 -0.045200184
000030 8f b2 c4 be 20 38 04 bf 2c c5 4a be 9c 67 1a 3e
       -0.3841748 -0.5164814 -0.19801778 0.15078586
000040 ef b7 e9 3e de bb 74 3e 80 21 4b 3e d6 96 01 bf
       0.45648143 0.2389979 0.19836998 -0.5062078
000050 09 4e bd be 60 9e 04 3f 1b 8c ff be 18 71 b5 3e
       -0.369736 0.5180416 -0.4991158 0.35437846
000060 bc 8c d6 3c 74 4c 78 be 67 6c 1b bd f6 0d 08 bf
       0.026190154 -0.24247915 -0.037945177 -0.531463
000070 19 e7 6a be b7 68 d8 bd a3 ab 93 3e c7 9b f8 3e
       -0.2293972 -0.10566848 0.28841886 0.4855635
000080 8c dd 0e be 65 0f f5 be bf d2 b4 3c 4b 75 d7 3e
       -0.13951701 -0.47863308 0.022073148 0.42081675
000090 20 57 8b 3d ff b0 6b bd c2 f2 f1 3e 8a 92 65 be
       0.06803727 -0.057541844 0.47255522 -0.22419181
0000a0 9e ed 0a 3f 72 59 9d bd 46 2c 07 3f b2 57 05 3f
       0.54268825 -0.07683076 0.5280193 0.5208694
0000b0 ae 58 8f bd 79 de 27 be 10 4c 68 3d 20 be 06 3f
       -0.06999336 -0.1639346 0.056713164 0.5263386
0000c0 c5 e2 b9 be 9a 80 d4 be 12 1f 26 bd 1c d2 a9 bd
       -0.36305824 -0.41504365 -0.040556975 -0.08292028
0000d0 db 9d 04 bf b1 a5 fe 3e f6 47 6b 3e e3 ce 10 bf
       -0.5180337 0.49735788 0.2297667 -0.56565684
0000e0 bf 86 00 bf f2 a5 e9 be 6f 5a 2f 3d 88 8c 40 bd
       -0.50205606 -0.4563442 0.042810854 -0.04700902
0000f0 e5 96 11 bf 16 73 83 3c a2 62 94 be 12 71 f6 be
       -0.5687087 0.016046088 -0.289815 -0.4813314
000100 91 81 8d 3d 95 8d 27 3e 73 94 0c 3f c9 04 a5 3e
       0.069094785 0.16362603 0.54914016 0.32230213
000110 15 e1 d0 3e dc 4f cf be c0 15 2a 3e 2a 36 e4 3e
       0.40796724 -0.40490615 0.1660986 0.44572574
000120 ad ea 37 be 93 ab e4 3d c7 4e 9e be 73 3a a9 be
       -0.17960615 0.11165538 -0.30919477 -0.33052406
000130 a3 77 03 3f 09 99 0a 3f bd b9 0e 3f 15 46 0d 3f
       0.51354426 0.54139763 0.55752164 0.5518506
000140 cb 5b 1a 3d ec cb d0 bd 76 cf aa 3e 85 8b 10 3f
       0.037685197 -0.10195145 0.33361405 0.5646289
000150 90 54 9a be a8 94 ab 3e dc 02 0b 3f a9 da 02 bf
       -0.3014264 0.33511853 0.5430124 -0.511149
000160 f3 44 93 be 8f cc 9c bc 41 dd c1 3e 94 67 30 bd
       -0.28763542 -0.01914051 0.37864116 -0.04306753
000170 51 9f a8 bd 48 f6 68 be ea 72 d6 bd a6 1e 80 3e
       -0.08233512 -0.22750199 -0.10471137 0.25023383

conv1.bias f4 [32]
000000 81 11 fa 3e c8 dc e0 3e 85 4e a7 3e 50 c2 33 3e
       0.4884148 0.43918443 0.32677093 0.17554593
000010 94 ba c2 3e 24 18 c4 3e bb 9e d6 bd ba 8c a7 bd
       0.38032973 0.38299668 -0.10479494 -0.08181138
000020 30 b0 5b 3e 02 36 cc be 13 5e 9e 3e 1f fe 71 be
       0.21453929 -0.39884955 0.30931148 -0.23632096
000030 75 cd f6 3e b7 bc 87 bd 7c 12 93 3e 32 0d ac bd
       0.48203626 -0.066277914 0.2872504 -0.08400954
000040 87 10 d4 be 94 74 4b be 61 73 31 3d 6e 99 3f 3e
       -0.4141886 -0.1986869 0.043322925 0.18710873
000050 53 fd 54 be b5 51 ca 3e c7 da ef 3d 35 26 3a be
       -0.2079976 0.39515463 0.1171165 -0.18178637
000060 f1 06 35 3e 71 11 10 bf 45 51 97 3e 29 2c 06 bf
       0.17678429 -0.56276613 0.2955419 -0.52411133
000070 17 3b d8 be 89 d5 d6 3e f3 85 f6 3d 58 af 1a bd
       -0.42232582 0.4195979 0.120372675 -0.037764877

fc.weight f4 [1, 32]
000000 d3 cb e2 bd d3 49 14 be 29 72 01 3e f6 3a 37 be
       -0.11074033 -0.14481287 0.12641205 -0.17893586
000010 5b 1b ab bd 97 00 32 3d ab 8f a8 3d 70 61 82 3d
       -0.08354827 0.043457594 0.082305275 0.06366241
000020 e0 c5 2b be 2f 5c e1 3c 01 ca 09 be 95 80 f6 bd
       -0.16774702 0.027509777 -0.13455965 -0.12036244
000030 57 8c 16 bd 91 5b 18 3e dc 36 07 3c 1c 9d f3 bc
       -0.036754932 0.1487868 0.008252826 -0.029738002
000040 df 7c 5c bd 0e a6 a4 3d 01 91 b4 3d 85 41 23 3d
       -0.053830024 0.08039485 0.0881672 0.039857406
000050 e8 17 c3 3d 03 83 44 3d d7 ce 39 3e a7 cd 0a be
       0.09526044 0.047976505 0.1814531 -0.13555013
000060 2b 93 e4 bd f1 6d cd 3d fb f4 5b 3d 3d 9f e2 bd
       -0.111608826 0.10030735 0.05370043 -0.110655285
000070 7e 2b ed bb ce 16 08 3e 57 93 16 3e 4c 4f fa bd
       -0.0072378507 0.1328995 0.14704643 -0.12222156
