models/cnn_weights.pth (torch, 2736 bytes, 3 tensors)

conv1.weight f4 [32, 1, 3]
-0.040407658 -0.5104226 -0.13260834 -0.39069214 0.11403039 -0.19632243 0.00752941 0.43935022
0.0972314 0.51841193 -0.32225633 0.085702546 -0.095723055 0.43893448 -0.19488929 -0.38480532
-0.22553414 0.45196915 -0.077368155 0.37131846 0.2932893 -0.4396866 0.18869117 -0.21206939
-0.06015601 0.5384475 -0.27885422 -0.5349121 0.36768654 0.34370455 0.46125248 -0.35917374
-0.38433546 0.53798205 0.03773625 -0.024262493 -0.3328975 0.27909726 -0.25583738 0.24485128
0.04403131 0.470783 -0.27341452 0.55793667 0.30821446 -0.39118236 -0.5018511 -0.46792758
-0.35349137 -0.55026984 0.42842752 -0.3724907 -0.22545087 0.49511465 -0.13719967 0.44756073
-0.21715397 0.15807554 0.040588662 0.27039555 -0.17481032 0.11548096 -0.36182523 -0.40380812
-0.20784307 -0.54514074 -0.111656584 -0.30598846 0.037428796 0.553818 -0.15774453 0.023556978
-0.08593994 -0.2133937 -0.3786476 0.43213752 -0.21086834 0.084974475 -0.112453155 0.21860431
0.0241428 -0.048056096 -0.40205553 0.5216847 -0.029001344 0.35985932 0.5399872 -0.120806515
0.098810315 -0.0049706437 0.1904084 -0.0006948338 -0.38952315 -0.4988511 -0.20006816 0.008224823
00000000: 8082 25bd 0eab 02bf 7bca 07be cd08 c8be
00000010: c488 e93d bf08 49be 45b9 f63b 83f2 e03e
00000020: 4221 c73d a5b6 043f c8fe a4be d184 af3d
00000030: 730a c4bd 05bc e03e 0f91 47be 3405 c5be
00000040: 6cf2 66be 8068 e73e 3273 9ebd 741d be3e
00000050: 042a 963e 9a1e e1be 4238 413e b828 59be
00000060: 2666 76bd b2d7 093f fbc5 8ebe 00f0 08bf
00000070: 6941 bc3e 0bfa af3e 4929 ec3e 9fe5 b7be
00000080: 9ec7 c4be 31b9 093f 5391 1a3d 23c2 c6bc
00000090: 8b71 aabe d6e5 8e3e 1efd 82be 4bba 7a3e
000000a0: 2d5a 343d 780a f13e fdfc 8bbe f0d4 0e3f
000000b0: 49ce 9d3e 0e49 c8be 5079 00bf 3494 efbe
000000c0: d2fc b4be 7cde 0cbf da5a db3e 1ab7 bebe
000000d0: 98dc 66be ab7f fd3e 127e 0cbe ae26 e53e
000000e0: 9c5d 5ebe 8ede 213e 4c40 263d 4971 8a3e
000000f0: 7a01 33be 4881 ec3d 2841 b9be f0bf cebe
00000100: d0d4 54be 588e 0bbf 35ac e4bd 85aa 9cbe
00000110: f04e 193d 04c7 0d3f c887 21be 90fa c03c
00000120: 4701 b0bd e183 5abe 19de c1be 2141 dd3e
00000130: dfed 57be 1907 ae3d d74d e6bd cfd9 5f3e
00000140: 1fc7 c53c 78d6 44bd 39da cdbe 218d 053f
00000150: 3a94 edbc 7b3f b83e 9a3c 0a3f 6869 f7bd
00000160: 105d ca3d c8e0 a2bb 6bfa 423e 8225 36ba
00000170: 946f c7be 6969 ffbe abde 4cbe 68c1 063c

conv1.bias f4 [32]
-0.15708005 0.35683206 -0.4189336 0.42507517 -0.12933022 0.14940102 -0.46534932 -0.16080146
0.21007738 -0.28533414 -0.4126433 0.26025203 -0.48719424 -0.55877906 -0.05312804 0.4470261
0.49192125 0.090580426 0.03923517 0.38004655 -0.4494259 0.17527157 0.4681087 -0.45024523
0.4462556 0.025904862 -0.0034182004 0.3739251 -0.5042616 -0.5019282 -0.28979826 -0.24881266
00000000: 98d9 20be b1b2 b63e 777e d6be 74a3 d93e
00000010: 246f 04be 95fc 183e 4442 eebe 23a9 24be
00000020: 861e 573e 5117 92be fc45 d3be c13f 853e
00000030: 8671 f9be 250c 0fbf ca9c 59bd 9be0 e43e
00000040: 1add fb3e 3b82 b93d 0fb5 203d 7695 c23e
00000050: 271b e6be 647a 333e f2ab ef3e 8b86 e6be
00000060: 9d7b e43e 6f36 d43c e303 60bb 1c73 bf3e
00000070: 4a17 01bf 5e7e 00bf 7060 94be bfc8 7ebe

fc.weight f4 [1, 32]
-0.12456095 0.1172425 0.074080355 -0.03753244 0.031668577 -0.014812631 0.16177423 -0.13003333
0.14010161 -0.020086886 -0.16233887 -0.044015456 0.085981324 0.10064852 0.09795182 -0.018576168
-0.011907909 -0.022369945 0.07834951 0.08248642 -0.1469194 0.02560684 -0.06495109 0.02366898
-0.13201202 -0.167409 -0.049111474 -0.09740367 0.17168786 -0.12357839 0.07195785 -0.16922194
00000000: d019 ffbd d61c f03d 71b7 973d 9ebb 19bd
00000010: e9b6 013d adb0 72bc 25a8 253e 7527 05be
00000020: cc76 0f3e 418d a4bc 293c 26be 8d49 34bd
00000030: fa16 b03d d020 ce3d f79a c83d 0c2d 98bc
00000040: 6419 43bc 2d41 b7bc b575 a03d a4ee a83d
00000050: 0a72 16be 70c5 d13c 1405 85bd 73e5 c13c
00000060: 292e 07be 446d 2bbe 1d29 49bd 937b c7bd
00000070: f1ce 2f3e ab16 fdbd a35e 933d 8448 2dbe
