models/gru.pth (torch, 16928 bytes, 5 tensors)

gru.weight_ih_l0 f4 [96, 4]
00000000: 6c97 8dbd 2ef8 81bd b828 e3bc 2499 813d
00000010: 0049 09be 564f 29be 6c48 04be b00a 453d
00000020: d56b 053e 07ef 2fbe b2c4 c33d b217 8b3d
00000030: f7de f0bd 1af2 42bd 17a5 803d b136 143e
00000040: f3bf 893c f3ff 24be 976f 0abc a10b 25bd
00000050: b55e 123e c62c 833d acda 1fbe 5f60 32be
00000060: 29bb 043e ddf4 023e 0007 64bd 7070 d03c
00000070: 4ca2 23be bb2c 0a3e 03ca e33d fa20 b63b
00000080: 362c 353c 347a 04bd 3ee6 f83d d6de 22bd
00000090: 93e8 bcbc ffcc 103d 78bb 1cbe 36dc 143e
000000a0: 6001 dc3c 3037 7f3c 36ed 983d de37 1ebe
000000b0: 7e5e a83d 0572 0bbe 880c 81bc cc6b 02be
000000c0: 41a0 a1bd fc8f 22be 4c7c 25be dd9f 15be
000000d0: 1c50 7e3d 6ed0 e53d 3bae 6a3d 1275 89bd
000000e0: b4ec 1d3d 029e 33be b0f6 c43c 3e54 ac3d
000000f0: 5def 2abd 327d 81bd de6d 4ebc 1f39 c3bd
00000100: 08b6 aa3c 7811 10bd 0057 89ba 9253 eabd
00000110: 99e0 c8bd 346f ecbd 76c2 e8bc d205 c53d
00000120: 6a1f f23c 2d61 22bd 46a1 a3bb 9d33 9d3d
00000130: 5800 a9bc 3cda 2f3d 84c1 863d cda4 1fbd
00000140: 445e 603d 8c6e 96bd 0cc0 21bd 6313 233e
00000150: 45f6 23be bfce c2bc 9861 1a3e e344 00be
00000160: 612d 023e df65 11bd b2f0 043d 1d18 c6bd
00000170: 7f62 0fbe ec46 703d fb9c 79bd f0a6 01be
00000180: 674c d2bd fe3c b0bd ff3d 05be a994 223e
00000190: 31a2 2c3e 0def 883d fb5a 5dbc 679b 6e3c
000001a0: c084 5abb b2b6 a03d 94c9 5e3d 4847 83bd
000001b0: c069 ffbc ac96 1e3d 36c9 0cbe dc31 ffbd
000001c0: 83bf cebd 787f e8bd 793b 1bbd baa8 093e
000001d0: 55a7 02bd 401b 853d f26c 2bbd d5b4 2a3e
000001e0: 2c15 cfbd 0fb7 15be 854d 1dbd a9c1 8cbb
000001f0: 1a01 94bd 613e ffbb d45f 073c 6c77 5f3d
00000200: c55f 19be e101 013e 288f 3abe d957 0dbd
00000210: e5be 23bd e439 4b3d 64c7 02bb b68d a83d
00000220: 1754 2b3e b7c8 9d3d 3cac 1d3e b030 01be
00000230: 89d8 9c3d eef0 13be c7e4 1cbe 45ac 1dbe
00000240: 6da0 a83d e9b4 033e fac4 a1bd 03b4 dbbd
00000250: 47b6 39be efcb ddbd e659 15bd 7b3d a6bc
00000260: 4981 813d 3b97 163d fbcf 9e3d 4190 473d
00000270: 88a8 2f3e 6335 0bbe 2fb5 273d ccde 19bd
00000280: 5847 373d 29b1 8dbd 8d5f 29bd 4ede 93bd
00000290: f745 813d 0168 043d 283c 19be ede6 b0bd
000002a0: 8aca ab3d ca11 af3d 7d22 0c3e f374 183e
000002b0: 7ad1 cdbd c3a5 e6bd daa3 0b3e 155a b33c
000002c0: d6aa 04be d8c7 233e 5679 a63d 4d29 013e
000002d0: ccb5 ec3d a213 c9bd 829c dc3d dea4 27bc
000002e0: 2a02 f2bd 61ca febd fdd7 6a3d 7abc 743d
000002f0: 5a62 e2bd c6ce f93d bc61 0dbd 6483 14be
00000300: 4d38 2b3d 7ae4 86bd bb16 15bd d758 a13d
00000310: 8572 32be 82cf f3bd 1495 29be d802 f6bd
00000320: fce7 1cbe babe bd3d 40ea 41bd 6a0f c43d
00000330: 81ce 603d 2e97 643d a2eb ca3d d729 253e
00000340: 1d5b 07be 3f67 bebd 9ebb 943d 4a71 0dbe
00000350: c115 cd3d 1e63 40bd ca31 563d 8a69 183e
00000360: ec34 e3bd 9edc 0ebd 5713 b3bd 5cd2 2a3e
00000370: cf7b e0bd f6ae 29be 053f 97bd 1d15 d73d
00000380: 338f 1a3e 3dca 823d be4d bcbb 3d44 2abe
00000390: dcc7 afba f8af a43c ecf4 8c3d c67e 333e
000003a0: 470c 8fbc 75bb 0bbe 2397 93bd e4ef 12be
000003b0: 77a9 fdbd 628a 54bd 3ff6 23be 158e 1fbc
000003c0: de10 883d 62bd e8bd b18d bdbd c68b 8c3d
000003d0: cec8 863d fbb8 3abe 45c3 b4bc ab67 6cbb
000003e0: 13be c3bd d279 2d3e 7dc3 8abd a78a 393e
000003f0: d562 1bbe a106 b33d c390 c5bd 51c4 cf3d
-0.06913647 -0.06346165 -0.027729377 0.063280374 -0.13406754 -0.1653417 -0.12918252 0.048105896
0.13029416 -0.17181025 0.09559001 0.06791629 -0.11761277 -0.047594167 0.062814884 0.14473988
0.016815161 -0.16113262 -0.008449457 -0.040294293 0.1429394 0.06405024 -0.1561076 -0.17419575
0.12962021 0.1278872 -0.05567074 0.02544424 -0.1597988 0.13493626 0.11122515 0.0055581303
0.011057904 -0.032343104 0.1215329 -0.039763294 -0.023060119 0.03535175 -0.15305889 0.14537129
0.026856124 0.015577123 0.074671194 -0.15450999 0.08221148 -0.13617714 -0.015753046 -0.12736434
-0.07891894 -0.15875238 -0.16160697 -0.14611764 0.062088117 0.112213954 0.057295065 -0.067117825
0.038555816 -0.17540744 0.024043411 0.084145054 -0.04173218 -0.06322707 -0.012599437 -0.09532379
0.020838752 -0.03517291 -0.0010478199 -0.11441721 -0.098084636 -0.11544648 -0.028413039 0.09620251
0.029555995 -0.039643455 -0.0049935905 0.0767586 -0.020630047 0.042932734 0.06579879 -0.038975526
0.0547774 -0.07345304 -0.03948979 0.15925364 -0.16011913 -0.023780225 0.15076292 -0.12526278
0.12712623 -0.035497542 0.032456107 -0.09672568 -0.14002417 0.058661386 -0.060940724 -0.12661338
-0.10268479 -0.08605383 -0.13011931 0.15877022 0.16858746 0.0668622 -0.013510461 0.014563418
-0.0033343285 0.07847346 0.05439146 -0.0641008 -0.031178355 0.03871791 -0.13748631 -0.12460682
-0.10095122 -0.11352438 -0.037898514 0.1344327 -0.03189786 0.06499338 -0.041851945 0.16670544
-0.1011146 -0.14620613 -0.038404007 -0.004295547 -0.072267726 -0.0077894186 0.008262593 0.05455725
-0.1497794 0.12598373 -0.18218672 -0.034507606 -0.039976973 0.049615756 -0.0019955272 0.08230154
0.16731296 0.07704299 0.15397733 -0.12616229 0.07658488 -0.14447376 -0.15321647 -0.15397747
0.08233724 0.1286198 -0.078988984 -0.10727694 -0.1813594 -0.10829913 -0.036462687 -0.020292988
0.06323487 0.03676532 0.07754513 0.048721556 0.17154133 -0.13594584 0.040944275 -0.03756599
0.044745773 -0.06918556 -0.04135089 -0.07220136 0.06312173 0.03232575 -0.14964354 -0.086377956
0.08388241 0.08548315 0.13685031 0.14888363 -0.1004972 -0.11262085 0.13636723 0.02189354
-0.12955794 0.15994203 0.08128612 0.12613411 0.115581125 -0.09818198 0.10772039 -0.0102321785
-0.11816819 -0.124409445 0.05733489 0.059750058 -0.11053915 0.12197642 -0.034517035 -0.14503247
0.04180174 -0.06586547 -0.03639863 0.07878273 -0.17426498 -0.11904813 -0.16560775 -0.12012261
-0.1532287 0.09264894 -0.04734254 0.095732525 0.054884437 0.05580824 0.09908225 0.16129242
-0.1321835 -0.092970364 0.07262348 -0.13812748 0.10013915 -0.046969526 0.052293576 0.1488401
-0.110940784 -0.034878366 -0.08743923 0.16681808 -0.109611146 -0.16570649 -0.07385067 0.10502074
0.15093689 0.0638623 -0.0057465723 -0.16627593 -0.0013411003 0.02010344 0.06882653 0.17528829
-0.017461909 -0.13645728 -0.072065614 -0.14349324 -0.123858385 -0.051889785 -0.16011904 -0.009738465
0.06643842 -0.11364247 -0.09255541 0.06862597 0.06581269 -0.18234627 -0.022065768 -0.0036072533
-0.09557738 0.16941002 -0.06775568 0.18119298 -0.1517442 0.08741499 -0.09646752 0.10144866

gru.weight_hh_l0 f4 [96, 32]
00000000: 5c41 6dbd 227b d63d d9eb 103e b2a2 d03d
00000010: aff3 1c3e 98d6 8bbc d890 10bd 6423 03bd
00000020: 18fb 38bd 233b 2a3e 8aa6 983d 0a4b 1ebe
00000030: cac9 c33d 8812 11be 3a5d 8f3d acb8 2abd
00000040: b80b 0dbd 60fb fcbc da40 c53d 37f5 dabd
00000050: 07d7 143e 7c94 84bd 2a06 12be 5a38 c53d
00000060: e15e babd b194 293e 3428 04bd 5112 0d3e
00000070: b0a1 9dbc 02b7 db3d 001b feba a307 163e
00000080: 49fc 2e3e 52c2 30be 03b4 1d3e 98c4 e1bc
00000090: 7dbb 1d3e 50a9 febd 0a68 e2bd c0ab 653c
000000a0: 80dd e73c 0cda e7bd 45d9 e5bd 384f 9e3c
000000b0: a36d 323e a84f 04bd 6730 b5bd 4a7e 9e3d
000000c0: 2084 ecbd 0636 ee3d b943 a7bd 84e2 c4bd
000000d0: 9aa2 b63d 3980 1b3e 7c3b 713d c96e 1a3e
000000e0: 98ca f53c b658 dabd fa46 c23d f437 5e3d
000000f0: 5156 003e 36a9 cd3d 9251 e03d 06a5 bf3d
00000100: 4a1b 64bd 4633 62bd 0865 703d e7da c6bd
00000110: 127e 9b3d 50e9 a93c e16f e1bd f7b6 323e
00000120: b660 95bd 386f fabc a2a1 9e3d 5775 183e
00000130: b650 e83d 8821 163d 52e9 ce3d c291 30be
00000140: e476 4cbd 52c0 a13d c094 253c 40a5 7b3b
00000150: 80d9 9ebc 0060 103c 7940 acbd 4158 153e
00000160: 5b59 29be 2b8f 0fbe 10d0 8abc 38a1 1d3d
00000170: 07e3 86bd e69c dc3d c7f5 08be 00bc 113a
00000180: 2333 263e 248f 2ebe 2246 bd3d f02b 243c
00000190: 868d 10be 4012 54bc 50e6 a13c 78d3 d7bc
000001a0: 3acd 1ebe 7223 01be 10f9 a13c 18d8 dcbd
000001b0: 6e74 89bd 2237 dbbd b0b8 c4bc a6f5 abbd
000001c0: a340 1a3e 24c8 49bd 17a6 28be b076 b9bc
000001d0: 68b0 3dbd f1a4 89bd 9da1 2f3e 8d0f 323e
000001e0: 6a78 06be c043 07bc a688 c13d 349c 453d
000001f0: 928c df3d e6a5 6dbd e0bf efbd c88e 58bd
00000200: 200b b93c 67c5 31be cb6d 323e 56ba e13d
00000210: 20b4 8f3c b03e e93c 6884 ecbc 909e babc
00000220: 4bce 10be 50b6 98bc 6278 e83d 6e5a 20be
00000230: 3093 a7bc 5e69 06be d863 c2bc 24cc 06be
00000240: da2c e53d 73c7 fabd 587c 533d eec6 f2bd
00000250: b2e6 a33d b86a 92bc 7e31 d03d 20d1 9bbc
00000260: 8476 abbd 07a7 043e 0817 e7bc 98b4 f73c
00000270: 9844 843d 4e48 883d 881a 3bbd cde4 94bd
00000280: d2ba a2bd 896d 313e cc48 1fbe 40fc 833b
00000290: e854 afbd 4fcd 063e 3621 a63d 8761 0b3e
000002a0: def3 d83d 7967 29be 20cc 093c e124 8fbd
000002b0: 004e fdba 4912 d9bd 00ad 2abc 9236 843d
000002c0: 7f92 1c3e 0ea0 dcbd 8711 2e3e 70eb 863c
000002d0: 3abc 04be 4063 ce3b 8d11 b6bd 3a1d ec3d
000002e0: f808 debc 2f26 8fbd 588d 123d 8997 90bd
000002f0: 20e8 2d3c 64b5 22bd ac38 2dbe d034 e9bc
00000300: 7ea9 a53d ddcf 0a3e 0066 39bc 1112 86bd
00000310: 117c 93bd 6ef3 923d 49c0 233e b984 babd
00000320: d78b b1bd 4ad1 afbd 2ca5 423d 3810 073d
00000330: d8f0 e3bc 674b 8ebd 0819 1ebd 30ba 81bd
00000340: 3151 0b3e 9ead f13d af80 333e e00f 8bbc
00000350: 7813 283d 8ad6 70bd 80f9 6b3b c837 1d3d
00000360: eccf 0cbd a614 1fbe 40eb f4bc a0de 11be
00000370: 00fa 653d b854 fe3c e8bb 5d3d d825 553d
00000380: ba8c 0abe e2a6 b33d c402 33be 1612 c83d
00000390: d489 673d 455c 9bbd 4e27 fbbd ee3d c53d
000003a0: 7276 b8bd 89da a1bd 901d 7dbc 95c0 babd
000003b0: a051 f4bc 289b e1bc 7c22 37bd d5e8 2b3e
000003c0: b069 43bc 8b83 06be 00f5 c3bb 8256 8f3d
000003d0: a1ff e1bd 0021 88bc bafe d33d ea33 f7bd
000003e0: a989 2e3e a2b8 a53d 0023 32be ee2c 92bd
000003f0: c0fa 9bbc 6673 c33d 34a6 14be 728a ff3d
-0.05792366 0.104727045 0.14152469 0.10187282 0.15327333 -0.0170701 -0.035294384 -0.032016173
-0.045161337 0.16624121 0.0745364 -0.15458313 0.095599726 -0.14167225 0.070002034 -0.041680023
-0.034435004 -0.030881584 0.0963151 -0.10691302 0.14535151 -0.06473634 -0.14260164 0.09629889
-0.09100128 0.16560628 -0.032264903 0.13776518 -0.019242138 0.10728265 -0.0019386709 0.1465135
0.17088427 -0.17261627 0.154007 -0.027559564 0.15403552 -0.124346375 -0.11055 0.014017999
0.028303862 -0.11320886 -0.112230815 0.019324884 0.17424636 -0.03230253 -0.08847123 0.077389315
-0.11548638 0.11631398 -0.08167214 -0.09613517 0.089177325 0.15185632 0.05889462 0.15081324
0.03000383 -0.106614515 0.09486194 0.05425258 0.12532927 0.1004204 0.10953058 0.093576476
-0.055690087 -0.05522468 0.0586901 -0.09709721 0.075924054 0.020741135 -0.11007667 0.17452608
-0.07293837 -0.030570611 0.07745673 0.14888512 0.113435194 0.03665307 0.10103096 -0.17243102
-0.04991807 0.0789801 0.010106266 0.0038398057 -0.019390821 0.008811951 -0.08410735 0.14584447
-0.16537993 -0.14019458 -0.016944915 0.03848383 -0.06586271 0.107721135 -0.13375007 0.0005559325
0.16230445 -0.17046791 0.092418924 0.010020241 -0.14116487 -0.012943804 0.019763142 -0.026345953
-0.15507975 -0.12611178 0.019772083 -0.10783404 -0.0671166 -0.10703875 -0.024013847 -0.08396463
0.1506372 -0.049263135 -0.16469608 -0.022639602 -0.046310812 -0.06720913 0.17151494 0.17388745
-0.13131872 -0.008255899 0.09449892 0.04824467 0.109154835 -0.05801954 -0.11706519 -0.05287054
0.022588313 -0.1736046 0.17424695 0.11021869 0.017541945 0.028472275 -0.02887173 -0.022780687
-0.14141195 -0.01864162 0.11351086 -0.15659496 -0.020455927 -0.13126132 -0.02372925 -0.13163811
0.111901954 -0.12245073 0.051632255 -0.11854349 0.08002986 -0.017873153 0.1016569 -0.019020617
-0.083722144 0.12954341 -0.028209224 0.030237481 0.06458396 0.06654416 -0.0456796 -0.07270203
-0.079457894 0.1732694 -0.15555114 0.0040278733 -0.085611165 0.13164257 0.08111803 0.13611422
0.10593389 -0.16543378 0.008410484 -0.06989456 -0.0019325614 -0.10599191 -0.010417223 0.06455721
0.15290259 -0.107727155 0.16998874 0.016469687 -0.12962428 0.0062984526 -0.08890066 0.11529012
-0.027103886 -0.06989705 0.035779327 -0.07060153 0.010614425 -0.03972377 -0.1691615 -0.028467566
0.08088969 0.13555856 -0.011315823 -0.06546415 -0.07201398 0.07175337 0.1599132 -0.09107346
-0.086692505 -0.085848406 0.0475208 0.03297445 -0.027824804 -0.069479756 -0.03859809 -0.063343406
0.13605191 0.11800693 0.17529558 -0.016975343 0.04103419 -0.05879835 0.0036006868 0.038383275
-0.034377977 -0.1553522 -0.029897332 -0.14245081 0.05614662 0.031046256 0.05413428 0.052038044
-0.13530245 0.08772065 -0.17481524 0.097690746 0.056527928 -0.075859584 -0.12263356 0.09630953
-0.09006967 -0.079030104 -0.015448943 -0.09118763 -0.029824078 -0.027539805 -0.04471062 0.16788037
-0.011927053 -0.13136117 -0.005980134 0.06998922 -0.110350855 -0.016617298 0.103513196 -0.12070449
0.170447 0.080918565 -0.17396164 -0.07137476 -0.019040465 0.09543495 -0.14516526 0.12477578

gru.bias_ih_l0 f4 [96]
00000000: 5471 30be d70f 403c afdb 30be be8d ad3d
00000010: 18de 04bd 797f 103e 767f db3d 10aa a0bd
00000020: 631a 7dbd 53d3 343e 78f9 00be 1925 febd
00000030: 58ae a0bc b67a d1bd 1fb2 babd 7a6c c93c
00000040: dab5 0bbe 20f1 6abd cee2 1b3e 9436 eebd
00000050: c2db f93d 5301 a23a 7a12 823d 3c01 ba3d
00000060: f473 083d eb67 2e3e 28ab f33c 6c2d 343d
00000070: 0b13 353e 688a 353d e3c7 903d b75b fdbc
00000080: 708f 8a3d 2218 77bd 3621 a63c 7ad4 d63d
00000090: 7576 23be 9339 91bc 7285 083d 07ff f63d
000000a0: 28fa 283e c143 8bbd b6b4 5fbd 8011 9fbd
000000b0: 6af1 833d 22d9 31be 94ef 373e b12d 2fbe
000000c0: f34a 3c3c a0ec bfbb a0a0 923d 4e26 f3bc
000000d0: 800b 253d 1623 153d d83d bf3d e639 d5bd
000000e0: f506 663d 58b2 93bc 540e 0ebe 0219 343d
000000f0: 4a4c efbd 7fc9 33be 2e4b fe3d f075 d13d
00000100: e00e 803b 7461 3e3c 8881 e7bc 1fd2 913d
00000110: 7816 1c3c 16b4 df3d ac06 34bd 7e67 243e
00000120: ce3f 5b3d d9f7 53bd c000 b5bd 53df df3d
00000130: c7f8 7a3d 1e69 13be 5009 acbc fe88 293d
00000140: 8a7a bc3d fec9 a1bb 3275 2bbd f1b4 2b3e
00000150: 56b7 ec3d c586 67bd bffa 04be dfba b3bd
00000160: 1704 03be 2a56 9c3c f200 ed3d 8365 01be
00000170: e9f5 70bd e83d 183d 1666 e03d 0778 20be
-0.17230731 0.0117225265 -0.17271303 0.08474301 -0.032438368 0.14111127 0.107176706 -0.07844937
-0.061792742 0.17658739 -0.12595165 -0.124094196 -0.019614384 -0.102284834 -0.09116005 0.024587858
-0.1364359 -0.05735886 0.15223238 -0.11631504 0.122001186 0.0012360014 0.063511804 0.09082267
0.033313707 0.17031829 0.0297447 0.04398863 0.17683046 0.044321448 0.07069375 -0.030927522
0.0676564 -0.06032575 0.020279508 0.104897454 -0.15963157 -0.017727649 0.03333039 0.12060361
0.16501677 -0.068000324 -0.0546157 -0.0776701 0.064425305 -0.17367986 0.17962486 -0.17107274
0.011492479 -0.0058570653 0.07159543 -0.029681351 0.04029417 0.036410414 0.09337968 -0.10411434
0.05615898 -0.018029377 -0.13872653 0.04396916 -0.11684473 -0.17557333 0.12416683 0.10227573
0.0039080232 0.011619914 -0.028260008 0.071201555 0.009526841 0.109230205 -0.043951675 0.16055104
0.053527646 -0.051750038 -0.08838034 0.109312676 0.06127241 -0.14395568 -0.021000534 0.04139041
0.0920306 -0.0049374094 -0.041859813 0.16768242 0.11558406 -0.05652501 -0.12986277 -0.08775877
-0.12794529 0.019084055 0.11572446 -0.1263638 -0.05882827 0.037168413 0.10956971 -0.15670787

gru.bias_hh_l0 f4 [96]
00000000: 46c0 a53d ffd7 1abd dc07 a3bd 116b 21be
00000010: ccf7 3b3c b2b2 60bd a0e3 17be e0dd e03d
00000020: 6b00 22bd 209b 9abc 7018 44bc cafa c0bd
00000030: 8aef cf3d 65c7 143e a24a a8bd 5400 cebd
00000040: 8033 b8bc 84c9 193e 605b 81bb 16f3 e33d
00000050: 575b 00be 7b26 a3bd 8a2d 103d 91c3 163e
00000060: 05c3 03be 057e 0a3e 6f45 cdbd 7cd2 54bd
00000070: cf8c bcbd 129d 90bd 6972 853d 080b 2c3e
00000080: e0b2 dc3d fd1e d3bd 3fd8 273d 048b a1bd
00000090: 5911 cabd 199a 113e 4ec9 e9bd 10dd d9bb
000000a0: 6c06 823d 4723 36bd 540e 51bd 3bd6 213e
000000b0: 4a02 2bbd ff66 cdbc 95a1 89bd 7ef2 ffbd
000000c0: c7d3 923b 532e 283e 4b9d 0fbe 87ca 9ebc
000000d0: 3bd1 a0bd 21c1 be3d ff3e 13be b7d6 373e
000000e0: be3e 07be e456 47bd 371d 063e 8ea4 3dbd
000000f0: 5d64 d0bd 10ea 483d b391 4e3d a6a5 7bbd
00000100: d213 23be 076f 2ebd d674 f93d 68b7 afbd
00000110: 6ab5 35bd 80c0 14be 30dc 5dbd 5013 1a3e
00000120: 9ce6 f73d 45dd 313e 629d d5bd 78b7 0e3e
00000130: 008a 51bc e7f2 bc3c d89a 933d fd70 653c
00000140: 9f8e 1a3e 97c0 25bd f5b6 153e 634f 6abd
00000150: 4277 0abe 4971 063e e3dd 1cbe 94bd 51bb
00000160: 6694 a3bd c1fa e03d 223b be3d 6d7c 1d3e
00000170: aed4 91bc 670f 0fbe d24e a33d 8954 83bd
0.08093314 -0.037803646 -0.079604834 -0.15763499 0.011472654 -0.054857917 -0.14832926 0.10979819
-0.03955118 -0.018872797 -0.011968717 -0.09422834 0.1015311 0.14529188 -0.0821736 -0.10058656
-0.022485495 0.15018278 -0.0039476603 0.11130349 -0.12534843 -0.07966324 0.03519968 0.1472304
-0.12867363 0.13524635 -0.10023009 -0.051958546 -0.092065446 -0.07061209 0.06515963 0.16801083
0.10776305 -0.10308645 0.040977713 -0.07887843 -0.0986659 0.1421894 -0.11415349 -0.006648667
0.06348881 -0.044467237 -0.051039055 0.15804379 -0.04175023 -0.025073526 -0.067202725 -0.124974236
0.0044808122 0.16423921 -0.14024846 -0.019383682 -0.078524075 0.0931418 -0.143795 0.17953001
-0.13207528 -0.04866685 0.13097082 -0.04629951 -0.10175393 0.049051344 0.05043192 -0.06143727
-0.1592553 -0.042586353 0.12180488 -0.08579904 -0.044362463 -0.14526558 -0.054165065 0.1504643
0.12104532 0.17369564 -0.10430409 0.13937175 -0.012789249 0.023065044 0.072072685 0.014003989
0.15093468 -0.04046687 0.14620574 -0.057204615 -0.13522056 0.13129152 -0.15319018 -0.0032003867
-0.07987289 0.109853275 0.092886224 0.15379496 -0.017801609 -0.1397072 0.07974018 -0.06412608

fc.weight f4 [1, 32]
00000000: 136f 0e3e 014b 94bd 4e9e 833d 5510 0cbe
00000010: 978a de3d a756 31bd cb1b 2dbe ae60 c1bc
00000020: 3079 0abe 2284 103e fee5 a9bd b961 fe3d
00000030: 441e a93d 8461 1fbe df69 933c c4e7 353e
00000040: 38d5 493d f59e 223e ef9a ecbd ec08 703d
00000050: a05e 6a3d 9ac8 b3bd 1cb0 0f3c 2282 b9bd
00000060: 9529 133e 9cee 4d3d 14f2 6a3c 693c a83c
00000070: 2b43 16be 881c 04bd 3933 8a3c 6f67 313e
0.13909559 -0.07240868 0.064266786 -0.13678105 0.10866278 -0.04329553 -0.16905133 -0.02360567
-0.13522792 0.14112905 -0.08295821 0.12420983 0.08257726 -0.15564543 0.01799482 0.17764193
0.049275607 0.1588095 -0.11552989 0.05860226 0.057219148 -0.08778496 0.008770015 -0.09058024
0.14371331 0.050276384 0.0143399425 0.020536618 -0.1467406 -0.032253772 0.016870128 0.17324613
