models/gru_weights_price.pth (torch, 6956 bytes, 5 tensors)

gru.weight_ih_l0 f4 [48, 4]
000000 e0 73 b6 3d 0e 09 44 3e c4 6a 20 3e fc 4f 70 3e
       0.0890882 0.19144079 0.15665728 0.23468012
000010 da 3d 15 3d 51 a5 0b 3e a4 25 48 3e 87 95 3f be
       0.03643594 0.13637282 0.19545609 -0.18709384
000020 60 2c 18 bd 90 0b 60 3e 84 86 7b be 00 68 f6 3d
       -0.037151694 0.2187941 -0.24563032 0.12031555
000030 20 5e a0 bc 04 06 cc 3d 78 51 43 bd 10 68 c3 3d
       -0.019576132 0.09962085 -0.047685117 0.09541333
000040 18 2c 9c bd 15 ea 36 bd e0 94 ca 3d 5a 9f 98 3d
       -0.07625598 -0.04465683 0.09891677 0.07452269
000050 e0 da 25 3c 84 29 54 be 40 3a 9b bb 04 7b c8 3d
       0.010122985 -0.20718962 -0.0047371686 0.09789088
000060 d8 6c 65 3d 28 cb 54 3e 2c c6 df 3d c0 82 0c 3c
       0.056012005 0.20780623 0.1092647 0.008576095
000070 60 aa 96 3c 20 e8 8c 3c e2 5d 0b 3e 30 91 55 bd
       0.018391788 0.01720053 0.13610032 -0.052140415
000080 ec 2a 08 3d f2 e1 e5 bd c5 f0 ad 3d 41 a0 1e 3e
       0.03324406 -0.11224736 0.08493189 0.1549082
000090 9e 6d 76 3e 9e 68 25 be d2 68 15 be 14 94 c3 bd
       0.24065253 -0.1615319 -0.14590767 -0.09549728
0000a0 40 4c cd bc 08 28 f5 bd b8 e3 54 bd 8c ff 01 be
       -0.025060773 -0.11970526 -0.051974982 -0.1269514
0000b0 c0 05 8a bb c0 5d 64 3d 32 6a 2d 3e e0 d3 14 3d
       -0.0042121112 0.05575347 0.16935042 0.036334872
0000c0 28 ff 83 bd f8 9d 0b bd 5c 24 4c be 50 b5 d0 bc
       -0.064451516 -0.034086198 -0.19935745 -0.025477082
0000d0 f3 5a 85 3d 3b d8 9f 3c 7b 23 39 be 42 e9 12 be
       0.06511488 0.019512286 -0.18079941 -0.14346793
0000e0 4e 81 7b 3e 84 71 24 be 40 88 35 3e 4c 90 c9 3d
       0.24561045 -0.16058928 0.17727757 0.098419756
0000f0 e3 df 0c 3d 43 09 56 bd 48 f1 0a 3e c1 dd 6b bd
       0.034393203 -0.052254926 0.13568604 -0.057584528
000100 f1 b4 5c be fb 88 73 3e 2f bb 5c 3c aa c7 13 be
       -0.21553399 0.23782723 0.013472362 -0.14431635
000110 0a 60 2b be b9 0a 01 be d8 e7 79 bd 57 0c 49 3d
       -0.16735855 -0.12601747 -0.06101212 0.049084034
000120 fc aa b0 3c 9f 8a 2d 3e b4 4b 16 be ed 0a 47 be
       0.021565907 0.16947411 -0.14677316 -0.19437762
000130 5d a8 18 3d 5c 79 f7 bd ce 0c da 3d a2 4c 98 bc
       0.03726994 -0.12083694 0.106469736 -0.018591229
000140 75 f6 e2 bd db 7d 05 be 34 d2 62 3e f9 23 55 3e
       -0.11082164 -0.13036291 0.22150499 0.20814504
000150 e9 b3 32 be 4b fd 04 be 0d 5c 69 3e bf 74 01 3e
       -0.17451443 -0.12987249 0.22789021 0.12642191
000160 91 e7 70 3d 26 ed b9 3d 04 3f f5 3c c1 e7 9a bd
       0.05881459 0.090784356 0.029937275 -0.07563735
000170 05 3e b3 bd 97 99 b6 3d 39 f8 8c 3d 11 e0 7f bd
       -0.08752064 0.08916014 0.06883282 -0.062469546
000180 c8 dd c4 bd cd 02 2b bd af 3e 09 3e dd 3a ea 3c
       -0.09612614 -0.041750718 0.13402818 0.028592521
000190 b6 fd 34 be ad 06 d1 3d 18 c3 82 3a 04 94 64 3d
       -0.17674908 0.102063514 0.0009976355 0.05580522
0001a0 e5 29 32 3e 00 d6 4e 3d c4 2d 1f be ac 1f 28 be
       0.17398794 0.050497055 -0.15544802 -0.16418332
0001b0 78 92 67 be e4 98 70 3e 36 5f 4e 3e e3 5f 4e be
       -0.22614467 0.23495823 0.20153508 -0.20153765
0001c0 d0 20 32 3d c8 72 69 3e 80 2d 00 3e 2c 3f b8 3d
       0.043488324 0.22797692 0.12517357 0.08996424
0001d0 f0 bc b1 bd a4 8a 54 bd 14 48 c7 3d 83 81 37 be
       -0.08678615 -0.05189003 0.09730545 -0.17920499
0001e0 c4 a3 cd bd 0e d3 69 3e 40 4a 3c 3e a0 ee f5 3d
       -0.100410014 0.22834417 0.18387699 0.12008405
0001f0 d9 aa 37 3d f6 cc cc bc 44 91 07 be f7 2d 93 3c
       0.044840667 -0.025000077 -0.13239008 0.017966254
000200 8c bb be bd 4c d0 eb 3d 4c 7f 20 3e e0 47 12 3c
       -0.093131155 0.11514339 0.1567356 0.008928269
000210 72 02 2f bd 61 94 f1 bd 58 a2 7b bd c8 ac df 3d
       -0.04272694 -0.11795879 -0.06143412 0.10921627
000220 80 90 38 3e 50 81 d7 bc b0 43 4a 3e b2 63 2f 3e
       0.18023872 -0.026306778 0.19752383 0.17127874
000230 52 ed 6f be 80 87 02 bd 20 b9 a4 3d 48 71 b3 bd
       -0.23430374 -0.031867504 0.08043122 -0.08761841
000240 82 dc 95 3d d0 9e fe bd 0c f4 a9 3a 97 0a 23 3e
       0.07317449 -0.12432635 0.0012966408 0.15922008
000250 fe 08 5a be 98 5e 5c 3e db 72 1f 3d 09 37 2a 3e
       -0.21292493 0.2152046 0.038927894 0.16622557
000260 1c 07 49 3e c0 42 26 be 26 a3 4b 3e 68 6f 44 3d
       0.19631618 -0.162364 0.19886455 0.047957808
000270 06 d9 8a bd f5 b7 04 bc f2 35 2d 3e 51 da 2e be
       -0.06779675 -0.008100499 0.1691511 -0.17075469
000280 86 ca 2d 3e 9a c0 11 be f6 38 1b 3d 85 6c 3b bd
       0.16971788 -0.14233628 0.03789612 -0.04575779
000290 40 9b 46 3a 15 fb e4 3d 37 d0 a3 3d 10 1c 0a be
       0.00075762346 0.111807026 0.07998698 -0.13487267
0002a0 40 97 58 be be d0 68 3e a2 83 52 3e a8 70 0d 3e
       -0.21151447 0.22735879 0.20558026 0.13812506
0002b0 8e 2d 48 be 25 7b 1b 3e a9 07 66 3e d7 75 2c bd
       -0.19548628 0.15183695 0.2246386 -0.04210457
0002c0 0c 22 f5 3d 04 b3 ee bd 00 ab 3b 3e 96 57 33 3e
       0.119693846 -0.11655238 0.1832695 0.1751388
0002d0 37 bb 05 3d 02 26 2e bd 3d d2 c9 bd d4 44 e9 3d
       0.032649245 -0.042516716 -0.09854553 0.11390081
0002e0 20 ff 3d 3e 30 b5 50 3d c4 db b6 3d 96 11 64 3e
       0.18554354 0.050954044 0.08928636 0.22272334
0002f0 b2 97 60 bd 1d 40 0f 3e 39 00 0a 3e 22 a0 bc bd
       -0.054832168 0.13989301 0.13476647 -0.092102304

gru.weight_hh_l0 f4 [48, 16]
000000 e0 cf 54 3e a2 e0 50 be f0 41 02 bd 4c e0 9c bd
       0.20782423 -0.2039819 -0.031801164 -0.07659969
000010 b6 2b 11 3e 00 48 e9 bd e0 60 fd bd 7c b8 c9 3d
       0.1417683 -0.11390686 -0.12371993 0.09849641
000020 2e 1b 63 3e 20 67 1a 3e 5e 96 41 be 08 19 ea 3d
       0.22178337 0.15078402 -0.18905017 0.114305556
000030 b8 63 f2 3d 9e 47 08 3e b0 25 1a 3d 98 d4 d3 3d
       0.11835426 0.1330857 0.037633598 0.103432834
000040 e8 e4 3a 3d 00 a6 a3 ba 68 90 51 3e 88 66 42 bd
       0.04562846 -0.0012485385 0.20465243 -0.047461063
000050 20 df 31 bc 98 03 54 be 24 2a b5 bd 20 66 32 3d
       -0.01085642 -0.20704496 -0.08845928 0.043554425
000060 5a 1c 00 be c4 67 eb 3d 0c 72 9d 3d be 22 6e be
       -0.12510815 0.11494401 0.07687768 -0.2325544
000070 06 95 77 be b0 be 1b 3d 88 43 3d bd fc 36 d1 3d
       -0.24177942 0.03802365 -0.04620698 0.102155656
000080 d0 4a 97 bd b8 fd e1 3d 30 d0 ab 3c 64 8b 3b be
       -0.07387316 0.11034721 0.020973295 -0.18314892
000090 00 f3 e9 3d 64 c4 a4 3d d8 dd 54 3d 66 df 41 be
       0.11423302 0.08045271 0.05196938 -0.18932876
0000a0 e0 f4 0c 3d 60 4f c7 3c 64 ce 50 be 4a 2a 17 3e
       0.03441322 0.024329841 -0.20391232 0.14762226
0000b0 38 1f 6b 3e 1c 22 80 3d 2c 54 75 be e4 ae 7a 3e
       0.22961128 0.06256506 -0.2395789 0.24480778
0000c0 5c 34 b3 3d 80 64 34 be 54 be 4e be 50 0a 2f bd
       0.08750221 -0.17616463 -0.20189792 -0.042734444
0000d0 d4 f0 ec bd 78 06 44 3d b6 0c 3d 3e 78 cd 70 3d
       -0.11569372 0.04785773 0.1846188 0.0587897
0000e0 5a ff 2d be 60 90 b0 bc c2 90 1d be 18 88 d1 bd
       -0.1699194 -0.021553218 -0.15387252 -0.10231036
0000f0 a0 77 73 3e 14 e3 a5 bd 40 16 24 bd e4 63 97 3d
       0.23776102 -0.08099952 -0.04006028 0.073920995
000100 70 dd 9a bc 86 8d 17 3e 3a 3d 21 3e fc ce 81 3d
       -0.018904418 0.1480008 0.15746012 0.06338307
000110 20 54 05 bd c0 5e 91 3b 40 3d 25 bd c8 34 c7 3d
       -0.03255093 0.004436344 -0.040341616 0.09726864
000120 94 0d 1d be 8c ff 94 3d a6 67 2f be 48 e2 1f 3d
       -0.15337211 0.07275304 -0.17129382 0.039034158
000130 c4 8f 67 3e 1c 5b 6b be 34 db 3d 3e 54 7f c2 bd
       0.22613436 -0.22983974 0.1854065 -0.09496942
000140 c8 de a3 3d 00 ad 1d be fc bb 9b 3d b0 1c 09 be
       0.080014765 -0.15398026 0.076042145 -0.1338985
000150 72 90 7f 3e a8 e3 78 3d a8 cd 58 3e 40 87 cd bc
       0.24957445 0.060763985 0.21172202 -0.025088906
000160 62 2c 02 be 94 69 65 3e b0 c2 94 3d cc 97 82 3d
       -0.12712243 0.22403556 0.07263696 0.06376609
000170 f6 76 09 3e c0 b8 00 be 06 2f 1e be a0 58 0e 3d
       0.13424286 -0.12570477 -0.15447626 0.034752488
000180 52 72 1e be 6c 75 a6 bd 06 fa 5c 3e f6 54 72 be
       -0.15473297 -0.08127865 0.21579751 -0.23665223
000190 1c 3c 27 3e a2 73 08 3e d8 85 d6 bd 60 20 5e be
       0.16331524 0.1332536 -0.104747474 -0.21692038
0001a0 6a 60 72 be 3c da 74 be a4 65 fd 3d b4 d2 d5 3d
       -0.23669592 -0.23911375 0.12372902 0.10440579
0001b0 80 03 2c bb 78 28 63 3e 18 d8 6f 3d 7a ab 65 3e
       -0.0026247203 0.22183406 0.058555692 0.22428694
0001c0 6e 3e 35 3e 14 30 70 3e 00 85 e1 bb 70 76 9b 3c
       0.17699596 0.2345584 -0.00688231 0.018977374
0001d0 1c 8f 61 be 90 7c 45 bd 00 c4 17 3d 70 12 12 3d
       -0.22027248 -0.048214495 0.037052155 0.035662115
0001e0 cc 00 62 3e 48 47 c5 bd ee 9f 27 3e 10 a4 ce bd
       0.22070616 -0.096327364 0.16369602 -0.10089886
0001f0 54 89 de 3d 7e 0d 36 be 60 64 68 bc a0 85 43 bc
       0.10866037 -0.17778584 -0.0141840875 -0.011933714
000200 58 e2 78 3e 5c c1 67 3e be a7 5c 3e 48 1d a8 3d
       0.24305093 0.22632354 0.21548364 0.0820871
000210 92 db 57 3e 18 23 0f bd c0 b0 ac bd 10 94 e7 3c
       0.21079853 -0.034945577 -0.0843215 0.028268844
000220 80 50 31 3e c0 6f f9 3d b8 0c 17 3e d4 86 3a be
       0.17315865 0.12179518 0.14750946 -0.18215495
000230 f8 8b b3 3d 12 3d 78 3e e0 9b 68 3e 90 d2 90 bd
       0.08766931 0.24242046 0.22715712 -0.070714116
000240 00 31 e4 3a 58 2c b4 3d 80 a3 e4 3d b2 de 67 be
       0.0017409623 0.087975204 0.11163998 -0.22643545
000250 84 27 f4 bd 7c dd 82 bd 20 fd e3 3d 98 3d 24 3d
       -0.119215995 -0.06389901 0.11132264 0.040097803
000260 fc ac cb bd f4 92 9a bd 7a ba 32 be 58 f7 50 3d
       -0.099451035 -0.0754756 -0.17453948 0.051017135
000270 f8 bb e0 bd a0 13 5c bd d4 a9 ca bd 70 d6 b7 bd
       -0.10973352 -0.053729653 -0.098956734 -0.089764476
000280 c0 4d c4 bd b0 4a 32 be da d6 1b be 70 dd 35 be
       -0.09585142 -0.17411304 -0.15218678 -0.17760253
000290 30 3f 6e be 80 09 80 3c 42 53 36 be 50 56 e0 bd
       -0.23266292 0.01562953 -0.17805198 -0.10953963
0002a0 30 ac c3 3d 54 f1 a5 bd 64 a9 2e 3e 64 8a 79 3e
       0.095543265 -0.0810267 0.17056805 0.24369198
0002b0 24 7c ec 3d d8 e1 6c 3d 12 1d 22 be 90 ba 38 bd
       0.115471154 0.05783257 -0.15831402 -0.045099795
0002c0 54 01 f2 3d 8e 36 26 3e 50 69 bc 3c a4 34 33 be
       0.118166596 0.16231748 0.022999436 -0.1750055
0002d0 00 5e b5 3d 60 2c bb 3d e0 10 1c 3e 60 f1 47 3c
       0.0885582 0.09139323 0.15240812 0.012203544
0002e0 64 3e 70 3e ee a0 1a 3e 46 f7 7f 3e 14 06 b4 bd
       0.234613 0.15100452 0.24996671 -0.08790222
0002f0 e4 39 2e be 0c 48 54 3e f4 fe 15 be 28 1a 2e 3e
       -0.17014271 0.20730609 -0.14648038 0.17002165
000300 4c f7 08 be da fc 6b 3e 38 3f 04 3e 80 4a 00 3e
       -0.13375586 0.23045674 0.12914741 0.1252842
000310 fe 86 43 3e 5e e3 4c 3e 10 d2 a6 bc e4 1e 44 be
       0.19094464 0.20008609 -0.020363837 -0.19152409
000320 c8 28 9b 3d e0 13 82 3d ce aa 77 be de 58 30 3e
       0.07576138 0.06351447 -0.2418625 0.172214
000330 d0 ce ae 3c fc fc 3f be ba 3e 38 be 9e d0 4e 3e
       0.02133885 -0.1874885 -0.17992678 0.20196769
000340 94 95 3c 3e fc 77 dd bd 58 e6 0e 3d dc 86 c1 bd
       0.18416435 -0.10813901 0.03488764 -0.094495505
000350 b8 2f 20 3e a4 fb 24 be 2a 85 4c be f8 d1 1b be
       0.15643203 -0.16111618 -0.19972673 -0.15216815
000360 60 56 e9 bc 24 ee 55 be 28 82 43 3e 1c 44 68 be
       -0.02848357 -0.20891625 0.1909262 -0.22682232
000370 70 40 fb bc f0 47 70 bd a0 bb 25 3d 74 fb f2 3d
       -0.030670375 -0.058662355 0.040462136 0.11864367
000380 e6 5f 77 be a0 65 97 3c e0 f6 4c bd 08 4a 17 3d
       -0.24157676 0.018481076 -0.050040126 0.036935836
000390 30 2e 25 3e ce 05 3e 3e f8 9f 3a 3e e0 b9 3a bd
       0.161309 0.18556902 0.18225086 -0.04558742
0003a0 3c d1 4e be e4 00 67 3e b8 41 2d be fc 90 69 be
       -0.20197004 0.22558933 -0.16919601 -0.22809213
0003b0 b4 76 b4 3d 80 11 88 3d bc 70 c3 bd 58 d9 ba 3d
       0.08811703 0.06643963 -0.09542987 0.09123486
0003c0 14 e9 40 be 4e 5a 6e 3e 90 2d 9a 3c 96 21 55 3e
       -0.18838912 0.23276636 0.018820554 0.20813593
0003d0 68 0e 79 bd 7e ef 20 3e 38 34 59 3e b0 51 e5 bc
       -0.060804754 0.15716359 0.21211326 -0.027993053
0003e0 90 b5 f6 bd 56 b9 61 3e ec 85 ed bd d0 63 78 3e
       -0.12046349 0.22043356 -0.11597809 0.24256825
0003f0 98 00 18 bd a8 d2 67 3e 54 f4 df bd fc f7 32 3e
       -0.03710994 0.22638953 -0.10935274 0.17477411

gru.bias_ih_l0 f4 [48]
000000 a0 a9 2c bc 6d b5 1a 3e e8 98 4e 3e 30 46 ee 3c
       -0.010538489 0.15108271 0.20175517 0.029086202
000010 8a 98 66 be a0 ef 09 3d bc b4 e1 3d ec 16 73 be
       -0.22519127 0.03367579 0.110208005 -0.23739213
000020 96 c7 ae 3d be 41 97 3b 22 ee 38 be 54 da e7 bd
       0.08534162 0.0046159914 -0.1805959 -0.1132094
000030 84 2f 52 be 46 47 5d 3e 40 89 c9 bb 6a 6f 53 3e
       -0.20525938 0.2160922 -0.0061503947 0.2064797
000040 1e ea 8e 3b 73 21 1b 3e 3f 81 a1 bd 82 d7 54 bd
       0.004361405 0.15149479 -0.0788598 -0.051963337
000050 9c 0f 0f be 6c d9 4b be 76 39 b2 3d 00 7c 39 3e
       -0.13970798 -0.19907159 0.08702366 0.18113708
000060 f2 71 d5 bb bf bc bf 3d 7c bf a3 bc 4f ca 3b 3e
       -0.0065138275 0.09362172 -0.019988768 0.18338893
000070 56 1c 59 3e b8 a4 35 be 18 58 6c be c7 30 7c 3d
       0.21202216 -0.17738616 -0.2308048 0.061569955
000080 c8 14 04 bd 84 ac 2a be 26 04 26 3e e0 5b 0e bc
       -0.03224638 -0.16667372 0.1621252 -0.008688897
000090 27 31 bb 3d 7a 7c 46 be 26 37 4f 3e 75 7d 6a 3e
       0.091402344 -0.19383422 0.20235881 0.2289942
0000a0 2a 70 c1 3d cb 47 69 be 1c fe 1b be 5b 63 af bd
       0.09445222 -0.22781293 -0.15233654 -0.085638724
0000b0 60 25 9f 3c 89 ba 1e 3e 12 0c 23 be 12 76 be 3b
       0.019427001 0.15500845 -0.15922573 0.005812415

gru.bias_hh_l0 f4 [48]
000000 80 15 1c bb 9b 9c 1b 3e d8 02 89 bd 5e ae 49 be
       -0.0023816526 0.15196459 -0.066899955 -0.19695422
000010 54 0b 4e be 40 92 e0 3d 0e 3b 3e be 86 dc 2f 3e
       -0.20121509 0.10965395 -0.18577215 0.17173967
000020 97 eb a5 bc 08 28 48 bd 46 aa 69 be 84 79 38 be
       -0.02025394 -0.0488663 -0.2281886 -0.18015105
000030 26 9f 10 3e c0 52 ea 3d 7a d7 69 be 5d c1 37 bd
       0.1412321 0.114415646 -0.22836104 -0.04486214
000040 2e 8c 63 3e 9f e5 04 be 5d f2 ee bc 42 6c 49 bc
       0.22221443 -0.12978218 -0.029168302 -0.012293877
000050 e2 36 71 3e 24 dd 6e be bb 5d 63 3e fa 80 28 be
       0.23556092 -0.23326546 0.22203724 -0.1645545
000060 38 a4 02 3e 8d 71 6d 3d 17 3c 6d be 67 89 6b 3e
       0.12757957 0.05796962 -0.23167454 0.23001634
000070 cc 33 95 bd ce 2c f1 bc 2c 58 4d 3e 03 f5 44 be
       -0.0728527 -0.02944031 0.20053166 -0.1923409
000080 48 72 0d 3e 5e 72 71 3c 20 35 d9 bc a8 e4 1d 3d
       0.13813126 0.01473674 -0.02651459 0.03854814
000090 d1 f6 4b be 18 14 2e 3d 30 4b 4f 3d bd 44 44 be
       -0.19918372 0.04249963 0.050608814 -0.19166847
0000a0 36 1f 8a 3c b2 b6 07 be 90 06 8d 3c 68 58 4c 3d
       0.016860586 -0.13253286 0.017215043 0.049889
0000b0 00 63 81 bd 1a 1e 1f be d4 c1 f3 3d f2 4a e1 bb
       -0.06317711 -0.15538827 0.11902204 -0.0068753893

fc.weight f4 [1, 16]
000000 12 13 0e be b7 74 9b 3d 48 9b 2e be b8 e9 2d 3e
       -0.13874462 0.07590621 -0.17051423 0.16983688
000010 42 f3 31 3e 3c f8 2a 3e 5f 71 28 3e 97 21 95 bc
       0.17377952 0.16696256 0.16449498 -0.018204493
000020 c3 e4 49 3e ce c2 b6 3d 25 4f 4c bd 99 9b 7a 3d
       0.19716172 0.08923875 -0.049880166 0.061183546
000030 e0 fa 08 3e bc 50 82 bd 9e 16 5c be 9f 32 2f be
       0.13376951 -0.06363055 -0.21493003 -0.17109154
