models/gru_weights_buy.pth (torch, 7128 bytes, 5 tensors)

gru.weight_ih_l0 f4 [48, 5]
0.015372157 -0.06420171 0.11466867 -0.16153619 0.13637704 -0.112699956 -0.008171827 0.1854235
0.22578532 -0.018040746 0.23329589 -0.13336581 -0.1921125 -0.11078429 -0.11540106 -0.13869852
-0.19579497 -0.11002728 0.1772772 0.23626155 0.15900347 0.15896809 -0.1376391 0.026166439
0.2043949 -0.20738506 0.14461008 -0.005644202 0.02972722 0.05959627 -0.015453696 0.10324663
0.23351872 -0.018818676 -0.13431546 0.17073199 0.16905889 -0.1596641 -0.12973303 -0.019844145
-0.20286214 -0.23932156 -0.102378845 -0.022388369 -0.22779685 0.14738534 -0.21035601 0.22323951
-0.18458089 -0.004450917 -0.1379314 0.17206323 -0.005850345 -0.06371006 -0.20134437 0.22213602
0.23656854 0.086469084 -0.13294545 0.13976336 0.13852349 -0.051535606 -0.2451964 0.1927804
0.1193504 -0.060191482 -0.013994873 0.004512936 0.20744115 0.19652122 -0.06418428 -0.17598733
0.118094265 0.19672096 0.089686394 0.18685058 0.22473043 0.10422915 0.0898439 0.22054729
-0.11470311 0.114760935 0.034114648 0.014023353 0.22315739 0.07411772 0.16022575 -0.13218749
0.015696377 0.1187655 -0.112734325 -0.2180671 0.09123373 -0.20308132 0.10072143 0.09618846
0.07483003 0.147263 -0.021786127 -0.117774606 0.007716645 0.23638691 -0.016334819 -0.14052461
-0.03537297 0.07419661 0.13632557 0.21310636 0.24037954 -0.034045022 -0.041187167 -0.10196176
0.13918608 -0.21160743 -0.18182299 0.23402223 -0.059348125 0.13745601 -0.07012652 -0.04838858
0.111433685 -0.2319145 -0.105162434 0.18551141 0.21230932 -0.15081686 0.064570226 0.22497818
-0.23133455 0.04435278 0.20022745 -0.21284172 -0.06982275 -0.07845337 0.23538071 -0.078019656
0.1145344 -0.13098288 0.10456043 -0.20585056 -0.13605677 -0.08880664 0.17288937 -0.053928543
-0.19647457 -0.14785379 -0.16850361 0.24305823 -0.10071007 0.04121724 -0.22942519 0.23851337
0.10195389 -0.19568491 -0.23907639 -0.18856046 0.13461626 -0.15356591 0.03875686 -0.1061202
-0.1927093 -0.2420153 -0.2383717 -0.08963615 -0.0052291453 -0.22394279 -0.2025772 0.015646845
-0.09600362 0.1655522 0.24582803 0.03409514 -0.03492515 -0.22920205 0.1590383 0.09292722
-0.12838283 0.21583956 0.239119 0.07755837 0.12535298 0.2319006 -0.19649771 0.04095339
-0.22169533 0.22986406 -0.2094517 -0.013783008 0.06920427 -0.07282725 -0.07106205 0.1451414
-0.2096028 0.04347247 0.18969344 -0.22433078 0.13114071 -0.04516074 0.10154909 -0.2345272
0.011280594 0.17303613 -0.034295563 -0.1485143 -0.012742143 -0.027762301 0.1918473 0.032097057
-0.10608953 -0.21742097 -0.1814669 -0.1835191 -0.18437758 -0.15101326 0.057961315 -0.19720414
-0.23122454 -0.112734616 -0.0682742 -0.22450945 0.24325848 -0.221351 0.1422084 -0.027379423
0.23444414 0.16867352 0.24906233 -0.07412028 0.1595369 0.23609024 0.21758169 -0.16058919
0.04299289 -0.20933819 -0.1430808 -0.21430695 0.1075663 0.045312386 0.10773043 -0.092492655
00000000: 80db 7b3c 307c 83bd 68d7 ea3d be69 25be
00000010: 6ca6 0b3e 3ccf e6bd 20e3 05bc a8df 3d3e
00000020: 4434 673e 30ca 93bc 1ee5 6e3e 0c91 08be
00000030: 24b9 44be e0e2 e2bd 6457 ecbd fc06 0ebe
00000040: 7a7e 48be fc55 e1bd 2888 353e 8cee 713e
00000050: ced1 223e 88c8 223e 44f1 0cbe 005b d63c
00000060: e64c 513e c05c 54be aa14 143e 00f3 b8bb
00000070: 8086 f33c 381b 743d 8031 7dbc f872 d33d
00000080: 881f 6f3e a029 9abc fe89 09be 5ed4 2e3e
00000090: c61d 2d3e fc7e 23be bcd8 04be 3090 a2bc
000000a0: 18bb 4fbe b610 75be 00ac d1bd d067 b7bc
000000b0: 9443 69be 2fec 163e 9167 57be e698 643e
000000c0: c602 3dbe ffd8 91bb e43d 0dbe 5831 303e
000000d0: 40b4 bfbb 6c7a 82bd 382d 4ebe a077 633e
000000e0: 063f 723e b416 b13d da22 08be 201e 0f3e
000000f0: 1ad9 0d3e 0017 53bd c414 7bbe 3a68 453e
00000100: fc6d f43d 588b 76bd c04a 65bc 40e1 933b
00000110: 746b 543e dc3c 493e 0c73 83bd 0636 34be
00000120: 68db f13d 3871 493e 80ad b73d c255 3f3e
00000130: bc1f 663e 1876 d53d 1400 b83d 26d7 613e
00000140: 77e9 eabd c807 eb3d cdbb 0b3d 35c2 653c
00000150: 5f83 643e 08cb 973d 3812 243e 285c 07be
00000160: b095 803c 543b f33d 41e1 e6bd fb4c 5fbe
00000170: c0d8 ba3d 8df4 4fbe 0947 ce3d 75fe c43d
00000180: 7d40 993d 1dcc 163e d278 b2bc d033 f1bd
00000190: e9db fc3b 690f 723e 99d0 85bc afe5 0fbe
000001a0: 3fe3 10bd 64f4 973d ee98 0b3e 8e38 5a3e
000001b0: 0e26 763e cb72 0bbd e0b3 28bd 54d1 d0bd
000001c0: cc86 0e3e 9eaf 58be ce2f 3abe 86a3 6f3e
000001d0: 0517 73bd 45c1 0c3e 7e9e 8fbd 1b33 46bd
000001e0: 5837 e43d ff7a 6dbe 675f d7bd b4f6 3d3e
000001f0: 9d67 593e bc6f 1abe 653d 843d ae60 663e
00000200: f7e2 6cbe 43ab 353d 6d08 4d3e 2ef3 59be
00000210: 3bff 8ebd 29ac a0bd a407 713e c5c8 9fbd
00000220: 0391 ea3d 6020 06be c723 d63d 7dca 52be
00000230: 7752 0bbe 41e0 b5bd e909 313e 2de4 5cbd
00000240: a130 49be fc66 17be 368c 2cbe 42e4 783e
00000250: 1541 cebd 69d3 283d 70ee 6abe d93c 743e
00000260: 33cd d03d a061 48be 71d0 74be fe15 41be
00000270: d8d8 093e 6240 1dbe 83bf 1e3d 8c55 d9bd
00000280: 9655 45be dcd2 77be b617 74be 2893 b7bd
00000290: 4059 abbb 4251 65be 6670 4fbe d02d 803c
000002a0: 8c9d c4bd 8486 293e 58ba 7b3e 58a7 0b3d
000002b0: ad0d 0fbd f1b3 6abe f0da 223e a050 be3d
000002c0: ca76 03be 0c05 5d3e 9cdb 743e ecd6 9e3d
000002d0: 885c 003e 5a77 6d3e b236 49be bebe 273d
000002e0: 1a04 63be 7c61 6b3e 827a 56be 20d2 61bc
000002f0: f8ba 8d3d 7426 95bd fb88 91bd f29f 143e
00000300: 1ea2 56be 3010 323d ff3e 423e f8b6 65be
00000310: c049 063e 78fa 38bd f8f8 cf3d e627 70be
00000320: 3ed2 383c 6230 313e 8179 0cbd 2214 18be
00000330: 6cc4 50bc c46d e3bc 9e73 443e 3478 033d
00000340: 7845 d9bd 9aa3 5ebe 76d2 39be 6eec 3bbe
00000350: 7acd 3cbe 38a3 1abe d868 6d3d e2ef 49be
00000360: 20c6 6cbe 68e1 e6bd 58d3 8bbd cee5 65be
00000370: c018 793e d6a9 62be 149f 113e d04a e0bc
00000380: 2012 703e c0b8 2c3e 320a 7f3e 60cc 97bd
00000390: a45d 233e a4c1 713e bccd 5e3e 7e71 24be
000003a0: 5019 303d c05c 56be c683 12be 4873 5bbe
000003b0: b84b dc3d 7b99 393d c6a1 dc3d ca6c bdbd

gru.weight_hh_l0 f4 [48, 16]
0.21870235 0.2035214 -0.21220088 0.24824816 -0.14459088 0.21344134 0.09852797 0.19907728
-0.0038469434 0.23197186 -0.0005426407 -0.027294636 -0.24064478 0.17059147 -0.058876276 0.14930812
-0.05108434 0.14764312 0.2257525 -0.027409106 0.20063713 -0.06612319 0.042978615 0.014347762
-0.16278118 -0.0046599507 -0.1362586 0.03613332 -0.052952588 0.17354098 0.15991828 0.00020113587
-0.16829196 -0.1728406 0.0641298 0.095411 -0.116113484 -0.23919019 0.21890849 0.044275373
-0.18280679 -0.06018755 0.17687544 0.13248172 -0.14991334 -0.08131096 0.026920378 0.12208781
-0.020127773 0.23005292 0.113836825 0.09042129 -0.031439006 -0.119199246 0.22239533 -0.1701479
0.10101998 -0.2394599 0.14370972 0.06551981 0.1115734 -0.24844074 0.18788126 -0.23997048
0.12509629 -0.09061584 0.018629462 0.13613537 0.0075269938 0.20033756 -0.12635696 -0.004279822
0.12451887 -0.119932175 -0.24574012 -0.0069347024 0.14218149 -0.22833845 0.20037022 0.057251304
0.23466593 -0.19979191 0.17013493 -0.21892822 -0.16089436 0.1311531 0.07339895 0.100167096
-0.10531759 0.17862046 -0.1405358 0.1642265 0.010839909 -0.16086608 0.22121117 -0.05511418
-0.019384831 -0.14334765 0.05812508 0.108183265 -0.16830513 -0.003584534 -0.22089025 -0.08656168
0.0260517 0.09492776 -0.05378115 -0.23110786 0.02809763 0.066890806 -0.24109602 0.1322735
0.05492878 -0.2005966 0.12216318 -0.0018748343 -0.15307635 -0.24751064 -0.030586898 0.18257532
-0.0834966 -0.06293899 -0.13380083 -0.15463504 -0.12882611 -0.24366543 0.0947755 -0.083136946
-0.15141535 0.16760913 0.23982278 0.24799815 0.18099341 -0.22873345 -0.13286433 0.19702083
-0.040087342 -0.22060832 -0.16473034 -0.107299685 0.0660122 -0.054108053 0.055181652 0.15887645
-0.15388456 0.24279782 0.10501322 -0.11410099 0.035372585 -0.22462752 -0.048594147 0.002134204
-0.17709973 0.025188148 0.19451967 0.091378 -0.13221931 0.12953034 -0.23644093 -0.025025815
0.20423967 -0.15500364 0.124899685 0.023886621 0.0020895302 0.18354833 -0.22865266 0.094919235
-0.18574429 0.07561436 0.14164379 -0.06602469 -0.12869859 0.0036435127 0.042862356 -0.22114533
-0.21532196 0.11520141 0.07780978 -0.22921622 0.16678262 0.015137136 -0.19232911 -0.060773313
0.017836004 0.050311744 -0.12701747 -0.11325154 0.09393743 0.0049744844 -0.23821682 0.18527257
-0.19972101 0.0054194927 -0.21310559 0.100439936 0.13957134 -0.1500637 -0.19523701 0.17248589
-0.07948735 0.07899171 -0.015391976 -0.16869378 0.24699402 -0.14542335 -0.008200616 -0.08539897
-0.11920297 0.09788406 -0.120150894 -0.013835043 0.22230858 -0.23108396 0.041656464 0.1638231
-0.24446943 0.024051756 0.096835196 -0.028152853 0.08037886 -0.23773474 -0.114145845 0.14852935
-0.23957413 0.05954966 -0.11389351 0.094876826 -0.24872792 0.19707283 0.03301847 0.04978308
-0.24935737 0.007225603 -0.12175998 0.053808182 0.13054657 0.1363684 -0.055673033 -0.18019783
-0.18189174 0.17752403 0.040541828 -0.13712275 0.1986328 -0.23332173 -0.056845665 0.1010949
-0.19328454 -0.08847523 0.1482287 -0.011378944 -0.09466052 0.010699272 -0.07901481 -0.01170969
00000000: 82f3 5f3e ea67 503e 304b 59be c434 7e3e
00000010: a20f 14be 5e90 5a3e 08c9 c93d eada 4b3e
00000020: 001d 7cbb 088a 6d3e 0040 0eba 0099 dfbc
00000030: 966b 76be 88af 2e3e 4028 71bd 3ae4 183e
00000040: d03d 51bd c22f 173e aa2b 673e 1089 e0bc
00000050: d273 4d3e 986b 87bd 580a 303d e012 6b3c
00000060: 1cb0 26be 80b2 98bb 6087 0bbe 8800 143d
00000070: d0e4 58bd bab4 313e 9ec1 233e 00e8 5239
00000080: ba54 2cbe 20fd 30be 7c56 833d d866 c33d
00000090: e8cc edbd 46ee 74be 8c29 603e 185a 353d
000000a0: b431 3bbe 3887 76bd d61e 353e 4aa9 073e
000000b0: e282 19be 5c86 a6bd 2088 dc3c 2c09 fa3d
000000c0: 00e3 a4bc fe92 6b3e 4823 e93d cc2e b93d
000000d0: 30c6 00bd bc1e f4bd 9abb 633e 403b 2ebe
000000e0: 90e3 ce3d fa34 75be a428 133e 402f 863d
000000f0: 9880 e43d 4067 7ebe f263 403e d2ba 75be
00000100: 3e19 003e cc94 b9bd d09c 983c 1267 0b3e
00000110: 00a5 f63b 4a25 4d3e b863 01be c03d 8cbb
00000120: c003 ff3d 009f f5bd 4ca3 7bbe 803c e3bb
00000130: 0698 113e 8ed1 69be da2d 4d3e 5880 6a3d
00000140: 444c 703e 4096 4cbe da37 2e3e b82e 60be
00000150: 7ec1 24be 004d 063e 3052 963d 6824 cd3d
00000160: c0b0 d7bd 48e8 363e 9ee8 0fbe fe2a 283e
00000170: e099 313c 14ba 24be 2e85 623e 68bf 61bd
00000180: f0cc 9ebc bac9 12be 9014 6e3d 308f dd3d
00000190: 2e58 2cbe 80ea 6abb 0e31 62be 4047 b1bd
000001a0: 606a d53c 7c69 c23d a049 5cbd 8aa7 6cbe
000001b0: 002d e63c 0cfe 883d e0e1 76be b472 073e
000001c0: 00fd 603d 3269 4dbe b030 fa3d 00bd f5ba
000001d0: 0cc0 1cbe 6e73 7dbe 6091 fabc 06f5 3a3e
000001e0: 4400 abbd 28e6 80bd 1603 09be a658 1ebe
000001f0: feea 03be 6e83 79be a819 c23d b443 aabd
00000200: a00c 1bbe baa1 2b3e 1a94 753e 3af3 7d3e
00000210: 5656 393e 1a39 6abe 960d 08be d4bf 493e
00000220: a032 24bd 26e7 61be 12af 28be f0bf dbbd
00000230: 6831 873d 68a0 5dbd 2806 623d 82b0 223e
00000240: ea93 1dbe fe9f 783e 2c11 d73d c8ad e9bd
00000250: d8e2 103d c204 66be a80a 47bd 00de 0b3b
00000260: a259 35be 6057 ce3c 2a30 473e 6424 bb3d
00000270: 8064 07be 9aa3 043e 921d 72be f002 cdbc
00000280: 3424 513e 46b9 1ebe 68cb ff3d e0ad c33c
00000290: 80f0 083b 18f4 3b3e ec23 6abe 0465 c23d
000002a0: c033 3ebe b4db 9a3d 120b 113e f437 87bd
000002b0: 90c9 03be 00c8 6e3b 7090 2f3d ec73 62be
000002c0: 5c7d 5cbe b8ee eb3d bc5a 9f3d a8b7 6abe
000002d0: 10c9 2a3e c001 783c ecf1 44be 70ed 78bd
000002e0: d01c 923c b013 4e3d de10 02be 6cf0 e7bd
000002f0: 4462 c03d 0001 a33b 1cef 73be 18b8 3d3e
00000300: aa83 4cbe 0096 b13b 5a38 5abe 74b3 cd3d
00000310: caeb 0e3e 4caa 19be 36ec 47be 24a0 303e
00000320: 44ca a2bd 68c6 a13d a02e 7cbc 10be 2cbe
00000330: 00ec 7c3e dce9 14be e05b 06bc a8e5 aebd
00000340: b020 f4bd 7077 c83d ac11 f6bd 60ac 62bc
00000350: dca4 633e 46a1 6cbe f89f 2a3d 3ec1 273e
00000360: 3256 7abe 3008 c53c 8851 c63d d0a0 e6bc
00000370: ac9d a43d bc70 73be 4cc5 e9bd 1418 183e
00000380: ec52 75be 58ea 733d 0041 e9bd c84e c23d
00000390: 88b2 7ebe 76cd 493e 603e 073d 58e9 4b3d
000003a0: 8a57 7fbe c0c4 ec3b 4c5d f9bd f865 5c3d
000003b0: 00ae 053e 28a4 0b3e 6809 64bd c885 38be
000003c0: d441 3abe dcc8 353e 300f 263d e869 0cbe
000003d0: 6666 4b3e e4eb 6ebe 00d7 68bd d80a cf3d
000003e0: 62ec 45be 8032 b5bd 44c9 173e c06e 3abc
000003f0: 60dd c1bd 004c 2f3c 84d2 a1bd 00da 3fbc

gru.bias_ih_l0 f4 [48]
-0.11503485 -0.060999304 0.025859267 0.1708853 -0.050406188 0.14242995 -0.09898314 -0.124138474
-0.16125801 -0.24901082 0.048864722 0.2281701 0.107528 0.007894993 0.22850186 0.02002272
-0.008324737 0.12357676 -0.24437508 0.051771887 -0.11412437 0.010624234 0.15512493 0.07935672
-0.08136425 0.19205327 -0.16367963 -0.21463394 -0.111540966 0.025382645 -0.04162761 -0.013783753
-0.21174315 0.059426248 -0.03863726 -0.057713628 -0.20091715 0.16495892 -0.048215304 0.020938545
0.23811118 -0.18895864 0.18435204 -0.0034877062 0.09154722 0.19235542 -0.033137232 -0.024487484
00000000: 6497 ebbd 68da 79bd d0d6 d33c 8efc 2e3e
00000010: b876 4ebd 28d9 113e acb7 cabd 503c febd
00000020: d220 25be b1fc 7ebe 6026 483d 6ca5 693e
00000030: a437 dc3d 005a 013c 64fc 693e b006 a43c
00000040: 7a64 08bc d015 fd3d 763d 7abe c20e 543d
00000050: 0aba e9bd 4411 2e3c 12d9 1e3e c785 a23d
00000060: 4da2 a6bd 9da9 443e a29b 27be 00c9 5bbe
00000070: 976f e4bd 44ef cf3c b681 2abd 40d5 61bc
00000080: 32d3 58be f068 733d 1b42 1ebd 2065 6cbd
00000090: 3abd 4dbe feea 283e 697d 45bd 5087 ab3c
000000a0: 6bd3 733e 607e 41be c8c6 3c3e 0092 64bb
000000b0: 1c7d bb3d d2f8 443e e8ba 07bd fa99 c8bc

gru.bias_hh_l0 f4 [48]
0.20140392 -0.21795976 -0.16619101 0.14651206 0.14290181 0.08146083 -0.15377668 -0.23978326
0.19233507 -0.10975931 -0.12553918 -0.088995695 0.0800519 0.07954386 -0.16824958 0.0031114817
-0.19273421 -0.070726365 -0.06521579 0.22445576 0.18801713 0.04720512 -0.1679084 0.21126798
0.0064706723 -0.22581436 0.16778749 0.18525338 -0.04510551 -0.045316722 0.01647986 -0.2250981
-0.22603303 0.19038838 -0.23483291 0.07802725 -0.042961527 0.08918324 0.08594853 0.07299912
0.12760195 0.1339774 0.017737001 -0.15472844 -0.22794604 0.2286691 0.020134151 0.087757714
00000000: d43c 4e3e d830 5fbe fa2d 2abe 4207 163e
00000010: da54 123e f0d4 a63d a277 1dbe be89 75be
00000020: 7cf3 443e 7dc9 e0bd 588d 00be 6043 b6bd
00000030: 40f2 a33d e4e7 a23d 9e49 2cbe 00ea 4b3b
00000040: 1e5c 45be fcd8 90bd db8f 85bd bbd7 653e
00000050: 9087 403e 285a 413d 2ef0 2bbe a256 583e
00000060: ef07 d43b e13b 67be 7cd0 2b3e 10b3 3d3e
00000070: 8ec0 38bd 079e 39bd c500 873c 1e80 66be
00000080: 3475 67be 2cf5 423e 0a78 70be c0cc 9f3d
00000090: 6df8 2fbd b4a5 b63d c805 b03d 9080 953d
000000a0: 16aa 023e 5f31 093e 304d 913c 2271 1ebe
000000b0: b06a 69be 3c28 6a3e 60f0 a43c 51ba b33d

fc.weight f4 [1, 16]
0.1834746 -0.19530052 0.25370562 0.13337475 0.08273898 0.08124801 0.05306127 0.16616872
-0.02866778 -0.053133827 0.022848539 0.244506 0.089166015 -0.17305996 0.034938615 0.022688478
00000000: c4e0 3b3e dcfc 47be b4e5 813e 6493 083e
00000010: 0e73 a93d 5b65 a63d c656 593d 2228 2a3e
00000020: b1d8 eabc dba2 59bd dc2c bb3c c85f 7a3e
00000030: ac9c b63d a136 31be cb1b 0f3d 30dd b93c
