models/gru_weights.pth (torch, 6896 bytes, 5 tensors)

gru.weight_ih_l0 f4 [48, 4]
00000000: e0db cabd 6ada 4abe 06ce 02be 486b a43d
00000010: 4c10 91bd 5a54 74be 8c96 72be c0b4 b8bc
00000020: 068c 7d3e 50f2 c9bc 6483 85bd 8451 f03d
00000030: fa7b 6bbe c036 b9bc 007c 173a 80d1 0a3e
00000040: f2dd 1c3e b8f9 703d 52c0 6d3e 4051 273d
00000050: c0fd 5dbd 8cfd 8dbd 3ced 3e3e 021d 003e
00000060: 3475 5cbe 9859 8cbd 8c4b f3bd e0ba 02bc
00000070: 5084 d6bd 1aba 0b3e 52ff 19be 6c1a 32be
00000080: 1422 ad3d eec6 12be f646 253e cedf 223e
00000090: 9d9a f93d e61c d5bb 2dd7 78bd c55d 143e
000000a0: 2839 3bbd 8061 523e 40b7 763d d81e 63bd
000000b0: 4cda 763e cca2 23be 3817 3d3d 2251 393e
000000c0: 88a7 05be 7858 67bd 20ef a0bd ccf8 b13d
000000d0: e443 4b3e cc6e 823d 60ea 723d 32a3 2abe
000000e0: f035 3a3e d816 16bd e0da 873c d008 a83d
000000f0: 7e43 f5bc 3a2d 12be 3ab4 52bc 612d 57bc
00000100: 90d4 1a3e 4b10 583b 7688 54be 059b 51be
00000110: 788c 683e 963e 293e 73cc 963d 0c8e fbbd
00000120: cdcb 21be c8ed bf3d 72db e3bd 2b1f 043e
00000130: ebd4 22be 81e6 373e e1e0 5bbe 16d2 193e
00000140: f7be 76bc f5a1 5c3e 4dd6 1abe 7115 f53c
00000150: c4b0 7f3c 6abd fc3d 1f89 203e ba84 74be
00000160: d848 72be f71c b53c 5b93 643e 3b97 dabd
00000170: c203 59bd 1a41 d13c 1f64 b83d 5502 55bd
00000180: 2fac a03c f168 5abe 2327 47be 824b 08bb
00000190: 9c03 35bd cbfa ea3d 9f77 b43d 5b5f 35be
000001a0: 0b4a 81be 512d 363e 8855 6fbb 7ef1 5e3d
000001b0: 81da 1c3d efd2 243d 19c9 27bc 57d7 253e
000001c0: 89bd 1b3e 1911 593e 4783 223e a517 77be
000001d0: 10b7 33be ae2d 273e 8491 aa3d cd16 78be
000001e0: c332 913c 681f 2dbe 022e 52be 86cb e33d
000001f0: c572 c8bd 3719 293e f735 0bbe 29e6 77be
00000200: 954b 6cbe 9dc1 023e ead8 333d 27c2 363d
00000210: cc6b eabd 6a42 74be c8c1 4ebd a01d febc
00000220: 6291 0dbe a409 e4bd ac32 11be 4c28 cf3d
00000230: 249c 25be 9044 353e f01c fdbd de46 6bbe
00000240: 224c 4abe 0862 4c3d b255 6abe 4626 51be
00000250: 2578 d03d a713 0cbe 43d9 32be 9e1a 003d
00000260: b034 3f3e 4220 c2bd f973 94bd d158 993b
00000270: 894b 7c3e adf4 edbc 296b 683e 6c9c 51be
00000280: 00a8 fabd b064 c33d b073 7ebe f45a 10be
00000290: ad64 cf3d 5a86 09be de22 c0bb 9df1 1e3e
000002a0: 2d4a 2d3e cf39 9bbd c76b 60be 8144 293e
000002b0: f01a a73d dcf9 debd d444 0b3e b0a5 753e
000002c0: 3002 3c3e e098 42be 7cbb e8bd 905f 5abd
000002d0: 2482 a7bd e263 bbbd 8744 6c3e c504 29be
000002e0: d472 6fbe 68ab 703d 6c69 56be 74d1 c9bd
000002f0: 53aa 513d ea8b 61be 81a5 f13d 39b4 2d3e
-0.09905219 -0.19809881 -0.12773904 0.08028275 -0.070831865 -0.23860303 -0.23690242 -0.022547126
0.24760446 -0.024651676 -0.065192014 0.11734298 -0.22996512 -0.022609115 0.00057786703 0.1355648
0.1531904 0.0588319 0.23217896 0.04084897 -0.054197073 -0.06933126 0.18645185 0.12511066
-0.21529084 -0.06853026 -0.11879644 -0.007979125 -0.10474455 0.13645211 -0.15038803 -0.17392892
0.084537655 -0.14333698 0.1614035 0.15905687 0.12187693 -0.006503689 -0.060752083 0.14488895
-0.045708805 0.20545006 0.060233355 -0.055449337 0.24106711 -0.15980071 0.04616472 0.18097356
-0.1305219 -0.056480855 -0.078581095 0.08690032 0.19850117 0.06368789 0.05930555 -0.16663817
0.18184638 -0.03664288 0.01658386 0.08204806 -0.02993941 -0.14275065 -0.012860352 -0.013133378
0.15120149 0.0032968696 -0.2075518 -0.20469292 0.22709835 0.16527781 0.07363214 -0.12282953
-0.158004 0.09371525 -0.1112584 0.12902515 -0.15901534 0.17959024 -0.21472503 0.15021548
-0.015060178 0.21546157 -0.15120812 0.02991745 0.015606109 0.12340815 0.15677308 -0.23878756
-0.236606 0.022108538 0.22321837 -0.10673376 -0.0529821 0.025543738 0.090034716 -0.052004177
0.019613354 -0.21329094 -0.19448523 -0.002079696 -0.044192895 0.11473616 0.088118784 -0.17712156
-0.25251803 0.17790724 -0.0036519486 0.054429524 0.03829432 0.040240224 -0.0102408165 0.16195427
0.1520902 0.21197928 0.15870391 -0.24130113 -0.17550302 0.16326019 0.08328536 -0.24227448
0.0177244 -0.16906512 -0.20525363 0.111228034 -0.097875156 0.16513525 -0.13594805 -0.24208893
-0.23075707 0.1276917 0.043908037 0.04461875 -0.11446342 -0.2385346 -0.050477773 -0.031019986
-0.1382499 -0.11134651 -0.14179486 0.10115108 -0.16172844 0.17701936 -0.12359035 -0.22976252
-0.19755605 0.049898177 -0.22884253 -0.20424756 0.10179166 -0.13679372 -0.17465691 0.031275384
0.18672442 -0.09478809 -0.072486825 0.004679777 0.2463819 -0.029047335 0.22697128 -0.20469826
-0.12239075 0.09540689 -0.24848819 -0.14097196 0.10126624 -0.13430157 -0.0058635315 0.15521856
0.16922827 -0.075793855 -0.21916114 0.16530038 0.08159435 -0.10887501 0.13600475 0.23988986
0.1836021 -0.1900363 -0.11363885 -0.05331379 -0.08179119 -0.091499105 0.23073016 -0.16505726
-0.23383647 0.058757216 -0.20938653 -0.09854403 0.051187824 -0.22026029 0.117991455 0.1696328

gru.weight_hh_l0 f4 [48, 16]
00000000: c483 fc3d 04a0 3fbe 6cd7 e13d 187c 513d
00000010: c0e8 e63c 0819 30bd 007e 56bc c8b9 923d
00000020: f219 303e 30fd 603e c8c9 f3bd 5e2e 003e
00000030: c8c3 cb3d 586c 313d ac14 7b3e b00d 68be
00000040: 5ed1 08be 04a5 1fbe b824 8c3d 1420 283e
00000050: 6888 9dbd b85f 8c3d aae7 4dbe 58d5 c2bd
00000060: 2a79 23be 08f3 633e 52c5 6fbe 6037 7cbe
00000070: 38c1 06bd f854 97bd 244f aabd 2cb7 c2bd
00000080: fa34 0b3e 9039 e8bc 5218 4dbe a4c3 883d
00000090: 929a 24be 2e50 07be 1c92 8ebd 00b4 453c
000000a0: 045c 7f3e 2006 22bc f80f 0abd 0e8c 1f3e
000000b0: 7214 21be 801d 3a3c 7486 653e a04b efbc
000000c0: 9030 d23c 0017 19be 14a9 753e 6ece 2fbe
000000d0: ae0e 013e 0ca9 1ebe 080b 213e da2d 3ebe
000000e0: d888 4cbe b691 29be 1090 3f3e 38c9 4fbe
000000f0: 46ea 4e3e 589e 1ebe 0cb0 babd c452 babd
00000100: b6db 003e 7443 7dbe f8e1 d6bd 8631 2d3e
00000110: 009a a73c 0624 323e 00bd 3f3e 7a06 75be
00000120: acd4 b1bd 44f1 2f3e 1c4f b3bd 0a23 47be
00000130: 1c9c 243e 7860 013e 08f2 4dbd 40b7 3f3e
00000140: 880b e23d 0cc9 b1bd 9082 4dbe 78fb 7c3e
00000150: 1e2f 3e3e 200c 093e d660 003e a000 213e
00000160: feea 1b3e e07e 9f3c 249f e63d 887c 0a3e
00000170: 44e9 34be 1013 233e 8e85 49be d80d 073e
00000180: d07d d1bd 507b a83d 60df 583d b481 dc3d
00000190: 48ff 33be 9012 69bd c86a 2b3e c2f0 1e3e
000001a0: 68ae 2bbe 4e4d 2dbe 120c 203e c4d7 97bd
000001b0: d45f 85bd 2cc6 9d3d f441 4dbe 60b9 a93d
000001c0: 80f3 333c 52f5 16be 16f8 533e b8e2 f7bd
000001d0: 52dc 16be ccf6 513e a03c 113e 3edf 353e
000001e0: c216 493e f4f4 f6bd dc43 41be e421 273e
000001f0: 487e c53d 6245 6ebe e840 3fbd 644c 943d
00000200: a489 29be eaf6 2f3e b8b3 aebd 68d0 cebd
00000210: 18e2 e63d b8b2 533e e025 593d f07c f73c
00000220: 08fb 633d b2ec 583e 0486 82bd 8430 c23d
00000230: c822 b33d 80b0 013b 704b 003d 2cac 2fbe
00000240: 4875 d53d 40b6 903d 8c01 57be 60b3 a5bd
00000250: e87e 5d3e 32a4 543e 28eb 8cbd 1cc1 f1bd
00000260: a44a 0fbe 6cd5 08be 5020 c6bd 4c55 423e
00000270: a099 34bd de60 1dbe 5069 44bd c00d c2bb
00000280: a013 47bc c8aa 0cbd 9039 19bd 68ae 7a3e
00000290: 08b1 6ebe 8843 4cbe 08bb 443d 54ae c4bd
000002a0: 8000 3bbe 5c8a ee3d 90e1 df3d de60 61be
000002b0: 367a 093e b6d9 38be 4051 2bbd 969a 553e
000002c0: 9a1a 7bbe 8c64 283e 2613 5dbe 94be d2bd
000002d0: b0f4 c53c 9078 5a3d b0d3 e63d 8800 1fbd
000002e0: fa88 313e 6e1c 703e b8d4 31bd 9413 293e
000002f0: 44cc a23d c48b e6bd 980b 373d 8096 78bd
00000300: 00f9 86ba 70a5 843c 2cda 413e 08a2 1dbd
00000310: 581c f73d 8854 0dbe 0093 77be 048d 3d3e
00000320: 12fe 393e 9839 863d 38c6 11bd b8f4 b83d
00000330: 4037 b6bc a8bb 64be acd9 96bd 9200 6d3e
00000340: d800 053e 3059 0bbd 50a0 7bbe 2cfd 943d
00000350: a23d 0a3e 6008 a2bc c8df f8bd 56c5 5bbe
00000360: 2083 82bd d6bc 1f3e 967e 023e 04cb f63d
00000370: 3230 5a3e dc07 f2bd cae5 453e 547f 53be
00000380: c0ef 6fbc 9691 42be 68d9 283d a635 433e
00000390: 40f9 8abb 00e1 4bbc 5073 913c c4a3 b93d
000003a0: d2bd 7b3e 5887 2a3e e02b 513e 7e2e 72be
000003b0: c4d0 b13d f062 b63c 90f8 b93d 607d b0bd
000003c0: 9024 4fbe 0063 153c fce9 833d c48b 95bd
000003d0: acfa 433e 64b0 5c3e 8012 8cbb f6f0 063e
000003e0: 8ab0 0a3e 40b8 59bc 9ce4 2a3e 1c2b 083e
000003f0: 3a92 453e 4c89 943d 3650 10be 74ad 04be
0.1232982 -0.18713385 0.110274166 0.051143736 0.028187156 -0.04299262 -0.013091564 0.07164341
0.17197397 0.21971583 -0.11903721 0.12517688 0.09949452 0.043316215 0.24519604 -0.22661471
-0.13361117 -0.15590292 0.06842941 0.16418487 -0.07692033 0.068541944 -0.20107904 -0.09513348
-0.15964189 0.22260678 -0.23415115 -0.24630499 -0.03289911 -0.073892534 -0.08315876 -0.095075935
0.13594428 -0.02834776 -0.20028809 0.066779405 -0.16074589 -0.1321418 -0.06961462 0.012066841
0.24937445 -0.009889156 -0.033706635 0.1558077 -0.15730456 0.011359572 0.22414571 -0.029210865
0.025657922 -0.1495018 0.2399028 -0.1716859 0.12603256 -0.15494174 0.15726864 -0.18572178
-0.19974077 -0.1655949 0.18707299 -0.20291603 0.20206556 -0.15490091 -0.091156095 -0.090978175
0.12583813 -0.24732763 -0.10492319 0.16913423 0.020459175 0.17396554 0.18724442 -0.23928252
-0.08683142 0.1718188 -0.08755323 -0.1944696 0.16075176 0.12634456 -0.050279647 0.18722248
0.11037356 -0.08680925 -0.20069337 0.24705303 0.18572661 0.13383532 0.1253694 0.15722895
0.15226361 0.019469678 0.112608224 0.13524067 -0.17667109 0.1592524 -0.19679853 0.13188875
-0.10229075 0.08226645 0.052947402 0.107669264 -0.17577851 -0.05690247 0.16739953 0.1552153
-0.1676575 -0.1692402 0.15629604 -0.07414201 -0.065124184 0.07703814 -0.2004469 0.082873106
0.010983348 -0.1474202 0.20700106 -0.1210379 -0.14732483 0.20504302 0.14183283 0.17760941
0.19637588 -0.1205844 -0.18873543 0.16321522 0.09643227 -0.23268655 -0.04669276 0.07241133
-0.16556412 0.17184034 -0.085303724 -0.10098344 0.11273593 0.20673645 0.053014636 0.030210942
0.055659324 0.21184042 -0.06373218 0.0948191 0.08746868 0.001978904 0.031321943 -0.17155522
0.1042276 0.070660114 -0.20996684 -0.08090854 0.21630442 0.2076576 -0.0688079 -0.11804411
-0.13993317 -0.13362664 -0.09674132 0.1897785 -0.04409182 -0.15368983 -0.047951996 -0.0059220493
-0.012150675 -0.034342557 -0.03740841 0.24480593 -0.2330972 -0.19947636 0.04802993 -0.09603563
-0.1826191 0.11647484 0.109316945 -0.22009608 0.13425526 -0.180518 -0.041825533 0.20859751
-0.24521866 0.16444606 -0.21589336 -0.10290256 0.024164528 0.053337634 0.11270845 -0.038818866
0.17337409 0.23448345 -0.043415755 0.16511375 0.07949117 -0.11257127 0.04468879 -0.060690403
-0.0010297596 0.016192168 0.18930882 -0.038484603 0.12065953 -0.13801777 -0.2417717 0.18510824
0.18163326 0.06553954 -0.035589427 0.090310514 -0.022243142 -0.2233721 -0.07365736 0.23144749
0.12988603 -0.034020603 -0.24572873 0.07274851 0.13500074 -0.019779384 -0.12152058 -0.21461996
-0.06372666 0.15599379 0.12743601 0.12050441 0.21307448 -0.11817905 0.19325939 -0.2065404
-0.014644563 -0.19000849 0.04122296 0.19063434 -0.0042411387 -0.012443781 0.01775518 0.09064439
0.2458413 0.16653192 0.20426893 -0.23650548 0.08682397 0.022263974 0.09080613 -0.086176634
-0.20228791 0.009117842 0.06441113 -0.07302049 0.19138592 0.21551663 -0.0042746663 0.13177857
0.13543907 -0.0132885575 0.1668877 0.13297695 0.19294062 0.0725275 -0.14093098 -0.12956792

gru.bias_ih_l0 f4 [48]
00000000: a8a4 0c3d d2b7 3abe 8035 a23b 1c7f 3dbe
00000010: c0d0 e53c d893 65bd 20a5 333e f456 fbbd
00000020: e853 403d 20c8 a6bc 22b4 083e e008 8dbd
00000030: b434 64be 1cb6 70be 3828 71bd 5d3a 06bd
00000040: 5d1e 22be 50d7 ccbd 1cad a63d 6f1b 713e
00000050: 0bea 32be 525b 413e 6c8e 7e3e 1e8b 233d
00000060: 68fe 693e d3ec aa3d d75b c1bd 2495 04bd
00000070: a627 9c3d fae8 ec3d 27c3 51be 7084 36be
00000080: d466 d93d 4052 aabb 4013 e5bc 0c04 b2bd
00000090: 8005 75bb 0ad5 693a d46c 6d3e e744 5cbe
000000a0: 802d 1bbe e2b2 05bd 1475 4bbd 9873 59bd
000000b0: 683f 66bd c80d a5bd 3865 03bd edc1 243e
0.034336716 -0.18234184 0.0049502254 -0.1850552 0.028053641 -0.056049198 0.17543459 -0.12272444
0.04695502 -0.020359099 0.13349965 -0.068864584 -0.2228573 -0.23506969 -0.058876246 -0.032770503
-0.15831895 -0.10002005 0.08138487 0.23545621 -0.17472093 0.18882492 0.24859017 0.039927594
0.22850955 0.08345952 -0.09441345 -0.032368794 0.0762475 0.11567874 -0.20484601 -0.17823958
0.10615316 -0.0051977932 -0.02796328 -0.08692178 -0.0037387311 0.000891999 0.23186046 -0.21510659
-0.15154076 -0.0326413 -0.0496722 -0.053088754 -0.056212813 -0.08059269 -0.03207895 0.16089602

gru.bias_hh_l0 f4 [48]
00000000: c0fa 51bc c61e 11be 5467 e53d c84e 7fbd
00000010: 8044 68bc 488f 5f3d 60cc 2fbd 7efa 72be
00000020: f809 59bd a4c4 21be 2a5e 703e 3840 57bd
00000030: 7298 7c3e aadc 45be 2487 ebbd 5e65 55be
00000040: 097b dc3d 01e5 0a3c 18ab 8c3d fe22 b93d
00000050: d3b4 d03d 5670 2e3e eea8 7a3e b428 0e3c
00000060: 1ef6 09be b528 69bd ab31 a1bd 1338 0fbe
00000070: a004 253e a6d7 d3bb 68c7 50bd 2023 323e
00000080: 28fa 95bd 609c 163e a8b0 57be 482f 3abd
00000090: 2246 48be b67b c9bd 0ca3 dfbd d625 653e
000000a0: 5ecf 02be 6da0 14be b28b af3d a09b 143e
000000b0: 3ca8 8ebd 126e 2b3e 18a4 8e3d 614e 7e3e
-0.012816131 -0.14171895 0.11201349 -0.06233099 -0.014176488 0.054580003 -0.042919517 -0.23728368
-0.052988023 -0.15797669 0.2347342 -0.05255148 0.24667528 -0.19322458 -0.115003854 -0.2083945
0.107656546 0.00847745 0.06868571 0.09039877 0.101907395 0.1703504 0.24478504 0.008676697
-0.13472793 -0.056923587 -0.078708015 -0.13986234 0.16115046 -0.0064649163 -0.05097142 0.17396212
-0.07323104 0.1470809 -0.21063483 -0.045455247 -0.19558004 -0.09838049 -0.109197706 0.22377715
-0.12774417 -0.14514323 0.08571567 0.14512491 -0.06965682 0.16741207 0.06964892 0.24834587

fc.weight f4 [1, 16]
00000000: 9974 493e 2029 6ebe 5956 3abd f2ef f4bc
00000010: 71b5 033e c285 dfbd a5a9 e6bb aed1 053e
00000020: 3bb5 2fbe c811 16be 067b 3e3d 00e5 09be
00000030: f057 073e 8ba9 17be 1b14 41be af2c 4ebe
0.19673385 -0.23257875 -0.045492504 -0.029899571 0.12862183 -0.10914184 -0.007039266 0.13068268
-0.17158978 -0.1465522 0.046504043 -0.13466263 0.13217139 -0.1481077 -0.18855326 -0.20134233
