models/lstm.pth (torch, 21802 bytes, 5 tensors)

lstm.weight_ih_l0 f4 [128, 4]
0	0x3c30e74a	0.010797331
1	0x3d1570b0	0.03648442
2	0xbd8612a6	-0.06546526
3	0x3db586a0	0.08863568
4	0x3b7aad2a	0.0038250186
5	0xbde039b4	-0.10948506
6	0x3d980565	0.07422904
7	0xbdb55496	-0.08854024
8	0x3dba88d5	0.0910813
9	0x3dccccb7	0.09999984
10	0xbe0a2417	-0.1349033
11	0xbe05e608	-0.13076031
12	0x3d1592ad	0.036516834
13	0x3da8c4f0	0.08240688
14	0x3d7e2467	0.062046435
15	0x3d906faa	0.07052548
16	0x3de01638	0.10941738
17	0xbc34e003	-0.011039737
18	0xbdd4a591	-0.10383142
19	0xbdc58261	-0.096440084
20	0x3d155803	0.036460888
21	0x3c4f7f1c	0.012664583
22	0x3e0c1f36	0.13683781
23	0x3dbba6bf	0.09162664
24	0xbd8046a8	-0.062634766
25	0x3d781ef1	0.060576383
26	0xbda3b5bf	-0.0799365
27	0xbd306718	-0.043067068
28	0xbdea151a	-0.11429806
29	0xbe0713e4	-0.13191181
30	0x3e02d0c3	0.12774949
31	0xbde9746b	-0.11399158
32	0x3dc31607	0.09525686
33	0xbe2ab669	-0.16671146
34	0xbdcd10e5	-0.10012988
35	0xbdc6be40	-0.09704256
36	0x3d0714e3	0.032978904
37	0xbde8c115	-0.113649525
38	0xbda22c31	-0.07918585
39	0x3e006f0c	0.12542361
40	0x3e058633	0.13039474
41	0x3df20090	0.118165135
42	0x3cfb095f	0.030644117
43	0xbd4fd9e2	-0.0507449
44	0x3e01b1e1	0.12665512
45	0x3d8bc542	0.06824733
46	0x3e27465f	0.16335438
47	0x3e153a4b	0.14573018
48	0xbde48254	-0.111576706
49	0x3df58e1a	0.11989994
50	0x3dcf4cee	0.10122095
51	0x3cf30796	0.029666703
52	0x3de3a0fa	0.11114688
53	0x3d2238b2	0.03960485
54	0x3e0b51bf	0.13605402
55	0xbd061952	-0.03273899
56	0x3d8f2279	0.06988997
57	0xbbedd300	-0.007257819
58	0xbe0380be	-0.1284208
59	0x3e12ca68	0.14335024
60	0x3d3f09b5	0.046640117
61	0xbc051056	-0.008121571
62	0xbd99ae0b	-0.07503899
63	0xbdb1b268	-0.086766064
64	0x3d755df7	0.059904065
65	0x3dfe7af0	0.12425792
66	0x3da1ee36	0.07906763
67	0xbd0d607b	-0.03451584
68	0x3e06822b	0.13135593
69	0x3e1c902e	0.15289375
70	0x3c94cc78	0.018163905
71	0x3deb712c	0.11496195
72	0x3dcece45	0.100979365
73	0x3ded4d8e	0.11587058
74	0xbd8540f9	-0.06506533
75	0x3dfbd3eb	0.122962795
76	0xbdb7ef9a	-0.08981247
77	0xbdfea55e	-0.12433885
78	0x3dc905c3	0.09815552
79	0x3d368777	0.044562783
80	0x3e18bf8c	0.1491682
81	0x3d6d06a8	0.057867676
82	0x3db17a70	0.08665931
83	0x3de3eef5	0.11129562
84	0x3d5ba161	0.0536207
85	0x3dd328f9	0.10310549
86	0xbd6b4b97	-0.057445135
87	0x3e27f290	0.16401124
88	0xbceeb00a	-0.029136676
89	0x3dd79f1c	0.105283946
90	0xbcdd9ed2	-0.02705327
91	0xbe302136	-0.17200169
92	0x3d032a09	0.03202251
93	0x3dad5cdb	0.084649764
94	0x3decbde9	0.1155966
95	0xbde1219a	-0.10992737
96	0x3cf32f50	0.029685646
97	0xbe110943	-0.1416369
98	0xbe011d83	-0.12608914
99	0x3d80c29f	0.06287121
100	0x3c578a93	0.013155597
101	0xbdf933d5	-0.12168089
102	0x3d9116ae	0.07084404
103	0x3c828e26	0.015936922
104	0x3dde2c27	0.10848265
105	0x3d4602bf	0.048342463
106	0x3dd0a030	0.10186803
107	0xbcc94150	-0.024567276
108	0x3dce5c2f	0.100761764
109	0x3cfe414c	0.031036995
110	0x3c87b128	0.016563967
111	0x3e2895c6	0.16463384
112	0x3e068453	0.13136415
113	0x3dd38c59	0.103295036
114	0x3dee9dc2	0.11651184
115	0xbe02abee	-0.12760898
116	0xbdf4e3fd	-0.11957548
117	0xbe266773	-0.162504
118	0xbc2b8c28	-0.010470428
119	0xbe1deb5a	-0.15421811
120	0x3da714bb	0.08158251
121	0xbdeda186	-0.11603074
122	0xbe101067	-0.14068757
123	0x3ca56c30	0.02019319
124	0xbe22b494	-0.15889198
125	0x3e21071f	0.15725373
126	0x3d9d1d28	0.07671577
127	0xbb9b67f6	-0.0047426177
128	0xbd9d143c	-0.07669875
129	0xbd311b78	-0.043239087
130	0x3c44a110	0.012001291
131	0xbd77cf24	-0.06050028
132	0x3c9ecae0	0.019383848
133	0xbd96aece	-0.0735756
134	0xbe059f9e	-0.1304917
135	0xbe0d0729	-0.13772263
136	0x3e1b9bd7	0.15196167
137	0x3df906ee	0.12159525
138	0x3cdb86a0	0.026797593
139	0xbda347a5	-0.079726495
140	0xbde96a8b	-0.113972746
141	0x3d1d65a4	0.03842701
142	0xbde5cbae	-0.112204894
143	0xbc959d50	-0.018263489
144	0x3c61d220	0.013783008
145	0x3c5add20	0.013358384
146	0xbdf91284	-0.12161735
147	0x3e037f6b	0.12841575
148	0x3c4a3140	0.012340844
149	0x3b8071e0	0.003919825
150	0xbd8c3d34	-0.06847611
151	0x3d4517b0	0.048118293
152	0xbe339a57	-0.17539345
153	0x3ca6d268	0.020364001
154	0x3d2e53d4	0.042560413
155	0xbe133e81	-0.14379312
156	0xbdba604e	-0.091004
157	0xbd3a04c0	-0.045414686
158	0x3ced3838	0.028957471
159	0x3e04810d	0.12939854
160	0xbd87b25e	-0.06625818
161	0x3e0357eb	0.12826507
162	0x3e1ffb8b	0.156233
163	0xbe0872cf	-0.13325046
164	0x3e15ef03	0.14641957
165	0xbd8295aa	-0.063762024
166	0xbd6225a4	-0.05521168
167	0xbd83b88a	-0.064316824
168	0xbd1659d4	-0.03670676
169	0x3d36684c	0.04453306
170	0xbdfb064e	-0.12257062
171	0x3cc85258	0.024453327
172	0x3e0058c3	0.1253386
173	0xbd81d39c	-0.063391894
174	0x3de82586	0.11335282
175	0xbcd62100	-0.026138783
176	0xbe29c6a2	-0.16579679
177	0xbde78591	-0.11304773
178	0x3d12f210	0.03587538
179	0x3b809420	0.003923908
180	0xbbffbce0	-0.007804498
181	0x3d54f25c	0.051988944
182	0x3cd669e8	0.026173547
183	0xbca1d780	-0.019756079
184	0xbe0716d4	-0.13192302
185	0xbe06bb64	-0.13157421
186	0xbd433e54	-0.047666863
187	0x3e01ab71	0.12663056
188	0xbe33eadd	-0.17570062
189	0xbdb19604	-0.08671191
190	0x3c5d27d0	0.013498262
191	0x3daeebbe	0.08541058
192	0xbe1a3627	-0.1505972
193	0xbe2c147e	-0.16804692
194	0xbe2aab15	-0.16666825
195	0xbda8259a	-0.08210297
196	0x3d143e5c	0.036192283
197	0xbe277b25	-0.1635557
198	0xbd495788	-0.049155742
199	0xbd33fee0	-0.04394424
200	0x3e2ac047	0.1667491
201	0xbe2efe49	-0.1708919
202	0xbe110ba2	-0.14164594
203	0xbdd60f5c	-0.10452148
204	0x3cd9ea68	0.026601031
205	0x3dc4600a	0.095886305
206	0x3e0400d3	0.1289094
207	0xbdd0a4f8	-0.10187715
208	0xbe0b1731	-0.13583066
209	0xbda4fcd9	-0.08056039
210	0x3e2dd60b	0.16976182
211	0xbde8b674	-0.11362925
212	0xbc9bd808	-0.01902391
213	0xbdff4d8a	-0.12465961
214	0xbe19072f	-0.14944147
215	0x3e1dd5eb	0.15413634
216	0xbd21b784	-0.039481655
217	0xbd001edc	-0.03127943
218	0x3dac7cee	0.08422266
219	0x3e2a9875	0.1665972
220	0xbe1a17d0	-0.15048146
221	0xbe1a5728	-0.1507231
222	0x3c94e890	0.0181773
223	0xbdf4187c	-0.119187325
224	0xbe05d7c6	-0.13070592
225	0xbd8b1d52	-0.06792702
226	0x3e116eb1	0.14202382
227	0xbdf72dd0	-0.12069285
228	0x3bf16820	0.007367149
229	0xbe2d5108	-0.16925442
230	0xbd243fa8	-0.04009977
231	0xbdffaffe	-0.1248474
232	0x3d61072c	0.05493848
233	0xbe0a446e	-0.13502666
234	0xbd32fd1c	-0.043698415
235	0x3e2708cb	0.16311948
236	0x3c446c80	0.011988759
237	0x3d9f5c0e	0.0778123
238	0xbd213518	-0.039357275
239	0x3dd7aa0a	0.10530479
240	0xbd83530f	-0.064123265
241	0x3d1ed1f4	0.038774446
242	0x3dff2f12	0.1246015
243	0xbe0c5191	-0.1370299
244	0xbd71dc36	-0.0590479
245	0x3bcc4580	0.006233871
246	0xbdc9d4ae	-0.098550186
247	0xbe300fbb	-0.171935
248	0x3d7d9654	0.061910942
249	0xbdbd6436	-0.09247629
250	0x3e10e48b	0.14149682
251	0x3c8f6580	0.017504454
252	0x3d889f94	0.06671062
253	0x3d67ad10	0.05656153
254	0x3dd15cfa	0.10222812
255	0x3bbb6d40	0.0057198107

lstm.weight_hh_l0 f4 [128, 32]
0	0x3dfa6f62	0.12228276
1	0xbd51b15c	-0.051194534
2	0xbe227bd2	-0.15867546
3	0x3c76e080	0.015068173
4	0xbbfc7160	-0.007703945
5	0x3d56c728	0.052436024
6	0x3e1e268d	0.15444393
7	0x3d50e1c8	0.05099657
8	0xbd45befc	-0.04827784
9	0x3e1a81b7	0.15088545
10	0x3e0c29d7	0.13687836
11	0xbdb540a5	-0.088502206
12	0x3e09543f	0.13411044
13	0xba936b80	-0.0011247247
14	0x3d781000	0.060562134
15	0xbd5d71a8	-0.05406347
16	0xbd732b18	-0.05936727
17	0xbc03c1d0	-0.008041814
18	0x3e2151f3	0.15753917
19	0x3d149380	0.03627348
20	0x3d246370	0.040133893
21	0x3a308a00	0.0006734431
22	0x3d2689e0	0.04065883
23	0xbd7aeaee	-0.061259203
24	0xbd90a206	-0.070621535
25	0xbda47fa2	-0.080321565
26	0x3e2bb35b	0.16767637
27	0x3e282bd5	0.1642297
28	0x3c1e8da0	0.009677321
29	0xbe32f2cc	-0.17475432
30	0xbe13bef8	-0.14428318
31	0x3de31f16	0.110899135
32	0x3d2d8f08	0.042372733
33	0xbc702750	-0.01465781
34	0x3e0d214b	0.13782232
35	0x3d850c56	0.064964935
36	0xbe1f5846	-0.15561017
37	0x3dc2a78e	0.09504615
38	0x3e0f5caf	0.140002
39	0xbccbffd0	-0.024902254
40	0xbb4f5600	-0.0031636953
41	0xbd073f54	-0.03301938
42	0xbe15a84b	-0.1461498
43	0x3d3380d8	0.043824047
44	0x3dbe16ee	0.09281717
45	0xbbb42120	-0.005497113
46	0x3c8c5d08	0.017134205
47	0x3d9c445e	0.076302275
48	0x3c21c3e0	0.00987336
49	0xbdc8fc59	-0.098137565
50	0xbe139078	-0.14410579
51	0xbd5650b4	-0.05232306
52	0x3c871158	0.016487762
53	0xbdbbf819	-0.0917818
54	0x3e1a9147	0.15094481
55	0xbb720c00	-0.0036933422
56	0xbe0a07db	-0.13479559
57	0x3d548e50	0.051893532
58	0x3dbd5772	0.092451945
59	0x3d8889dc	0.066669196
60	0xbe297d1c	-0.16551632
61	0xbdd7d42a	-0.10538514
62	0x3b098400	0.002098322
63	0xbd17faa8	-0.03710428
64	0x3d479948	0.048730165
65	0x3da17b56	0.078848526
66	0x3df077d6	0.11741607
67	0x3e0f3d0d	0.13988133
68	0x3e21a647	0.15786086
69	0x3e06b6a9	0.13155617
70	0x3d22aa30	0.039713085
71	0x3dce2fce	0.10067712
72	0x3de56a46	0.11201911
73	0xbddc3096	-0.107514545
74	0xbdfe67d0	-0.124221444
75	0x3e1e55d3	0.15462427
76	0xbd87638c	-0.06610784
77	0x3df2a4b2	0.118478194
78	0xbd08396c	-0.033257887
79	0x3dfafc9a	0.12255211
80	0xbdf28087	-0.11840921
81	0x3e078d9b	0.13237612
82	0x3e2c4083	0.16821484
83	0xbd0a07f0	-0.033698976
84	0x3d098fdc	0.03358446
85	0xbe2296eb	-0.15877883
86	0xbdadbaf3	-0.08482923
87	0xbd1317e8	-0.03591147
88	0x3e161baf	0.14658998
89	0xbb92c220	-0.004478708
90	0xbd5ac094	-0.053406313
91	0x3dfc0942	0.12306453
92	0x3e12d0d1	0.1433747
93	0x3d25cbc0	0.040477514
94	0x3be2d920	0.006922856
95	0xbda95b56	-0.08269374
96	0xbdfd5c82	-0.1237116
97	0xbdcb22fc	-0.09918782
98	0xbd8c02ca	-0.068364695
99	0x3e05f3f1	0.13081338
100	0x3e2c040d	0.1679842
101	0xbe330d40	-0.17485523
102	0x3dada3a2	0.08478476
103	0xbe076819	-0.13223304
104	0xbc517e80	-0.012786508
105	0x3d9b197e	0.075732216
106	0x3d94d9f4	0.07268134
107	0xbe2f168b	-0.17098443
108	0xbe340d3b	-0.17583172
109	0x3dab767e	0.0837221
110	0x3cb4dcc8	0.022077933
111	0x3daeacc6	0.08529048
112	0x3d455ef4	0.048186257
113	0x3daeb846	0.08531241
114	0xbd8ad48c	-0.06778821
115	0xbe1afa13	-0.15134458
116	0x3d9a0746	0.075209185
117	0x3dfa2ce2	0.12215592
118	0x3db6034e	0.08887349
119	0xbc53cb70	-0.012926921
120	0x3d8ab6ce	0.067731485
121	0x3aa6b980	0.0012720078
122	0xbe01ba22	-0.1266866
123	0xbd086f74	-0.033309415
124	0xbe1eb6fc	-0.1549949
125	0x3e1b149b	0.15144579
126	0xbe18c6d5	-0.14919598
127	0xbca2e398	-0.019883916
128	0xbd8da8ec	-0.06916985
129	0x3cf8aef0	0.030356854
130	0x3d8f0972	0.069842234
131	0x3bbd9220	0.0057852417
132	0xbe0268d8	-0.12735307
133	0x3c8b5fb8	0.017013416
134	0xbda1ca97	-0.07899969
135	0xbdb42d18	-0.087976635
136	0x3d22c7b4	0.039741233
137	0xbda5647b	-0.08075806
138	0x3d26b04c	0.040695474
139	0xbdc1ccc1	-0.09462882
140	0xbdc6cfde	-0.09707616
141	0x3e13e379	0.14442243
142	0xbdb8d415	-0.090248264
143	0x3d4171a4	0.047227517
144	0xbe07f88c	-0.13278407
145	0xbe0ce287	-0.13758288
146	0xbe1b18ba	-0.15146151
147	0xbbd29080	-0.006425917
148	0x3daf6ae6	0.08565311
149	0x3e254ea7	0.16143285
150	0xbdb058b4	-0.08610669
151	0x3d408864	0.047005072
152	0x3d7766a4	0.06040062
153	0xbc4ec110	-0.012619272
154	0x3d387068	0.045029074
155	0x3e0bdd63	0.13658671
156	0x3cc54e20	0.024085104
157	0x3da40a5e	0.0800979
158	0xbd8575e5	-0.06516627
159	0xbe0fecc4	-0.14055163
160	0xbe16abea	-0.14714018
161	0xbde42e80	-0.11141682
162	0x3dff2c4a	0.12459619
163	0x3d92fb00	0.07176781
164	0x3d8a5916	0.06755273
165	0xbdd0a93e	-0.101885304
166	0xbdf5412e	-0.11975323
167	0xbd9aae96	-0.07552831
168	0xbd82e693	-0.06391635
169	0xbd8c7d76	-0.06859867
170	0x3d0f21d4	0.03494437
171	0x3d0e4d8c	0.034741923
172	0xbddd9f6b	-0.10821422
173	0x3daf3dda	0.08556719
174	0xbc2c5b00	-0.010519743
175	0xbe3032d9	-0.17206897
176	0xbdcfb991	-0.10142816
177	0xbdbf0ba3	-0.093283914
178	0x3e2e56df	0.17025326
179	0x3df87dda	0.12133379
180	0x3e065a21	0.13120319
181	0xbcb1ae50	-0.021689564
182	0x3e2b878b	0.16750924
183	0x3e27e9f1	0.16397835
184	0xbdad2b68	-0.08455545
185	0x3c8d3140	0.017235398
186	0xbe162e8d	-0.14666195
187	0xbdfdd651	-0.12394393
188	0x3de8f8d6	0.11375587
189	0xbc0ba0e0	-0.008522242
190	0xbcb72460	-0.022356212
191	0x3ce83290	0.028344423
192	0xbc01c4e0	-0.007920474
193	0x3e20feff	0.15722273
194	0x3da07532	0.07834853
195	0x3de1783e	0.110092625
196	0xbd848cd7	-0.064721756
197	0xbd1f9958	-0.0389646
198	0xbd2e5698	-0.04256305
199	0x3cafa2e0	0.02143997
200	0xbd83317c	-0.06405923
201	0x3d5da4c4	0.05411221
202	0xbde513fa	-0.11185451
203	0xbded2156	-0.11578624
204	0xbd9aad6a	-0.07552607
205	0xbe27b6b9	-0.16378297
206	0x3d5535f4	0.052053407
207	0x3e1117b1	0.14169194
208	0xbd8568dc	-0.06514141
209	0x3e27eb0d	0.16398259
210	0xbda309af	-0.079608314
211	0x3d2082a4	0.03918709
212	0x3e014c43	0.12626748
213	0xbe152248	-0.14563859
214	0x3d293468	0.041309744
215	0xbd5fb82e	-0.054619007
216	0xbd0973d4	-0.033557728
217	0xbdc91825	-0.09819058
218	0x3c828c88	0.015936151
219	0xbd912c62	-0.070885435
220	0xbe015df7	-0.12633501
221	0xbe0040cd	-0.1252472
222	0xbdabc339	-0.08386845
223	0xbbd14540	-0.006386429
224	0xbdaba935	-0.08381883
225	0x3e117cb7	0.14207731
226	0x3d3d9538	0.046284884
227	0x3b9851a0	0.0046484023
228	0xbd661aca	-0.05617789
229	0xbe26ebee	-0.16300938
230	0x3df8199e	0.12114261
231	0x3def63da	0.11688967
232	0x3db5cd8a	0.08877094
233	0xbccf89e0	-0.025334299
234	0xbdc072b7	-0.0939688
235	0x3ca63110	0.020287067
236	0xbdccfdff	-0.100093834
237	0xbdc4bc82	-0.096062675
238	0x3e1b33f9	0.15156545
239	0x3da2b31e	0.0794432
240	0xbe19d57c	-0.15022844
241	0xbb0ced00	-0.0021503568
242	0x3dfe28d6	0.124101326
243	0x3e274285	0.16333969
244	0xbc8b0e28	-0.016974524
245	0xbd0133e8	-0.031543642
246	0x3d15be10	0.03655821
247	0xbd428c50	-0.047497094
248	0x3de054ea	0.10953696
249	0xbe118bd8	-0.14213502
250	0x3e1abf4f	0.15112041
251	0x3d5d9b50	0.054103196
252	0x3d656668	0.056005865
253	0x3dfb3e7e	0.12267779
254	0x3de8432e	0.113409385
255	0x3e05e27f	0.13074683

lstm.bias_ih_l0 f4 [128]
0	0xbe213941	-0.15744497
1	0xbe077bf0	-0.13230872
2	0xbe293f07	-0.1652795
3	0xbc8f5e30	-0.017500967
4	0xbda0a58a	-0.07844074
5	0x3dc010d4	0.0937821
6	0x3e35841c	0.17726177
7	0x3d916fc9	0.071013995
8	0xbd3cc051	-0.046081845
9	0xbe29b815	-0.16574128
10	0x3e1af1ea	0.15131345
11	0x3bff6420	0.0077939183
12	0xbdf147b8	-0.117812574
13	0xbdde8172	-0.108645335
14	0x3cb88fc7	0.022529496
15	0xbd20a52a	-0.039220013
16	0x3dd9d2c3	0.10635903
17	0xbdb4c233	-0.08826103
18	0x3e1d3597	0.15352474
19	0x3d011860	0.031517386
20	0x3dc20fb9	0.09475655
21	0xbdace880	-0.08442783
22	0x3e0171e1	0.12641098
23	0x3da34e6b	0.079739414
24	0xbe1329b5	-0.14371379
25	0x3e031105	0.12799461
26	0xbc9346d2	-0.017978106
27	0xbb00907f	-0.0019617376
28	0xbda9c58d	-0.08289633
29	0x3d0fa311	0.03506762
30	0x3d324825	0.043525834
31	0x3d2d2b7f	0.04227781
32	0xbdacd8ee	-0.084398136
33	0xbdb7af82	-0.08969022
34	0xbcbf1318	-0.023324534
35	0xbda13e08	-0.0787316
36	0xbc964c78	-0.01834701
37	0xbc0a1e00	-0.008430004
38	0xbdabbe90	-0.08385956
39	0xbd343920	-0.04399979
40	0x3e222127	0.15832959
41	0x3d2bd4f4	0.041951135
42	0x3d4f4d68	0.05061093
43	0xbe19debe	-0.15026376
44	0xbd9b3394	-0.07578197
45	0xbdd97276	-0.10617535
46	0x3d9355c6	0.07194094
47	0xbdb4a430	-0.08820379
48	0xbc633230	-0.013866946
49	0xbddea9bc	-0.10872218
50	0xbdfe0348	-0.124029696
51	0xbe0e4498	-0.13893354
52	0x3d8f443c	0.069954365
53	0xbd7dd9b8	-0.06197521
54	0xbdfef9c4	-0.12449983
55	0xbcd9aba0	-0.026571095
56	0xbce2ac70	-0.027670115
57	0x3d4c6fe4	0.049911395
58	0xbd9a1922	-0.07524325
59	0xbe19225c	-0.14954513
60	0xbd9f100c	-0.077667326
61	0x3bb8ef80	0.005643785
62	0xbe0e2f11	-0.13885142
63	0x3db008d2	0.08595432
64	0x3ddde802	0.108352676
65	0xbd70a5c9	-0.058751855
66	0xbd80357a	-0.062602
67	0x3d91f6c5	0.07127146
68	0xbd574a60	-0.052561164
69	0xbe15bcc3	-0.14622788
70	0xbc8eb638	-0.017420873
71	0xbe0c4e5f	-0.13701771
72	0x3d0d7960	0.03453958
73	0xbdbd28a3	-0.092362665
74	0x3e251227	0.16120206
75	0xbd634432	-0.055484958
76	0x3e1b2fed	0.15155001
77	0xbdeb1901	-0.114793785
78	0x3e0991ca	0.1343452
79	0xbdbac5d7	-0.09119766
80	0x3d9dbfc1	0.0770259
81	0x3d4dd592	0.050252505
82	0x3e07f62f	0.13277505
83	0x3cda3fcd	0.02664175
84	0xbe280335	-0.16407473
85	0xbd68824c	-0.056764886
86	0xbd2855dd	-0.04109751
87	0x3deb27e2	0.114822164
88	0x3e0ae082	0.13562205
89	0x3e202cb1	0.15642048
90	0x3dc54af2	0.09633435
91	0x3c7fd5aa	0.015614906
92	0x3da2d8d6	0.079515144
93	0x3e338b7b	0.17533676
94	0x3d19c1b8	0.03753826
95	0x3d5a1a1c	0.053247556
96	0xbc3a7588	-0.011380561
97	0xbdd8de38	-0.1058926
98	0x3c706aef	0.014673932
99	0x3b0e9569	0.0021756536
100	0xbd2106ea	-0.039313234
101	0x3d7a2c25	0.061077256
102	0x3c2c5f59	0.0105207795
103	0x3e28df59	0.1649145
104	0xbe01c17d	-0.12671466
105	0x3db3b195	0.087741055
106	0xbb16d9f1	-0.0023018087
107	0xbe2b765c	-0.1674437
108	0xbdafc67a	-0.08582778
109	0x3e19093b	0.14944927
110	0x3e1acc00	0.15116882
111	0x3ccb8958	0.024845764
112	0xbb3bc47a	-0.0028651045
113	0xbcae2150	-0.021256119
114	0xbdb4d900	-0.08830452
115	0x3df996ce	0.12186967
116	0xbe0f77e9	-0.14010586
117	0x3c00cc26	0.007861173
118	0xbe0cd436	-0.13752827
119	0xbe1bcf4c	-0.15215796
120	0x3bab6a70	0.005231194
121	0xbe23c570	-0.15993285
122	0xbe03b48b	-0.1286184
123	0xbd9012a9	-0.07034809
124	0xbd343cfe	-0.04400348
125	0xbe328328	-0.17432845
126	0xbe06812c	-0.13135213
127	0x3e014216	0.12622866

lstm.bias_hh_l0 f4 [128]
0	0x3d7cff67	0.06176701
1	0x3e26608b	0.16247766
2	0xbe2eaa98	-0.17057264
3	0xbe0f583a	-0.139985
4	0xbc84d4ae	-0.016214695
5	0x3dde4d18	0.10854548
6	0x3db74527	0.08948737
7	0x3bd99404	0.0066399593
8	0x3e2680e3	0.16260104
9	0x395b27c4	0.00020900281
10	0x3e3ae8a2	0.18252805
11	0x3c0ad620	0.008473903
12	0xbc81b09a	-0.01583128
13	0xbcb093d6	-0.021554869
14	0x3c00834f	0.007843806
15	0xbcded86b	-0.027202806
16	0xbca6c331	-0.020356746
17	0x3dc20c0d	0.09474955
18	0x3debd1ba	0.115146115
19	0x3ce071ef	0.027398078
20	0xbdb51285	-0.08841423
21	0xbe11840f	-0.14210533
22	0xbdc45e92	-0.0958835
23	0xbd08cf22	-0.033400662
24	0x3df36557	0.118845634
25	0x3df81f34	0.121153265
26	0x3c7fbb9e	0.015608696
27	0xbb2fe1ff	-0.0026837585
28	0xbc15455e	-0.009110777
29	0x3e2b8f77	0.16753946
30	0x3e2f99e4	0.17148548
31	0x3cbcf3b7	0.023065431
32	0x3d2e9818	0.042625517
33	0x3d367438	0.04454443
34	0xbd16ddbc	-0.036832556
35	0x3e1dceb3	0.1541088
36	0x3e213efb	0.15746681
37	0xbe26349a	-0.16231003
38	0xbd4e5c70	-0.050381124
39	0xbdf17bac	-0.11791167
40	0x3dbbb7ea	0.09165938
41	0xbd08a454	-0.03335984
42	0xbc914530	-0.017733186
43	0x3e2a0523	0.16603522
44	0x3b106800	0.0022034645
45	0x39987200	0.00029076636
46	0x3e1a67f9	0.15078725
47	0x3bb1c420	0.0054249913
48	0xbe06a2fc	-0.13148111
49	0x3ce94a80	0.028477907
50	0xbd360c74	-0.04444547
51	0x3b23ecc0	0.002501294
52	0x3db4aad6	0.08821647
53	0x3bb97540	0.0056597292
54	0x3d2e4cb0	0.042553604
55	0x3e1766e1	0.14785339
56	0x3ad90080	0.0016555935
57	0xb9171000	-0.00014406443
58	0x3d8baf4c	0.068205446
59	0xbe094175	-0.13403876
60	0x3e10330f	0.14081977
61	0xbe1fc160	-0.1560111
62	0x3db3fc96	0.08788411
63	0xbcc9eb00	-0.02464819
64	0x3d13cccc	0.03608398
65	0xbe056ef6	-0.1303061
66	0x3df516b4	0.11967221
67	0x37c90a20	2.3965782e-05
68	0x3e313c2e	0.17308113
69	0x3cb39dc9	0.021925824
70	0x3d370b54	0.044688538
71	0xbd1f35da	-0.038869716
72	0x3db7fa1f	0.08983254
73	0x3d0b764d	0.034048367
74	0xbcb9f970	-0.022701949
75	0x3da31b61	0.079642065
76	0x3b8444e1	0.0040365313
77	0xbcd31f5d	-0.025771791
78	0xbd2af2fa	-0.041735627
79	0xbdfefcbd	-0.1245055
80	0xbd89a126	-0.0672019
81	0xbb7a83e7	-0.0038225593
82	0xbd686f11	-0.056746546
83	0x3cca00b5	0.02465854
84	0xbd849afe	-0.06474875
85	0xbd44b0cf	-0.04802018
86	0x3e300905	0.1719094
87	0x3d43deb0	0.047819793
88	0xbdec43da	-0.11536379
89	0x3cf2ba30	0.029629797
90	0xbc9282c0	-0.017884612
91	0xbd0de584	-0.03464271
92	0xbe0c8b71	-0.13725068
93	0x3e2798f7	0.16366945
94	0xbda62f90	-0.081145406
95	0xbe11b03b	-0.14227383
96	0xbd1a9c9e	-0.037747018
97	0x3da1353b	0.07871481
98	0xbdbeefe8	-0.09323102
99	0xbddfc6d2	-0.10926594
100	0x3df99dac	0.12188277
101	0x3d0f5e1e	0.035001867
102	0x3e12bd76	0.14330086
103	0x3d4d3342	0.05009771
104	0xbe2afafd	-0.16697307
105	0x3d44f4cb	0.048085015
106	0x3e1b9cd3	0.15196542
107	0xbd687f56	-0.056762062
108	0x3ce8e096	0.028427403
109	0xbe32fd34	-0.17479402
110	0x3d441990	0.04787594
111	0x3e18e3f8	0.14930713
112	0xbc931e5f	-0.017958818
113	0x3cea0938	0.028568849
114	0x3df1747d	0.117897965
115	0x3cf452a5	0.029824564
116	0x3d6f170c	0.05837159
117	0x3db4999f	0.088183634
118	0xbe30dddf	-0.17272137
119	0x3e02e5e8	0.12783015
120	0xbdb8a461	-0.09015728
121	0x3e0a8146	0.13525876
122	0xbdf30238	-0.118656576
123	0x3e144417	0.14479099
124	0x3e032fcf	0.12811206
125	0xbe0afaee	-0.13572285
126	0x3d91badd	0.071157195
127	0xbd93c161	-0.072146185

fc.weight f4 [1, 32]
0	0xbab17300	-0.0013538301
1	0xbd097866	-0.033562087
2	0xbe271d62	-0.16319802
3	0xbcd86645	-0.026415953
4	0x3db170c9	0.0866409
5	0xbe3e636d	-0.18592615
6	0xbdd272f9	-0.102758355
7	0xbd7b218c	-0.06131129
8	0x3e22c02f	0.15893625
9	0x3cf5e296	0.030015271
10	0x3e2fe833	0.1717842
11	0xbde9487a	-0.11390777
12	0x3e38d1b0	0.1804874
13	0xbbc94c62	-0.0061431387
14	0x3d4061ab	0.046968143
15	0x3c80eed6	0.015738886
16	0x3e089d2c	0.13341206
17	0x3dbd66b8	0.09248108
18	0xbe1fdae3	-0.15610842
19	0x3e11f996	0.14255366
20	0x3e27da6b	0.16391914
21	0x3e3b5827	0.18295346
22	0x3d084719	0.03327093
23	0x3e08cd4a	0.13359562
24	0xbd9fa686	-0.07795434
25	0x3e176457	0.1478437
26	0x3dff3bed	0.12462602
27	0x3d2ac0e4	0.04168786
28	0xbcd7c04a	-0.026336808
29	0x3e30ea59	0.17276897
30	0xbda93804	-0.08262637
31	0xbdc76cba	-0.09737535
