models/lstm_weights_price.pth (torch, 4534 bytes, 5 tensors)

lstm.weight_ih_l0 f4 [32, 4]
000000 8e 21 ae 3e 77 84 84 be 33 f8 9c be fe 20 49 3e
       0.34009975 -0.25882313 -0.3065811 0.19641492
000010 6a 21 42 3e f0 c5 15 3e f1 8d 8d 3e 8d 03 5e be
       0.18958059 0.14626288 0.27647355 -0.21681042
000020 e4 46 aa bd 6d 2c 8c 3e cc f2 cd bc 5f e7 ec bd
       -0.083143026 0.27377644 -0.025140189 -0.11567568
000030 68 21 48 bd 9e ac 49 be c4 fa a2 bd d7 31 00 be
       -0.048859984 -0.19694754 -0.07957986 -0.12519012
000040 00 44 a2 bb 91 cc 7e be 8b 50 a0 3e 25 ae 83 be
       -0.004951954 -0.24882723 0.3131145 -0.257188
000050 c8 34 cc bd 08 94 2f bd 00 2d 74 bb d0 c7 13 3d
       -0.09971005 -0.042865783 -0.0037258267 0.036079228
000060 aa 38 75 3e af 5a a4 3e 6a b1 26 3e fc 6a 17 be
       0.23947397 0.32100436 0.16278616 -0.14786905
000070 1b 6c a3 be d1 3e aa 3e c3 31 8a bc 02 83 9a be
       -0.31918415 0.3325105 -0.016869431 -0.30178076
000080 7c 03 21 be 47 5b 10 be d0 fa 7c bd d1 1a a3 be
       -0.15723985 -0.1409732 -0.06176263 -0.31856397
000090 ec f3 9e be 00 3a ff 3b 0c 8d fc 3d a1 5f a7 3e
       -0.31045473 0.0077888966 0.1233159 0.32690147
0000a0 c1 f7 ad be e2 91 4c 3e 2d 65 a5 3e 12 49 78 3e
       -0.33978084 0.19977525 0.32303753 0.24246624
0000b0 06 16 96 be 84 0a 7b be f0 3d 60 3d 6a 8d 87 be
       -0.29313678 -0.2451573 0.05474657 -0.26475078
0000c0 10 4d a5 3c 46 1d 4b be 70 45 84 3d c2 4d 41 3e
       0.020178348 -0.19835386 0.06458557 0.18877319
0000d0 88 c8 8f bd bc 0a cc 3d ed b4 ad 3e 8c 38 5d be
       -0.0702067 0.09962985 0.33927098 -0.21603602
0000e0 0b 4c 68 be 96 d4 e5 bd 3c da 9b 3d a6 36 6d 3e
       -0.22685258 -0.11222188 0.07609984 0.23165378
0000f0 39 c1 62 be 3b c7 3f be 9c e1 c7 3d 92 f8 38 3e
       -0.22144021 -0.18728344 0.097598284 0.18063572
000100 fe 18 42 be 90 da 9c 3e 2c ab 79 be 74 9a 20 3e
       -0.18954846 0.306355 -0.24381703 0.15683919
000110 f5 d3 9e 3e 18 cf 77 3d 4c f9 f4 3d b2 94 35 3e
       0.31021085 0.060500234 0.11961612 0.17732504
000120 5e db 0f 3e 81 d7 aa 3e c2 73 8c be 87 e0 9a bd
       0.14048526 0.3336754 -0.27432066 -0.075623564
000130 f2 7e 77 be 00 b8 3c b9 c0 e6 a6 bd 23 e5 39 be
       -0.2416952 -0.00017997622 -0.08149481 -0.18153815
000140 44 1f f8 bd 64 c8 92 be 1b 7e 09 be 7d 2a 64 be
       -0.121153384 -0.2866851 -0.13427012 -0.22281833
000150 74 da 91 be a2 87 5e 3e 24 69 b8 3d 1c 5b 69 be
       -0.2848698 0.21731427 0.09004429 -0.22788662
000160 45 56 31 3e ed cc 9f be 3a 38 01 3d e5 37 5e 3e
       0.17318065 -0.31211033 0.031547762 0.2170101
000170 53 80 8f 3e fd 9d 2d bb 07 94 98 be d2 1d 8b 3e
       0.2802759 -0.0026491873 -0.29800436 0.2717119
000180 dc f6 2a be 40 b2 7c 3d 12 a9 2c 3e 87 4f 95 3e
       -0.16695732 0.06169343 0.1686137 0.29162237
000190 20 44 a5 be cb 54 ad 3d da b3 41 3d c1 81 e9 bb
       -0.32278538 0.084634386 0.04729066 -0.0071260636
0001a0 64 de 7e 3e 76 bb 80 3e e5 01 8e be 2b 2c 22 be
       0.24889523 0.2514302 -0.2773582 -0.15837161
0001b0 b2 ef 7b be d0 b5 df 3c 5d d8 8f be 84 cd 6f be
       -0.24603155 0.027308375 -0.2809476 -0.23418242
0001c0 e0 a7 02 be 7c d9 ff bd 07 97 3a be e4 22 1a be
       -0.12759352 -0.12492654 -0.18221675 -0.15052372
0001d0 65 42 5e be 70 df 85 bd 28 b0 5e bd c0 d5 ce bc
       -0.21705015 -0.06536758 -0.054367214 -0.025248408
0001e0 4a ad ad bd 37 80 5c 3e 9b 09 55 3d 1a d0 1f be
       -0.08480318 0.21533285 0.052011114 -0.15606728
0001f0 f2 c1 d9 3d de 53 7c be 18 3d e8 3c 48 9f 2d 3d
       0.10632695 -0.24641368 0.028349444 0.04238823

lstm.weight_hh_l0 f4 [32, 8]
000000 40 ed 9b 3c c4 b4 e9 3d 28 ec 0a bd cd d8 8a 3e
       0.019034028 0.114114314 -0.033916622 0.2711853
000010 0a 50 0f 3e c0 d4 05 3d 6f 23 8b 3e bf 2e 31 be
       0.13995376 0.032673597 0.2717547 -0.17302988
000020 30 0c 11 be 39 5d 9c 3e d0 5c 43 3d 10 16 41 bd
       -0.14164805 0.30539873 0.047695935 -0.04714018
000030 42 2e 51 be 4b fe 84 3e 3a fe 53 3e b8 45 78 3d
       -0.20427802 0.2597526 0.20702448 0.060613364
000040 56 bd 7a 3e 33 43 b0 be 14 da 98 3d ec 07 15 3e
       0.24486288 -0.3442627 0.0746347 0.14553803
000050 00 d6 e5 3b cb f5 8a 3e f3 e6 17 be f2 59 2e 3e
       0.007014036 0.2714065 -0.14834194 0.17026499
000060 02 33 84 be 68 c5 bc bd 08 ad aa bd 22 20 0e be
       -0.25820166 -0.0921734 -0.08333784 -0.13879445
000070 ca c6 1e 3e be a7 20 3e 05 7c a8 be b4 44 f7 bd
       0.1550552 0.15688989 -0.3290712 -0.12073651
000080 12 9c 5c 3e e4 19 c3 bd 21 c3 98 3e 79 e0 ac 3e
       0.21543911 -0.095264226 0.29836372 0.3376501
000090 f2 46 5b 3e 60 b2 af 3c 58 97 ba 3d fe b8 47 3e
       0.21413782 0.02144736 0.09110898 0.19504163
0000a0 dd 99 17 be ee a8 30 3e 54 9f b2 3d 2d c4 b4 3e
       -0.14804788 0.17251942 0.08721796 0.3530592
0000b0 76 0e 5f 3e 50 8c a2 be dd 16 8a be 49 96 1b be
       0.2178286 -0.31747675 -0.26970568 -0.15194048
0000c0 ce 10 4d 3e 10 b0 8b bc 92 00 a6 be b4 80 02 3e
       0.20025942 -0.017051727 -0.3242231 0.12744409
0000d0 0a 5b 36 3e e0 3f 19 be 90 26 94 bc d8 ae 94 be
       0.17808166 -0.14965773 -0.018084794 -0.29039645
0000e0 dd 4e ab 3e 16 6e 9a be dc 28 ac be e5 ed b2 3e
       0.33458605 -0.30162114 -0.33624923 0.34947124
0000f0 50 cd 12 3d d8 3d 94 bd e5 a9 04 be 86 24 6e be
       0.035840333 -0.07238358 -0.12955435 -0.2325612
000100 30 87 3e be d2 46 72 be d8 bf ae be 5d 98 94 3e
       -0.18606257 -0.23659828 -0.3413074 0.29022494
000110 95 7b 9c 3e 3a 78 1e 3e 34 9e dc 3d e4 0b 74 be
       0.30563036 0.1547555 0.10772362 -0.23832661
000120 aa 83 1b 3e 12 96 3c 3e 98 93 8d bd b5 46 05 be
       0.15186945 0.18416622 -0.06912917 -0.13015254
000130 8b 46 68 be 44 69 4b be 40 13 c5 3d 86 78 65 3e
       -0.2268316 -0.19864374 0.09622812 0.22409257
000140 80 4c 44 be fc 92 e3 3d 22 87 05 3e 5e da a2 be
       -0.19169807 0.111120194 0.1303983 -0.31807226
000150 33 35 9f be 08 be 9b bd 70 5c ed bc 18 b3 27 3d
       -0.31095275 -0.07604605 -0.028974742 0.04094228
000160 1f e6 98 3e 2b 3a 81 3e d8 22 62 bd 0d 5c 8e 3e
       0.29863068 0.2523969 -0.05520901 0.27804604
000170 e0 b5 04 bd b8 75 44 bd f0 72 e0 bc 7f cd 47 be
       -0.032400012 -0.047963828 -0.027398556 -0.19511984
000180 b3 39 02 be c0 69 80 3c 3e 8b 2e 3e a7 17 33 be
       -0.12717323 0.015675426 0.17045304 -0.17489491
000190 13 68 a3 3e f7 86 b0 3e 24 0c af bd 97 62 a6 3e
       0.3191534 0.3447797 -0.085472375 0.32497093
0001a0 f4 72 b7 3d c0 f3 56 bc 67 1d 3f be 76 42 98 be
       0.089574724 -0.013119638 -0.1866356 -0.29738206
0001b0 9b b0 85 3e 35 a6 b4 be ac 73 8a be 36 6c 3c 3e
       0.26111302 -0.35283056 -0.27041376 0.18400654
0001c0 b8 01 a2 bd 2e 7e 3a be e9 1d 9a 3e 20 b3 92 3d
       -0.07910484 -0.18212196 0.30100945 0.07163072
0001d0 ee 67 93 be 72 03 77 be 74 6b b4 be a9 77 9f be
       -0.2879023 -0.24122408 -0.3523823 -0.3114598
0001e0 8c 7a 9b 3d 2b b2 9b 3e 3a 3f f3 bd 2c f5 7c be
       0.07591733 0.3040937 -0.11877294 -0.247029
0001f0 13 8f 5e be 5c e4 62 be 7e 3d 2a 3e 73 14 16 be
       -0.21734266 -0.22157425 0.1662502 -0.14656238
000200 1f 56 b0 3e 49 6e 24 be f8 af bb bd 5c a3 c6 3d
       0.34440705 -0.16057695 -0.09164423 0.09699127
000210 7c 7f ab 3d 69 7f af 3e 00 91 61 3d 80 73 a8 3c
       0.08373925 0.34276894 0.055069923 0.020562887
000220 89 03 b2 be 48 8a 57 bd c1 3a 46 be 40 46 60 3c
       -0.34768322 -0.05262211 -0.1935835 0.013688624
000230 79 94 83 3e 56 4e aa be 00 c3 21 bd c0 1a 66 3c
       0.25699213 -0.3326289 -0.039492607 0.014044464
000240 c5 fd 53 be 40 9e cf 3d 56 dc e7 bd b0 24 31 bd
       -0.20702274 0.10137606 -0.113213226 -0.04324788
000250 28 06 94 bd b0 4b 97 bc 02 01 3e 3e 1a b3 12 be
       -0.07227737 -0.018468708 0.18555072 -0.14326134
000260 b4 24 a3 be 04 43 f1 3d 7a b3 7c 3e f7 c9 b4 3e
       -0.3186394 0.1178036 0.2467784 0.35310337
000270 ae 74 29 be ea d3 6f be 0a 1f 52 be c4 b7 38 be
       -0.16548416 -0.23420683 -0.20519653 -0.18038851
000280 33 2e aa 3e 19 53 94 3e c0 60 5c 3d b3 5d 90 3e
       0.33238372 0.28969648 0.053803205 0.28196487
000290 f8 6f 51 bd 02 69 56 be 84 9a a6 3d 4f 62 48 be
       -0.051132172 -0.20938495 0.0813494 -0.19568752
0002a0 84 e2 df bd 48 2d 75 bd 60 22 38 bd d8 b7 b5 3d
       -0.10931876 -0.059857637 -0.044954658 0.08872956
0002b0 10 0b ba 3c 2f 16 ae 3e ae 21 86 be c0 d2 41 bd
       0.022710353 0.340013 -0.2619757 -0.047320127
0002c0 fc 28 9c 3d cc 11 89 be 11 fd 96 3e 6f 81 a5 3e
       0.07625005 -0.2677139 0.2948995 0.32325312
0002d0 f6 71 8c be bc ef 8b bd 61 0e 84 3e 3a 6a 04 3e
       -0.27430695 -0.06832835 0.2579222 0.12931147
0002e0 76 81 29 3e 00 fc 12 3b ee 42 0b be a0 7e 6d bd
       0.16553292 0.0022428036 -0.1359975 -0.057982087
0002f0 6c 6d db 3d a1 f5 1a be 44 f2 e8 3d 77 a3 8b 3e
       0.1071423 -0.15132762 0.113743335 0.2727315
000300 26 3f 0e be 63 1f 9c 3e 4e dd 5b 3e 9c 7b 59 be
       -0.13891277 0.30492696 0.2147114 -0.2123856
000310 9b 33 b3 be 00 80 d5 b7 7c c2 af be 6b 55 8e 3e
       -0.3500031 -2.5451183e-05 -0.34328067 0.27799544
000320 1e 11 4e 3e 6f a8 8b 3e e0 9a 0e 3e 32 d5 6c 3e
       0.20123717 0.27276942 0.13926268 0.23128203
000330 03 80 21 be 34 f4 9d bd 76 6f 65 be be 7a 1e 3e
       -0.15771489 -0.07712594 -0.224058 0.1547651
000340 2d 84 b1 3e 00 a8 d7 ba 4e 59 7c be f2 cb 00 be
       0.34671155 -0.0016453266 -0.24643442 -0.12577799
000350 7a ef dd bd 53 56 52 be 50 ab bd 3c 51 dd 30 be
       -0.10836692 -0.20540743 0.023152977 -0.17271926
000360 b5 83 aa be d0 12 9e be 54 af 4c be 12 48 31 3e
       -0.3330361 -0.30873728 -0.19988757 0.17312649
000370 14 e1 0d 3e ea 52 5f 3e 30 47 9e 3d 0a eb 00 be
       0.13855392 0.21808973 0.07728422 -0.1258966
000380 7c a3 84 3d 26 fa 4b 3e 10 51 52 bd f0 0d 1b be
       0.06476495 0.19919643 -0.05134684 -0.15142035
000390 14 bd bf bd f8 c6 18 be 1f 84 84 3e f9 88 93 3e
       -0.09362236 -0.1491965 0.2588205 0.2881544
0003a0 62 1a 19 3e 72 70 e4 bd c9 15 9c be 70 41 b9 bd
       0.1495147 -0.1115426 -0.3048537 -0.09045684
0003b0 56 58 43 3e 0a e3 1e 3e bf d4 9c 3e 1a 72 4a 3e
       0.19076666 0.15516296 0.30631062 0.19770089
0003c0 87 c7 89 3e 88 5f bc bd 76 da 51 3e 50 e5 f3 3d
       0.2691004 -0.09197909 0.20493492 0.11908972
0003d0 08 9b 2f be 56 ee 03 be 4e 6b 50 be 8b 18 93 3e
       -0.17148983 -0.12883887 -0.20353433 0.28729662
0003e0 9b 85 98 3e 35 c4 0e be 38 e4 76 3d 20 6a c7 bd
       0.29789433 -0.13942035 0.06027624 -0.097370386
0003f0 cc 2e bb bd 82 fa 7a 3e 53 66 a2 be 35 41 20 be
       -0.09139785 0.24509624 -0.31718692 -0.15649875

lstm.bias_ih_l0 f4 [32]
000000 51 f4 a5 3e c5 53 a3 be 87 74 9e 3e 51 15 81 3e
       0.3241296 -0.3189985 0.30948278 0.25211576
000010 78 83 00 be 51 0d 9d be f9 ce 8f 3e ca 89 bf 3c
       -0.12550151 -0.30674222 0.28087595 0.023381133
000020 f8 e1 2d 3d d1 bb 8d 3e 31 f9 82 3e 60 9e 1a 3d
       0.04245183 0.27682355 0.25580743 0.037748694
000030 10 a8 e0 bc f0 38 17 bd c0 85 bf 3d 12 7b fa bd
       -0.027423888 -0.036919534 0.09351683 -0.12230505
000040 7f 82 c6 3d b8 59 45 3d e2 8d 6f 3e e7 71 15 be
       0.09692859 0.048181266 0.23393968 -0.14594232
000050 38 77 60 be d2 09 96 be 31 33 4e be ae b8 b6 bd
       -0.21920478 -0.29304367 -0.20136715 -0.089219436
000060 31 b8 91 be 45 85 a9 bd cf 3d 95 3e 00 01 ad bb
       -0.2846084 -0.08277372 0.2914872 -0.00527966
000070 b3 80 01 be 22 aa 0e 3e d4 d1 08 3d 84 d5 49 3d
       -0.12646751 0.13932088 0.033403233 0.04927589

lstm.bias_hh_l0 f4 [32]
000000 51 16 b6 3d 98 ff c1 3d 77 d8 a5 3e 1c e2 95 bd
       0.08890975 0.09472579 0.32391712 -0.073185176
000010 50 b5 29 bd e0 53 3c be 14 1e da bd 9a 9c da 3c
       -0.04143268 -0.18391371 -0.10650268 0.026686002
000020 c8 9d f2 bd eb 9b ae 3e 85 f7 a4 3e 3d fa 8b 3e
       -0.11846501 0.3410333 0.32220092 0.27339354
000030 ba 85 62 be 1c d8 e7 3d aa dd 53 be 1b 88 97 3e
       -0.22121325 0.113205165 -0.20690027 0.29596028
000040 e0 7b 33 3e 6f 8b 86 3e b5 0b 85 3e 76 7a 03 be
       0.17527723 0.26278254 0.25985494 -0.12839684
000050 10 a5 9d bd 68 8f 0d 3e cc f1 aa 3e ae 6e 3c bd
       -0.07697499 0.13824236 0.333876 -0.04600399
000060 0a e6 17 3e ce 75 de 3b f2 b5 71 be ba 15 6b be
       0.14833847 0.0067889458 -0.23604563 -0.22957507
000070 80 9c 40 bd 70 76 84 bd 5b f0 96 3d 1b 17 09 3e
       -0.04702425 -0.06467903 0.07370063 0.1338772

fc.weight f4 [1, 8]
000000 1d 1e 26 3e 04 56 43 be 7d f7 80 bd 6a dd 78 3e
       0.16222425 -0.19075781 -0.06297205 0.24303213
000010 0f c0 13 be 74 08 af 3d 08 93 68 3e 56 47 bb bd
       -0.14428733 0.08546534 0.22712338 -0.091444656
