models/lstm_weights_buy.pth (torch, 4642 bytes, 5 tensors)

lstm.weight_ih_l0 f4 [32, 5]
00000000: 2a37 2cbb d36a 9abe 45fc 923e 6df8 bcbd
00000010: 9bd1 363e 8653 5e3e 72a6 03bd e91b 843d
00000020: 4386 af3d f2c7 8ebc 3354 95bd ac08 05be
00000030: 15fa b63d bdf1 54bd 8f81 d3bd ab71 94be
00000040: cf90 8d3e 2c5d bbbd 8b3a 1cbe d74a 4fbe
00000050: a3be 34be 72aa 0d3e be53 513e 412f 37be
00000060: 9ae2 573e fc91 72be 4fa8 ab3e fd80 10bd
00000070: a095 57be ab2a 7d3e 5989 6d3e 48c9 42be
00000080: b16d 273e 6a1b 7dbe 9d90 933e 00bf 4ebc
00000090: 4e07 063e c6ea 513e 8855 a13d 0032 3b3a
000000a0: e599 963e 0c16 b3bd e096 e83c 2c73 84be
000000b0: 011a 903e 4d84 3abe 18c2 7cbe 9cca d33d
000000c0: 98a6 9bbe ded9 783e 4841 c53d f0e1 47be
000000d0: 2528 92be f8c5 08bd 66fe 303e 72ca acbe
000000e0: 7a70 9ebe d300 a03e 176f 59be 5791 a23e
000000f0: 903e f23d d85e 7ebe f6ec 7d3e 1e5f 95be
00000100: 28e5 5abd cbd5 913e 12fa 303e 1363 af3e
00000110: 68c1 90bd b046 e6bc 3aa0 393e b28c 81be
00000120: 99fd 90be a238 f0bd 803a 9fbd 1692 4d3e
00000130: 8043 26bd 2c6d f73d 7816 6fbd b8f9 0cbd
00000140: 894d 62be 38b3 9ebd 2a24 2ebe 477e acbe
00000150: 8281 05be 99f2 a33e 7aaa 3f3e 628c 323e
00000160: 2042 b3be 6e79 623e ec36 c5bd b1bf ab3e
00000170: f68a 743e d07e 75be c3f4 9fbe 72af 6fbe
00000180: 5de3 b13e 9c65 f33d f68c 71be d1dc b2be
00000190: 1000 dcbc 0000 bf3c 692e a2be 712c 8abe
000001a0: 4793 a23e 468f 87be ed8a 433e 2d97 8b3e
000001b0: 42e0 27be 1546 86bd 9282 463e 4077 c2bd
000001c0: a23d 98be fbb7 b4be 1366 25be 2cf3 be3d
000001d0: 1b73 39be 2c2c ecbd 2f05 8b3e 9779 9d3e
000001e0: 62e1 aebe b25f 723e 9a20 333e 0e03 613e
000001f0: fc6c 083e 49de a9be 9374 b93d 26c3 8bbe
00000200: 451f 9abe 59ea d03d 06d8 1a3e 58f7 9ebd
00000210: e3fd 8e3e 328d 3d3e e79c 0fbe 4e8c 5e3e
00000220: 40d2 00bc 07a2 853e a9b7 8cbe 2e0d 503e
00000230: 90c5 213d ba50 88be c837 39bd 065b 96be
00000240: acfc 99bd 928f 603e a05e 88be 1b14 9fbd
00000250: 9825 893e ff39 4bbe 135f a4be a8e8 1a3e
00000260: 9d42 a23e eae4 44be 62aa 89be 15de 433e
00000270: e3da 1f3e 7377 92be 59b0 133e e0a7 acbe
-0.0026277998 -0.30159625 0.2870809 -0.09227071 0.17853396 0.21711549 -0.032141156 0.06450636
0.0857053 -0.017429326 -0.0729145 -0.1299159 0.08934418 -0.051988352 -0.10327446 -0.28992972
0.27649543 -0.091486305 -0.15256707 -0.20243393 -0.17650847 0.13834551 0.20442101 -0.1788912
0.21082535 -0.23688501 0.33526847 -0.035279263 -0.21053171 0.24723308 0.23196925 -0.19022095
0.16350438 -0.24717489 0.2882127 -0.01261878 0.13088724 0.20499715 0.07877642 0.00071409345
0.29414287 -0.087444395 0.028392255 -0.2586912 0.2814484 -0.18214531 -0.24683416 0.10341379
-0.30400538 0.2430186 0.09631592 -0.19519782 -0.28546253 -0.033391923 0.17284545 -0.33748204
-0.30945188 0.3125063 -0.21233784 0.3175151 0.11828339 -0.24840868 0.24797425 -0.2917413
-0.053441197 0.28483424 0.17282894 0.34255275 -0.07068139 -0.028109878 0.18127528 -0.25302655
-0.2831848 -0.11729552 -0.0777483 0.20075259 -0.040591717 0.1208137 -0.058371037 -0.034417838
-0.2209989 -0.07749027 -0.17005983 -0.33690092 -0.13037685 0.32021025 0.18717375 0.17436364
-0.35011387 0.22116634 -0.09629616 0.33544686 0.23881134 -0.23974156 -0.31241426 -0.23406771
0.34743777 0.11884615 -0.23588929 -0.34934095 -0.026855499 0.02331543 -0.31676033 -0.2698703
0.3175299 -0.26476496 0.19095965 0.27263775 -0.16394141 -0.06556336 0.19385746 -0.094954014
-0.29734522 -0.35296616 -0.1615222 0.09323725 -0.18110316 -0.115318626 0.27152392 0.30756828
-0.34156328 0.23669317 0.17492905 0.21973822 0.13322824 -0.33177403 0.09055438 -0.27297324
-0.30101982 0.10200948 0.15121469 -0.07762021 0.27928075 0.18510893 -0.14024697 0.2173321
-0.0078626275 0.2610018 -0.27483872 0.20317528 0.03949505 -0.2662409 -0.045219213 -0.2936632
-0.075188965 0.21929768 -0.26634693 -0.07767507 0.26786494 -0.19846343 -0.32103786 0.15127814
0.31691447 -0.19227949 -0.26887804 0.19127686 0.15610842 -0.28606758 0.1442274 -0.33721828

lstm.weight_hh_l0 f4 [32, 8]
00000000: 10e5 9dbe 1046 8cbe b68f 6c3e e124 a4be
00000010: fa6d 8ebe 9e8d 3f3e faf6 093e 20bc 463c
00000020: 6620 71be 1319 933e f82b 7ebd 4437 a8be
00000030: 65a8 85be 0327 9a3e 20cc 90bd 1ad0 7a3e
00000040: 81a0 b03e d8a0 243d b61a 60be fbfd a6be
00000050: 1843 8abd 4510 a43e 38e5 5abe f7f1 80be
00000060: f0ba cf3d 0d5c 813e 6d3d 5ebe 26ee b3be
00000070: e299 a3be 2e50 213e a3f9 803e 2092 613d
00000080: d10f 9a3e 1659 7cbe 9a2e 1ebe b9d8 75be
00000090: 10b3 1c3d 1e00 ebbd b112 b23e b8b5 a13d
000000a0: a57a b43e 064a 2dbe 9174 893e 1afa 7a3e
000000b0: 9728 a53e 505a 963c a8e2 abbe 960a a7be
000000c0: 88b5 1f3d 95c5 9a3e 20da 143d eece 113e
000000d0: 7017 90bd 8877 4fbe e747 843e e029 95be
000000e0: 4d06 a8be c0bb d13b a5bd 8b3e a8ad 62be
000000f0: e87b c93d 9aad 6f3e a15a 85be 8ae8 4d3e
00000100: 9e4f 06be cbc3 9a3e 7dc7 873e bb62 913e
00000110: a0d2 cf3d c0f0 8f3d 5ddd 993e 38ab 4abe
00000120: 1ca7 76be 4602 573e 5239 3a3e 14a0 3cbe
00000130: a770 a73e b159 9e3e bac4 523e 6c5b 84be
00000140: b99d 90be 7957 a3be 383c 49bd ecb3 a33d
00000150: 0c32 f0bd a55b 94be 4010 893c ff8d 92be
00000160: e10a a63e 764a 423e ec5d 9dbe 460d 593e
00000170: dcf2 28be 6d47 b33e dfe2 b4be a084 de3c
00000180: 814e 71be 1888 11bd d26f 66be 4023 e6bd
00000190: c039 813c 2d3c 993e 9ee0 593e 00f1 1ebd
000001a0: 394c 40be 4290 84be ce8b 4dbe 1c5e d33d
000001b0: 92e5 443e c6ac 2b3e 1bf2 913e 03eb abbe
000001c0: 0a23 4a3e 60af 3bbd 1423 b0bd d080 61bd
000001d0: 5600 193e b75a 18be 4f5b 98be d5cd 86be
000001e0: c831 4dbe 221c 723e 9e50 763e f878 a2be
000001f0: 7a57 32be e0db 2e3c 62ed a1be ea9c 71be
00000200: ee77 09be 26e4 a6be f1b9 8c3e 271e a03e
00000210: 6017 f4bd 20ff 0abd 5e25 20be 517b 5abe
00000220: b4e1 85be 7aa2 7d3e 7c51 9abd 331c 19be
00000230: d55f 3abe b096 6d3d 8620 4d3e 487f 52bd
00000240: 3979 803e 4a24 a7be b8ca d6bd 382a 6d3d
00000250: a69f d7bd 2617 4a3e 741d f83d 33b0 a23e
00000260: 148a ad3d 648c 973d 029b 523e d19e 943e
00000270: 2422 3dbe 00b5 70bb 4598 843e ee25 b4be
00000280: 50e5 7bbd d8db 35be 5ebd d4bd 8060 9b3b
00000290: fa63 553e 8038 a8bc fdca 933e f863 f8bd
000002a0: 43b6 9cbe 12aa fabd 1942 a63e 80d6 a03b
000002b0: df95 5dbe 82cf 033e 9e9a fcbd 8ffb 8f3e
000002c0: 146e 883d ea05 9dbe f3e7 aebe e2a6 1dbe
000002d0: 6919 37be fced a3be 4a00 e7bd 07eb b03e
000002e0: 4f2c 883e c7d6 ab3e 94da 5ebe 2bd6 b13e
000002f0: d9d4 46be b24e 6d3e 2097 b83d 2b6e abbe
00000300: a033 54bc 88b8 0abd e64c 673e 3950 923e
00000310: 5628 e1bd d0b6 52be 2e8a eabd 4891 0fbd
00000320: 80fd c53d e06c 1c3d b069 213d bc85 9abe
00000330: 2065 aabc 5402 6cbe 0006 c3bd bbe4 9f3e
00000340: 209c 8dbd a77d b4be 10c4 6dbd 76b2 6a3e
00000350: 00de a5bb 7f57 04be c096 c83d 4b1a aebe
00000360: c8fa 653d d4c7 a2be 0e1c 71be be21 153e
00000370: e2ec 5e3e 23c7 0dbe e2e0 98be 0d21 8cbe
00000380: a64b acbe 9dda a4be 5688 653e 0616 593e
00000390: e8bf 913d 61f2 a03e 982d 4c3d 56dd a3be
000003a0: be8e 5c3e 800d c1bd e9cc a63e b42c bdbd
000003b0: 022d 9abe e883 ed3d e692 523e 80a4 0d3b
000003c0: 20ac 08bc 8672 393e 3e72 ecbd 68a9 4d3d
000003d0: 10b6 abbd d272 013e 7981 a5be c863 e63d
000003e0: 0943 6dbe 194f 9e3e 96b4 413e 3617 6f3e
000003f0: fb64 6abe 9ad6 7bbe 2079 dc3d e604 703e
-0.30838823 -0.27397203 0.23101696 -0.32059386 -0.2781828 0.18706366 0.1347312 0.012129813
-0.23547515 0.28730068 -0.06205365 -0.32854664 -0.26105037 0.3010789 -0.07070184 0.24493447
0.34497455 0.040192455 -0.2188519 -0.32615647 -0.06751078 0.32043663 -0.21376503 -0.25184605
0.101430774 0.25265542 -0.2170312 -0.3514263 -0.3195334 0.15753242 0.25190458 0.055070996
0.30090192 -0.24643359 -0.15447465 -0.24008454 0.038256705 -0.11474632 0.34779885 0.07895988
0.3524982 -0.16922769 0.26846746 0.24509469 0.3225753 0.018353611 -0.33571362 -0.32625264
0.03899148 0.30228868 0.036340833 0.14239094 -0.0703572 -0.20260441 0.25836107 -0.2913351
-0.32817307 0.0064005554 0.27293125 -0.22136557 0.09838086 0.23406067 -0.26045707 0.20108238
-0.13116309 0.30227503 0.26519385 0.28395638 0.101475954 0.07028341 0.300517 -0.19791877
-0.24087185 0.20996961 0.18185928 -0.1842044 0.32703134 0.30927804 0.20582858 -0.25851
-0.28245333 -0.31902674 -0.049129695 0.07993302 -0.11728296 -0.2897617 0.016731381 -0.2862396
0.32430175 0.18973717 -0.3073572 0.2119647 -0.16498893 0.3501543 -0.3532934 0.02716285
-0.23565103 -0.03553018 -0.22503594 -0.11237192 0.015774608 0.29928723 0.21277091 -0.038804054
-0.18779077 -0.2589131 -0.20072863 0.10320684 0.19228199 0.16765127 0.28505024 -0.33577737
0.19739929 -0.045821548 -0.086004406 -0.055054486 0.14941534 -0.14878355 -0.29757163 -0.26328912
-0.20038521 0.23643544 0.2405419 -0.31732917 -0.17416182 0.0106725395 -0.3162642 -0.23595014
-0.13424656 -0.32595938 0.27485612 0.31273004 -0.11918521 -0.033934712 -0.15639254 -0.21336104
-0.2614876 0.24769011 -0.07535073 -0.14952163 -0.1820062 0.058005035 0.20031938 -0.051390916
0.25092486 -0.32644874 -0.10487884 0.05790159 -0.105284974 0.19735393 0.12114993 0.31775054
0.08473602 0.07399824 0.20566943 0.29027417 -0.18470055 -0.0036728978 0.25897422 -0.35185188
-0.061497986 -0.17759645 -0.103876814 0.0047417283 0.2083892 -0.020534754 0.28865805 -0.121284425
-0.30607805 -0.122394696 0.32472304 0.004908383 -0.21639203 0.12872127 -0.123341784 0.2812161
0.06661621 -0.30668575 -0.34161338 -0.15395692 -0.17880787 -0.32017505 -0.11279352 0.34554312
0.26596305 0.335623 -0.21763068 0.3473371 -0.19417132 0.23174551 0.090132 -0.3348249
-0.0129517615 -0.03386739 0.22587928 0.2857683 -0.109940216 -0.2057755 -0.11452137 -0.03505066
0.09667492 0.03818977 0.039407432 -0.30180156 -0.020800173 -0.23047763 -0.09522629 0.31229195
-0.06914544 -0.35252115 -0.058048308 0.2291964 -0.005061865 -0.12924002 0.09794378 -0.34004435
0.056147367 -0.31793082 -0.23545858 0.14563653 0.21770051 -0.13845496 -0.29859072 -0.27368966
-0.33651465 -0.3219804 0.2241529 0.21199808 0.07116681 0.3143492 0.04984817 -0.32004803
0.21538827 -0.09426403 0.3257821 -0.09237042 -0.30112463 0.11597425 0.2056385 0.0021612942
-0.008341819 0.18110093 -0.115452275 0.050210387 -0.08384335 0.12641457 -0.32325342 0.112495005
-0.23170103 0.30919722 0.18916544 0.23348698 -0.22890083 -0.24593583 0.1076529 0.23439369

lstm.bias_ih_l0 f4 [32]
00000000: ac9d 2c3e 50e2 643e 53fe 07be 2fc4 8ebe
00000010: 860c 4b3e 42e6 81be c45a 913e a2e0 403e
00000020: 7463 58be 727c 493e 4b42 8c3e ecef a23d
00000030: 080b e2bd 42a9 0abe e825 5fbd 9304 b5be
00000040: f061 19be 2aa6 623e bb66 4cbe 9d37 a4be
00000050: 0946 943e 2536 273e 05f4 883e 40ea b83c
00000060: 1430 b33d df4d 893e 2a46 603e ae75 e5bd
00000070: 00b5 bd3d 392f a3bd 9ebf b73d 3b45 423e
0.16857022 0.22351956 -0.1328061 -0.2788405 0.19828996 -0.25370985 0.2838956 0.1883569
-0.21131688 0.19676378 0.27394328 0.07955918 -0.1103726 -0.13541129 -0.05447951 -0.35355052
-0.14978766 0.22133699 -0.19961064 -0.3207368 0.28959683 0.16329248 0.26748672 0.022572637
0.087494045 0.26817223 0.21901765 -0.11204086 0.09263039 -0.079679914 0.08972095 0.18971722

lstm.bias_hh_l0 f4 [32]
00000000: 946d 68be 88b6 0bbe 4006 57be c982 97be
00000010: 9ff8 42be c302 b1be 05bc 8abe d0a9 87bc
00000020: 42f5 1e3e 5191 8d3e d9b0 0abe 10f2 94bd
00000030: ae39 1fbe a0a9 f73d 9862 6c3d 7633 363e
00000040: 3347 b43e b35f 84be b88b 7f3d aa9e 05be
00000050: 1dd9 acbe 5ca8 ea3d 6df3 2cbe b0f6 69bd
00000060: 90ae 6abd abff c7bd 584b c6bd ab64 913e
00000070: 8082 743b 90dd 22be d159 93be 7795 ce3c
-0.2269805 -0.13643849 -0.20998478 -0.2959197 -0.19040154 -0.3457242 -0.27096573 -0.016560465
0.15523246 0.2764993 -0.13544025 -0.07272732 -0.15549347 0.120929 0.057711214 0.17793068
0.3521057 -0.25854263 0.062389106 -0.13048807 -0.33759394 0.11457893 -0.16889735 -0.057120025
-0.057295382 -0.09765562 -0.096823394 0.28397116 0.003730923 -0.15904832 -0.28779462 0.025217755

fc.weight f4 [1, 8]
00000000: c1f9 a4bc 972a 9cbe 81bb a33e ea36 f7bd
00000010: 158f 34be 53f6 923e 3cf0 a03e 7e0b 99be
-0.020138623 -0.30501243 0.31978992 -0.12071021 -0.17632706 0.28703555 0.31433284 -0.2989158
