models/lstm_weights.pth (torch, 4410 bytes, 5 tensors)

lstm.weight_ih_l0 f4 [32, 4]
0.19023249 0.20159402 0.19340214 0.23945674 0.24849632 0.04634612 -0.21013232 -0.21073055
-0.0297212 -0.25503522 -0.08361247 -0.19651048 -0.08573422 0.19425675 0.23102203 0.27240226
0.1938539 0.011599967 -0.27677193 -0.13462633 -0.29865375 -0.19075048 0.2266685 -0.3139619
0.016228348 -0.072517544 0.22183612 0.23058632 0.33171228 0.22217914 -0.006585568 0.24506536
0.13408637 0.07762742 0.32519582 0.28143057 -0.2357543 -0.11513288 -0.10761136 0.022321045
-0.26442063 -0.10782778 0.30486587 -0.30525258 0.3179671 -0.33199295 0.013830572 0.29115698
-0.31778786 0.2204133 0.09573504 0.07994419 0.3087826 0.2729173 -0.10635345 -0.12182884
0.113984376 0.038656622 -0.23230863 0.01134634 -0.27236372 0.05580175 0.2066268 0.28310826
-0.1312365 -0.24423315 -0.22201653 0.021020155 -0.13193375 -0.059906065 -0.1579027 -0.26853696
0.22392336 -0.33128148 -0.25297216 -0.031986088 0.076060444 -0.30813098 -0.32152262 0.16223678
0.15450451 0.15221384 0.3286111 -0.2381956 0.016898483 0.17681322 0.1909636 -0.34320167
0.34984213 0.24444862 -0.1880797 -0.27189413 0.21213713 -0.16648468 0.035316855 0.26021603
0.3374488 -0.17407672 0.10915321 0.11700943 -0.14989492 0.09172191 -0.030911434 -0.32988712
-0.20184998 -0.29660287 -0.34726942 0.0141170025 -0.3407339 -0.2055688 0.21249363 -0.23630747
0.30305192 -0.21032423 0.22073945 -0.22561751 -0.0542953 -0.31469238 0.07255891 -0.25212872
-0.24511588 0.23308289 0.11378697 0.2803272 0.051960975 -0.06721078 -0.07832214 0.0825735
00000000: 4ecc 423e aa6e 4e3e 360b 463e 2634 753e
00000010: d275 7e3e 6ed5 3d3d ed2c 57be c0c9 57be
00000020: e079 f3bc fa93 82be 043d abbd 0b3a 49be
00000030: 6c95 afbd 3eeb 463e 0a91 6c3e 4f78 8b3e
00000040: a381 463e ca0d 3e3c 0db5 8dbe 7cdb 09be
00000050: 25e9 98be 1854 43be ca1b 683e 9dbf a0be
00000060: 50f1 843c 1484 94bd 0229 633e d21e 6c3e
00000070: 31d6 a93e ee82 633e c0cb d7bb 6af2 7a3e
00000080: f04d 093e 20fb 9e3d 1180 a63e ab17 903e
00000090: 9369 71be caca ebbd 5863 dcbd a0da b63c
000000a0: 2462 87be d0d4 dcbd 6117 9c3e 114a 9cbe
000000b0: 95cc a23e fbfa a9be a099 623c 8712 953e
000000c0: 17b5 a2be 06b4 613e bc10 c43d c8b9 a33d
000000d0: c118 9e3e d1bb 8b3e d6cf d9bd 6681 f9bd
000000e0: a470 e93d 6856 1e3d 50e2 6dbe 00e6 393c
000000f0: 4273 8bbe 6090 643d fa95 533e 91f3 903e
00000100: dc62 06be 4118 7abe 4d58 63be 7632 ac3c
00000110: a419 07be 1060 75bd 3fb1 21be ad7d 89be
00000120: 2a4c 653e ba9d a9be 9185 81be d803 03bd
00000130: 94c5 9b3d 58c3 9dbe 9d9e a4be 6621 263e
00000140: 6e36 1e3e f2dd 1b3e b73f a83e 8ce9 73be
00000150: b06e 8a3c 860e 353e f68b 433e 21b8 afbe
00000160: 821e b33e bd50 7a3e f797 40be b535 8bbe
00000170: 7a3a 593e f67a 2abe 68a8 103d 093b 853e
00000180: 17c6 ac3e 2b41 32be b88b df3d a4a2 ef3d
00000190: 0e7e 19be b2d8 bb3d fa39 fdbc f7e6 a8be
000001a0: c3b1 4ebe 55dc 97be 4ccd b1be 004b 673c
000001b0: ac74 aebe a180 52be ee97 593e 96fa 71be
000001c0: 9f29 9b3e 3c5f 57be 8609 623e 4708 67be
000001d0: c064 5ebd 5c1f a1be c499 943d 0417 81be
000001e0: a8ff 7abe 48ad 6e3e 2509 e93d 0c87 8f3e
000001f0: 08d5 543d cea5 89bd 5c67 a0bd 4c1c a93d

lstm.weight_hh_l0 f4 [32, 8]
0.19343922 -0.11989379 0.2675834 -0.08791411 -0.30807975 -0.0024679601 0.13065636 -0.3313678
-0.3182164 0.07535896 -0.0068721175 -0.09366971 -0.25834197 0.28172395 0.32897708 -0.16561866
-0.08746776 -0.022521645 -0.3439221 0.0315513 0.012263328 0.3444784 0.2713385 -0.02264002
0.12448999 -0.03292346 -0.09320155 0.16165164 0.06478399 0.27157846 -0.14544797 0.102713436
0.27642813 -0.22388355 -0.110578656 0.25296816 -0.24200042 -0.06010616 -0.20557049 0.0033318698
-0.23898548 0.0752497 0.2553607 -0.23922332 -0.2276978 -0.024432868 -0.032747716 -0.30974063
-0.056434423 -0.09385693 0.14104396 -0.028095096 0.053217858 -0.23626748 -0.14686996 -0.2739101
0.32289144 -0.10981871 0.24073008 -0.015783966 0.0861668 0.092865914 0.3501989 0.35009125
-0.0019396842 0.13530916 0.33740845 0.34882358 -0.09559372 0.20692101 0.33996615 -0.11077401
-0.048193038 0.17528805 0.0736922 0.075612456 -0.10813996 0.19853058 0.104763865 0.053300828
0.090622425 -0.16943294 0.063711405 0.11091256 0.20756337 0.26749447 -0.3049602 0.022141129
-0.2328879 -0.28808922 -0.042335123 0.21928379 0.3266118 0.11371225 0.0071704984 0.33762363
0.08307043 0.16212872 0.117082715 0.09116554 0.1479797 0.28048274 -0.23268284 0.14808479
0.31445876 0.21060708 0.05384189 -0.14139867 0.3406087 0.33671585 0.31717625 -0.11864872
-0.3396968 0.13759497 0.26904246 0.18369415 0.14921841 0.23920605 -0.15039003 -0.10475443
-0.21547605 -0.26803887 -0.20291254 0.18012479 0.26542297 0.30395648 -0.13782205 0.24018988
-0.2520835 -0.033346415 -0.27221394 0.16139075 -0.054447323 0.13404047 -0.12751971 0.27015576
-0.26659787 -0.20084174 -0.110113576 0.19588843 0.17255071 0.23378584 0.085778534 0.2416353
-0.29305175 -0.10301152 -0.22752297 -0.27498776 0.22553632 -0.09155336 -0.19589691 -0.022991955
-0.03180316 0.16831133 -0.05545348 -0.20415765 -0.20994909 0.047831982 0.0929223 0.22635564
-0.10070506 0.2056205 0.293708 -0.21350564 -0.08751908 0.22225568 -0.16674405 -0.3092181
-0.014301509 0.12479991 -0.34212628 0.11570495 -0.09615731 0.30989966 0.08926579 0.18728843
0.10247925 0.22554561 -0.20768179 -0.19863266 -0.16927126 -0.3077692 -0.2614326 0.2942463
-0.14682694 -0.13371514 0.21316746 -0.023424536 0.26108947 -0.29378355 0.34725007 0.28293046
-0.1019828 -0.31852013 -0.11993231 -0.26100498 0.31595024 0.26531503 -0.016045094 0.10715082
-0.2933794 -0.26406765 0.18008247 0.28808329 0.25249436 0.08163118 -0.09857383 -0.20222977
0.050963134 0.07925403 -0.32828674 0.21673134 -0.13921762 -0.09040049 -0.25864124 0.12776154
-0.002540499 0.16208634 0.301986 -0.116973385 -0.2933288 -0.108096585 -0.05614248 0.34829542
-0.060758978 0.33686987 -0.10019836 0.019969821 -0.015346795 0.087679654 -0.22588725 -0.054096907
0.10880026 0.07561949 0.22644141 -0.16547616 -0.30369252 -0.013856083 0.29185364 -0.0031918287
-0.29768 -0.053285748 0.2920566 0.16939476 -0.2707631 -0.24152972 -0.28880298 0.19088706
0.06346354 -0.17168397 -0.18286982 -0.28592548 0.09692219 -0.15094809 0.24230513 -0.13599591
00000000: ee14 463e e08a f5bd b100 893e 500c b4bd
00000010: a1bc 9dbe 80bd 21bb c8ca 053e 0aa9 a9be
00000020: 43ed a2be cc55 9a3d 802f e1bb e8d5 bfbd
00000030: 6645 84be 1f3e 903e af6f a83e f097 29be
00000040: 4c22 b3bd 507f b8bc 8f16 b0be f03b 013d
00000050: 20ec 483c 795f b03e e1ec 8a3e 9077 b9bc
00000060: 9cf4 fe3d c0da 06bd 74e0 bebd 0288 253e
00000070: 78ad 843d 550c 8b3e 50f0 14be 6c5b d23d
00000080: fd87 8d3e bb41 65be 1077 e2bd 0b85 813e
00000090: f5ce 77be e031 76bd 1281 52be 805b 5a3b
000000a0: 9cb8 74be 841c 9a3d a3be 823e f5f6 74be
000000b0: 9d29 69be 7027 c8bc 7822 06bd 5396 9ebe
000000c0: c827 67bd 1038 c0bd d46d 103e b027 e6bc
000000d0: f8fa 593d 1af0 71be 1465 16be f23d 8cbe
000000e0: 0752 a53e a2e8 e0bd f281 763e 604d 81bc
000000f0: 3878 b03d 7c30 be3d 454d b33e 293f b33e
00000100: 003d feba 7c8e 0a3e cdc0 ac3e 0199 b23e
00000110: a4c6 c3bd 1ae3 533e 0b10 ae3e 7cdd e2bd
00000120: 1066 45bd b67e 333e f0eb 963d b4da 9a3d
00000130: 7c78 ddbd 9a4b 4b3e 708e d63d f851 5a3d
00000140: 4098 b93d d47f 2dbe 207b 823d 2026 e33d
00000150: 7e8b 543e 09f5 883e be23 9cbe 5061 b53c
00000160: 2a7a 6ebe 6e80 93be 9867 2dbd ee8b 603e
00000170: a939 a73e f8e1 e83d 80f6 ea3b 01dd ac3e
00000180: d420 aa3d 1205 263e 10c9 ef3d 00b5 ba3d
00000190: fe87 173e 6f9b 8f3e 6944 6ebe 8aa3 173e
000001a0: bd00 a13e 62a9 573e 5089 5c3d d0ca 10be
000001b0: 4364 ae3e 0566 ac3e ed64 a23e 1afe f2bd
000001c0: bdec adbe b2e5 0c3e efbf 893e 521a 3c3e
000001d0: b6cc 183e 6ef2 743e d8ff 19be 7e89 d6bd
000001e0: c1a5 5cbe 643c 89be 4ec8 4fbe a272 383e
000001f0: 85e5 873e 2fa0 9b3e 3921 0dbe 56f4 753e
00000200: 1711 81be 4096 08bd a05f 8bbe 9e43 253e
00000210: 2804 5fbd e841 093e 8794 02be db51 8a3e
00000220: 847f 88be 75a9 4dbe 3a83 e1bd fa96 483e
00000230: 22b1 303e 8e65 6f3e a8ac af3d 3e6f 773e
00000240: e10a 96be b4f7 d2bd c8fb 68be 32cb 8cbe
00000250: fef2 663e 5480 bbbd 3399 48be a059 bcbc
00000260: 0844 02bd ce59 2c3e 3023 63bd b40e 51be
00000270: e5fc 56be 78eb 433d 0c4e be3d c6c9 673e
00000280: 743e cebd 2e8e 523e e560 963e 39a1 5abe
00000290: 343d b3bd fe96 633e f4be 2abe d651 9ebe
000002a0: e050 6abc 1897 ff3d 2d2b afbe b8f6 ec3d
000002b0: 20ee c4bd 2bab 9e3e fcd0 b63d 8ac8 3f3e
000002c0: a4e0 d13d 6ef5 663e 89aa 54be 5c66 4bbe
000002d0: 7255 2dbe ed93 9dbe 7eda 85be 73a7 963e
000002e0: cd59 16be 9fec 08be 9248 5a3e d0e4 bfbc
000002f0: 85ad 853e cc6a 96be c3ca b13e 43dc 903e
00000300: 5cdc d0bd 1215 a3be 129f f5bd 72a2 85be
00000310: 3bc4 a13e 5fd7 873e 0071 83bc e471 db3d
00000320: d335 96be e033 87be 8a67 383e a77f 933e
00000330: f146 813e 402e a73d 14e1 c9bd 5215 4fbe
00000340: b8be 503d f04f a23d 3315 a8be d2ee 5d3e
00000350: 108f 0ebe e423 b9bd a06c 84be ecd3 023e
00000360: 807e 26bb f6f9 253e e99d 9a3e be8f efbd
00000370: 312f 96be be61 ddbd a8f5 65bd c753 b23e
00000380: 68de 78bd 357a ac3e cc34 cdbd c097 a33c
00000390: 2071 7bbc 6491 b33d fd4e 67be b894 5dbd
000003a0: acd2 de3d 64de 9a3d 42e0 673e 9572 29be
000003b0: 967d 9bbe a004 63bc d76d 953e 002e 51bb
000003c0: 8369 98be 2842 5abd 7188 953e d275 2d3e
000003d0: 76a1 8abe 9153 77be fcdd 93be e677 433e
000003e0: 2cf9 813d eccd 2fbe 3a42 3bbe d364 92be
000003f0: 247f c63d 2392 1abe d61e 783e 8342 0bbe

lstm.bias_ih_l0 f4 [32]
0.1670861 0.2743464 0.0203484 -0.11639045 -0.020620909 -0.06664497 -0.057073027 0.005413294
0.26707134 0.21235022 -0.29644445 -0.24908172 -0.2785701 0.019003808 0.1016534 0.29269043
0.09188683 -0.014940351 0.10235822 0.29137656 0.044720173 0.051117122 0.17393321 0.19470277
0.3399742 -0.06615203 0.27205595 -0.05546817 0.055818528 0.2850581 0.28622702 -0.15883714
00000000: 9e18 2b3e 2277 8c3e b0b1 a63c 1e5e eebd
00000010: 2eed a8bc 287d 88bd 68c5 69bd 0062 b13b
00000020: 93bd 883e 5672 593e 91c7 97be 470f 7fbe
00000030: bda0 8ebe e0ad 9b3c a82f d03d 85db 953e
00000040: 2a2f bc3d 60c8 74bc 30a1 d13d 4f2f 953e
00000050: 802c 373d 3060 513d 8c1b 323e 2a60 473e
00000060: 1911 ae3e b77a 87bd eb4a 8b3e 9832 63bd
00000070: f8a1 643d 23f3 913e 598c 923e 34a6 22be

lstm.bias_hh_l0 f4 [32]
-0.3342441 0.21674514 -0.20166878 0.0027736127 -0.2479573 0.32163778 -0.3045248 0.064962715
0.324546 0.34738 0.10426894 -0.26388714 0.07269952 -0.3217026 -0.30529162 0.02076301
0.13627592 -0.1752251 -0.10635762 0.24969175 0.13474306 -0.06331089 0.14822918 -0.25235817
-0.12000543 -0.21831615 -0.2035753 -0.23375493 0.29605153 0.090577334 -0.037848793 -0.14159659
00000000: 0b22 abbe 70f2 5d3e 4382 4ebe 80c5 353b
00000010: 85e8 7dbe b5ad a43e adea 9bbe 2c0b 853d
00000020: e52a a63e cbdb b13e f48a d53d 371c 87be
00000030: 7ce3 943d 34b6 a4be 2f4f 9cbe 3017 aa3c
00000040: ea8b 0b3e 356e 33be 06d2 d9bd 32af 7f3e
00000050: 16fa 093e 24a9 81bd 64c9 173e 1735 81be
00000060: 68c5 f5bd 458e 5fbe 0b76 50be 745d 6fbe
00000070: 1194 973e 9c80 b93d 5607 1bbd b2fe 10be

fc.weight f4 [1, 8]
0.3117226 0.027838312 -0.07867056 0.35290024 -0.2996772 0.30109605 0.28228754 -0.036637634
00000000: 1b9a 9f3e 2c0d e43c 081e a1bd 57af b43e
00000010: 4a6f 99be 4329 9a3e fe87 903e 5811 16bd
