models/rnn.pth (torch, 7200 bytes, 5 tensors)

rnn.weight_ih_l0 f4 [32, 4]
000000 ec 8f 4a 3d 52 af 98 3d 00 03 d0 3b 17 0c 1d 3e
       0.04945366 0.07455315 0.006348014 0.15336643
000010 16 f2 b9 3d 16 b4 f0 3d 6e 33 ed 3d a0 b6 8f bb
       0.09079377 0.11753099 0.11582075 -0.0043857843
000020 e7 05 11 3e a8 0b 44 3d a2 a2 d3 3d 19 ae 1b 3e
       0.14162408 0.04786268 0.10333754 0.15203132
000030 6b 8d 32 3e 72 de 81 3d 10 5a d4 3c 90 a4 5a bc
       0.17436759 0.06341256 0.025921851 -0.013344899
000040 9f 1c c7 bd f1 71 05 3d 48 a9 1d bb dd 16 d3 3c
       -0.09722256 0.032579366 -0.0024057198 0.025767738
000050 df cf 0c be f0 23 d6 bd bc 9d 9a 3c 4c 4e 88 3d
       -0.13751172 -0.10456073 0.018874042 0.06655559
000060 40 26 0b be cd c9 02 be ac b7 01 3e cd 36 52 3c
       -0.1358881 -0.12772293 0.12667722 0.012830448
000070 6d 5e 83 bd d1 ea 37 3c 12 8b b3 3b c7 11 00 be
       -0.06414495 0.011225418 0.005479225 -0.12506782
000080 bc 69 47 3d 87 7e 23 3e e0 be 74 bc aa f2 b3 3d
       0.04868482 0.15966235 -0.014938086 0.08786519
000090 9f 24 b5 bd c6 0f 8c 3d a5 ed a4 3d 83 0e 3b bd
       -0.088448755 0.06838946 0.080531396 -0.045668136
0000a0 cf 5b dd bd 28 9f 46 bd 6a 26 bb 3c fb ac fb 3b
       -0.10808527 -0.048491627 0.022845466 0.007680533
0000b0 3b 72 a8 bd 78 cf 87 bc 88 0e aa bc 29 52 1c be
       -0.08224913 -0.016578421 -0.020758882 -0.15265717
0000c0 0c 10 3d bd 3c cd 25 be 6a d7 29 be c3 6f be bd
       -0.04615788 -0.16191572 -0.1658608 -0.092986606
0000d0 6f 65 f3 3d e5 38 9a 3b 34 02 b4 bb a6 7c a2 bc
       0.11884581 0.0047064894 -0.0054934267 -0.019834828
0000e0 87 a7 11 3e 64 70 55 3d 10 6f 4c 3c 46 87 d8 3d
       0.14224063 0.052109137 0.012477651 0.10572676
0000f0 6b 05 1b 3d 81 c8 d1 3d fa f4 b8 bd e5 ae 07 be
       0.037846964 0.10243321 -0.090311006 -0.1325031
000100 39 37 f2 bd 32 f7 08 3e bb e8 a8 3d a7 d7 c1 3d
       -0.11826939 0.13375548 0.08247515 0.094649605
000110 68 d2 c7 bd b7 76 c2 3d 4d 16 93 3d 45 60 0c be
       -0.09756929 0.09495299 0.07181988 -0.13708599
000120 36 53 33 be 08 2a 0a 3d c7 8e 2f be 82 1b e4 bd
       -0.17512211 0.03373149 -0.17144309 -0.11138059
000130 3e 5d 1e be c0 df 06 3d a1 a6 09 be 7f e6 83 3d
       -0.15465257 0.03292823 -0.1344247 0.06440448
000140 39 de 7b bd 52 a1 a4 bd 9a 31 28 3e ab 2e fc 3d
       -0.061491225 -0.08038582 0.16425171 0.12313589
000150 c8 aa 89 3d 4f 2d d9 bd 42 12 f4 bd 07 f2 1e 3e
       0.06722027 -0.10604345 -0.11917545 0.15522014
000160 2d ee 0c 3e 0d c5 02 be 5e bd 98 3d 4a 89 b4 bc
       0.13762732 -0.12770481 0.07457994 -0.02203812
000170 b9 00 5d 3c d6 6c eb bd 0e 00 30 bd 4c bc db bd
       0.013488942 -0.11495368 -0.042968802 -0.10729274
000180 64 87 ac 3d f9 09 90 3d f1 a5 11 be 4b 3a 23 3e
       0.08424261 0.07033152 -0.14223458 0.15940206
000190 e8 74 c8 bd 7a aa 26 3e fb 09 ce bd 51 4e b6 bd
       -0.09787923 0.16275969 -0.100604974 -0.089016564
0001a0 d4 d8 3b be 04 2e c2 3d 7b 73 a1 bd e6 b9 c7 3d
       -0.18344432 0.09481433 -0.07883354 0.09752254
0001b0 fa 6c fa 3c 66 c0 5e 3c 3c 4b 0f 3e c1 3d 39 be
       0.030569542 0.013595676 0.13993543 -0.18089963
0001c0 73 2a 1c 3e 88 c5 1b 3e 2d 67 03 be 03 17 b9 bd
       0.15250568 0.15212071 -0.12832327 -0.09037592
0001d0 8b b9 2d 3e d8 d6 99 bd 45 97 2a 3e 80 ed 9a ba
       0.1696531 -0.07511681 0.16659267 -0.0011820048
0001e0 4e cc e7 3d 40 4c a9 3c 40 36 7f 3b bd d2 06 3e
       0.11318265 0.020666242 0.0038942248 0.13166328
0001f0 bf 68 cc 3d 1d 74 7d bc 38 58 b1 bc 82 3e ea 3c
       0.09980916 -0.015469578 -0.021648511 0.02859426

rnn.weight_hh_l0 f4 [32, 32]
000000 1d 7c 26 3e 78 7a 44 3d 8e 1d fa 3d 15 1d 1e 3e
       0.16258283 0.047968358 0.12212668 0.15440781
000010 9e 90 1b be d8 a3 db 3c 00 00 a6 bd 1d 10 ba bd
       -0.15191886 0.026811525 -0.08105469 -0.090851046
000020 74 c2 ad bd 70 fc 3c 3c 56 25 d5 3d 10 1c 7c bd
       -0.084843546 0.011534795 0.10407512 -0.0615502
000030 28 c9 b6 bc 9e 4f d5 3d ba 43 9b 3d 52 1d d3 bd
       -0.022312716 0.104155764 0.07581277 -0.10308327
000040 a0 9e 44 3c 54 ea 11 be 20 48 ea 3b d2 3f d9 3d
       0.01200071 -0.14249545 0.0071497113 0.10607876
000050 76 46 de 3d c9 2f 09 3e e1 c4 23 3e 2b 3b aa bd
       0.10853283 0.13397135 0.15993072 -0.08312067
000060 9e b8 b0 3d 72 f0 f9 bd 03 73 05 be 77 cb 1a 3e
       0.08628963 -0.122040644 -0.13032155 0.15116678
000070 8a bb 9f 3d b5 56 14 3e d0 97 00 bd de 82 d2 3d
       0.07799442 0.14486201 -0.03139478 0.10278867
000080 7c bb 2d be 60 9a c2 3c 3a 6e 97 3d 30 4e 1f be
       -0.16966051 0.023755252 0.07394071 -0.1555717
000090 80 a0 65 3d f8 c7 ca bd d8 16 a8 bc ee d9 10 be
       0.056061268 -0.09901422 -0.020518705 -0.14145634
0000a0 d1 f6 c1 bd c9 71 be bd 9c 60 63 bd c1 d3 fd bd
       -0.094709046 -0.092990465 -0.055512056 -0.123939045
0000b0 a7 2c cf bd 97 81 91 bd 13 f1 cf bd 56 5d b9 3d
       -0.10115939 -0.071047954 -0.10153403 0.090510055
0000c0 94 f4 c2 bd e4 bb 6d 3d dc 1c 68 bd 86 88 bb 3d
       -0.09519306 0.058040515 -0.056668147 0.09156899
0000d0 3b 28 d8 bd f2 9a f0 3d fa 8f 34 be 74 d8 80 bd
       -0.10554548 0.117483035 -0.17633048 -0.06291285
0000e0 30 b6 8f 3d fa 33 99 bd c4 65 15 bd 50 77 f6 bd
       0.070171714 -0.07480617 -0.036474004 -0.12034476
0000f0 d8 95 2f be 58 91 23 3d 25 ef d7 bd 5a 0e ef 3d
       -0.17147005 0.039933532 -0.1054366 0.11672659
000100 35 db 08 3e b7 d7 c5 bd 12 5d e4 bd 73 f8 24 be
       0.13364871 -0.09660285 -0.11150564 -0.16110401
000110 86 ba db 3d 2c ba 4a 3d 6e 1c ca 3d 00 3c ee 3c
       0.10728936 0.049493954 0.09868704 0.029081345
000120 88 ea d8 bd ae 46 c0 3d fe 97 a9 bd 8a a2 be 3d
       -0.10591608 0.09388481 -0.08280943 0.093083456
000130 18 4e ff bc 77 ef 07 3e e5 83 fd bd 40 d0 ea bc
       -0.031165168 0.13274942 -0.123786725 -0.028663754
000140 38 9a 79 3d c1 11 2e be 80 f3 04 bc 14 65 26 bd
       0.06093809 -0.1699896 -0.008114696 -0.04062374
000150 2c 99 19 3d 8c 84 db bd c8 5b a0 3c e6 9d 9e 3d
       0.03749959 -0.10718641 0.019575015 0.077449605
000160 e0 c2 e1 bc 68 c5 2d bd 84 3e 06 3d b8 46 01 3d
       -0.027558744 -0.04242459 0.032774463 0.031561583
000170 bc 24 be bd e8 01 9b bc 46 12 33 be 23 58 88 bd
       -0.0928435 -0.018921807 -0.1748744 -0.06657436
000180 aa 3f b7 3d 31 ee 1a 3e b0 01 94 3d 80 b8 7b 3c
       0.0894769 0.15129925 0.07226884 0.015363812
000190 61 11 93 bd d6 c4 1e be ea d2 0c be 90 ad 18 bc
       -0.07181049 -0.15504774 -0.13752332 -0.009318724
0001a0 03 65 8e bd 94 b5 2c bd 66 ae ea bd c3 ca 34 3e
       -0.0695286 -0.042165354 -0.11459045 0.17655472
0001b0 68 ca b4 bc 91 56 17 3e 64 3a 05 be b7 9b d3 bd
       -0.022069171 0.14779116 -0.13010556 -0.103324346
0001c0 96 34 dc 3d 57 17 a5 bd f8 80 c6 3c c1 91 29 be
       0.107522175 -0.08061092 0.024231419 -0.16559507
0001d0 c7 ec ab bd 56 ac 34 be 20 da 46 3d 60 0c 2c bd
       -0.08394771 -0.17643866 0.048547864 -0.04200399
0001e0 ac 03 29 be 48 78 a1 bc a1 4c 31 3e a0 83 02 be
       -0.16505307 -0.019710675 0.17314388 -0.12745523
0001f0 43 e8 2e 3e bd 5a 07 3e 40 89 de bb 4b 5e 25 3e
       0.17080788 0.13218208 -0.006791264 0.16149251
000200 44 d6 1f 3d 77 1b 96 bd a1 43 33 3e 43 9d ab bd
       0.0390227 -0.07329457 0.17506267 -0.08379605
000210 3e 8c 79 bd 18 c1 21 be 80 b6 68 3d df 42 08 3e
       -0.06092476 -0.15796316 0.05681467 0.1330676
000220 31 ee 0c 3e 33 20 8e bd e0 53 b5 3c f7 d4 07 3e
       0.13762738 -0.06939735 0.022134721 0.13264833
000230 08 27 16 bd d0 ef 48 3c f6 f0 b2 3d 0a ac cf 3d
       -0.036658317 0.012264207 0.08737366 0.10140236
000240 8d 41 2d 3e 1b 31 27 be fd 9f 18 3e 00 e9 26 3d
       0.16919537 -0.16327326 0.1490478 0.04074955
000250 c0 2b f8 3b 74 0e ac bd a6 f8 e7 3d 00 e5 0d 3d
       0.007573575 -0.08401194 0.11326723 0.03464222
000260 12 42 a2 bd 42 35 e0 3d d0 7c df bc 2b 2b d2 bd
       -0.07922758 0.10947658 -0.027281195 -0.1026214
000270 e2 5e ad bd 91 df 0b be a0 20 16 be 4d 8b 27 3e
       -0.08465363 -0.13659503 -0.14660883 0.16361733
000280 bf 8c 2c 3e 18 50 62 3d 7e 48 d0 bd a2 97 67 bd
       0.16850565 0.055252165 -0.10170077 -0.056541093
000290 2d 1e c3 bd 73 60 16 be f7 b0 2b 3e 24 ca 3a bd
       -0.0952724 -0.1468523 0.16766725 -0.045602933
0002a0 28 91 f2 3c b0 cd 2e be 3b 9c 1c 3e 7e a0 19 be
       0.029610232 -0.17070651 0.15293972 -0.15002629
0002b0 87 9f 87 bd 3e 00 b7 3d 0c d3 10 3d e2 19 f4 3d
       -0.06622224 0.08935593 0.03535752 0.11918999
0002c0 50 15 e4 bc 1f 35 06 3e d0 d6 f9 bd 19 b5 1c 3e
       -0.027842194 0.13106202 -0.12199175 0.15303458
0002d0 fc f5 0a 3d a8 20 50 3d 5c d6 0b 3d 5b be 23 be
       0.033925995 0.050812393 0.034139976 -0.15990584
0002e0 50 89 77 bc 78 d4 12 be 7d 9d d2 bd 6c 69 30 be
       -0.015108421 -0.14338863 -0.10283945 -0.17227715
0002f0 37 d1 ce bd 80 9e dc bb 4c 0e df bd 1e 94 e3 bd
       -0.10098498 -0.006732762 -0.10891399 -0.111122355
000300 c7 95 1b be 56 73 ab 3d 13 bc 81 bd c2 c8 bd 3d
       -0.15193854 0.08371608 -0.063347004 0.09266807
000310 e8 f1 00 be f8 b1 89 3c d1 50 fb bd 1f 95 18 3e
       -0.1259228 0.016808495 -0.12271274 0.14900635
000320 e2 e0 f6 bd dc df 63 3d 6e ca 2f be c6 6e f1 3d
       -0.12054612 0.05563341 -0.17167065 0.117887065
000330 9a 11 ab 3d 5e 30 85 bd f0 b0 fd bd 5a ac be 3d
       0.083529666 -0.06503366 -0.12387264 0.09310217
000340 88 ac 57 3d 7f 2e 86 bd ab ea 2e 3e 98 0e b9 3c
       0.052654773 -0.06551837 0.17081706 0.022589967
000350 de 89 98 3d 27 d6 83 bd 0e f9 c4 3d 63 65 14 3e
       0.07448171 -0.06437331 0.09617816 0.14491801
000360 e6 79 0d be 35 f3 02 be 65 ed 2d 3e 5e c6 b1 3d
       -0.13816032 -0.12788089 0.1698509 0.08680414
000370 93 2c 01 3e 99 7d c4 bd 43 84 a6 bd 3e 10 f5 3d
       0.1261466 -0.09594268 -0.08130696 0.119659886
000380 85 46 01 3e 08 bc c2 3c c0 bb 91 bd ef 05 ca bd
       0.12624557 0.0237713 -0.071158886 -0.09864413
000390 aa 65 88 3d 45 06 c5 bd 33 42 1d 3e c8 39 b1 bd
       0.06660016 -0.096203364 0.15357284 -0.08653599
0003a0 60 3b 3a bc 30 f5 4f 3d 8a 2b d3 bd 70 96 29 be
       -0.011366695 0.05077094 -0.10311039 -0.16561294
0003b0 f6 44 70 bd 60 d2 e0 bb 18 82 dc bc 8f 68 e6 bd
       -0.058659516 -0.006861016 -0.026917502 -0.11250412
0003c0 0f 6b 10 3e ad 9c d9 bd 28 07 65 3d 4f 3d 29 be
       0.1410334 -0.10625587 0.055915028 -0.16527294
0003d0 18 31 14 3d 0c 1b 0a 3d 68 04 11 3d 9c 42 41 3d
       0.036179632 0.0337172 0.035404593 0.047182664
0003e0 c0 fa 13 be 2a c1 b8 3d 00 bd 5f bd a4 28 90 3d
       -0.14451122 0.09021218 -0.054623604 0.070390016
0003f0 f2 3a 80 3d 64 80 8a 3d 60 40 fb 3b e0 26 5a bd
       0.06261243 0.0676277 0.007667586 -0.05325973

rnn.bias_ih_l0 f4 [32]
000000 e0 8e 9e 3c 58 17 22 be e4 6c 53 3d 58 4d 94 bc
       0.019355237 -0.15829217 0.051617518 -0.018103287
000010 5b 4e 89 3d 82 0c 8b bd dd 8a a8 3d 83 f3 2a be
       0.06704398 -0.06789495 0.08229611 -0.16694455
000020 6e 0a b3 3d 90 9d c7 bd 3c ce 48 3d b2 1a cd 3d
       0.08742224 -0.097468495 0.049024805 0.10014857
000030 8e 13 a5 3d 9f a2 3c be 16 6d 23 be 61 9a 55 bd
       0.080603704 -0.1842141 -0.15959582 -0.05214918
000040 85 71 cb 3d 50 36 40 bd 5c d9 53 3d f0 6d 65 3b
       0.099337615 -0.046926796 0.051720962 0.0035008155
000050 10 89 4a bc d4 af 4e 3d a0 cc a6 bd 11 64 8d bd
       -0.01236178 0.05046065 -0.08144498 -0.06903852
000060 90 08 fd bd c6 28 e3 3c 72 3e 2b be a0 bc a3 bd
       -0.12355149 0.027729403 -0.1672304 -0.07994962
000070 e4 27 23 bc 64 74 95 3d 8b f0 d8 bd 3e 70 b2 bb
       -0.009958241 0.072975904 -0.10592755 -0.005445509

rnn.bias_hh_l0 f4 [32]
000000 bc 44 53 3d 96 d0 ae 3d 6a 42 84 bd ca ca 82 bd
       0.051579222 0.08535878 -0.0645798 -0.06386335
000010 f9 ff fc 3d b3 12 95 3d 4d bb 93 3d 7f dd 2e bb
       0.123535104 0.07278957 0.07213459 -0.0026682315
000020 3e da 83 3d 15 22 36 be 5c 6a dd bd 4c e6 3a bd
       0.06438111 -0.17786439 -0.10811302 -0.045629784
000030 f4 d4 7f 3d 68 72 e3 3d b8 cf 30 3d b0 ad ea 3d
       0.062458947 0.11105806 0.043166846 0.114589095
000040 65 fc e1 3d 20 35 e3 3d 7b ea bc bd e5 41 91 3c
       0.110344686 0.11094117 -0.09224411 0.017731616
000050 6f 33 20 bd ec 1b 20 3d 82 00 ed 3d 16 98 a1 bd
       -0.03911155 0.03908913 0.115723625 -0.07890336
000060 e3 b1 24 be 30 16 2d be eb db 1c 3b 9c 18 b9 bd
       -0.16083483 -0.16902995 0.0023934792 -0.09037897
000070 eb c1 21 3e 03 e7 08 3e 97 e9 19 3e 19 34 bd 3d
       0.1579663 0.13369374 0.15030514 0.092384525

fc.weight f4 [1, 32]
000000 57 c5 02 3d 56 08 1a 3e 9e d1 7b 3d ec 84 69 3b
       0.03192648 0.15042242 0.061479203 0.0035632206
000010 2e ee d7 bd 23 4d 35 be 4d ac 82 bd 97 56 c4 3d
       -0.10543476 -0.17705207 -0.0638052 0.09586828
000020 75 87 dd bd 7a ce 1f be 98 00 95 bd 55 49 2e be
       -0.10816852 -0.15606108 -0.07275504 -0.17020161
000030 0e c1 13 3d 3a 34 21 be ec b9 b8 bd 28 2f 98 bd
       0.036072783 -0.15742579 -0.09019837 -0.07430869
000040 12 0f 18 3e dd fa 1b 3e 80 da 22 3e 68 76 18 3e
       0.14849499 0.15232415 0.15903664 0.14888918
000050 c7 5f d0 3d b1 a8 1d be 87 f0 05 3e e7 2f c6 bd
       0.10174518 -0.15396382 0.13080035 -0.096771054
000060 12 ac 6b bd cb 2e 20 be 9a b4 5b bd 5b 23 03 be
       -0.057537146 -0.1564285 -0.053639032 -0.12806456
000070 cf e5 15 3e b4 d3 89 bd a2 b1 8c bc f9 41 16 be
       0.14638446 -0.06729832 -0.017174546 -0.14673604
