models/rnn_weights_price.pth (torch, 20844 bytes, 5 tensors)

rnn.weight_ih_l0 f4 [64, 4]
00000000: 2075 eabd 5c62 2fbd 0593 e63c e158 cd3d
00000010: d3a0 44bd 790d f0bd 072f d43d b749 82bd
00000020: 5c8a 433d fd14 9a3d 1e33 f2bd e863 013e
00000030: d722 dc3d 699d 0cbd 380c 113d da6e 90bd
00000040: 557f bb3d 7bf9 bbbd 3b99 973a 9e5e f2bb
00000050: 4eb5 c23d b08f 7a3c 58dc 553d 8092 653c
00000060: 22b1 f83d b550 99bd ed59 183d 579d b9bd
00000070: 3b08 7b3d 2cf8 ebbd 7c38 9b3c 7691 983d
00000080: da88 c4bd 1ca6 9b3d 680f a73d 3062 ad3d
00000090: 9c62 453d 58a9 c2bd aa35 c7bd 5cae 5bbd
000000a0: c85f 953d de02 bdbd 8ee0 a63d d02a b53d
000000b0: 4890 83bd 3beb 99bc 43ef b4bd 6115 793c
000000c0: e4a2 77bd 7edb e7bd 98eb 883d eb54 9b3d
000000d0: 54c5 33bd 7ecd fa3d 84f0 f53d 689e d63d
000000e0: 1bd5 523d 91c4 97bd 11ed 923b 43ae c13d
000000f0: 625c b4ba a7fa a03d d16c df3c 301d fdbc
00000100: 00d4 2f3a d0cb 80bc 749d d9bd 00bb f5bc
00000110: ff78 18bd 42b6 883d c8bb aebb c5c8 e13d
00000120: 80dd 86bb 9c3a cc3d 38d6 dd3d 44c4 c53d
00000130: 3264 ad3c 9250 753c f303 603b 88ec 873d
00000140: 2e48 b4bc e9c3 223d 08cb 3e3d d1ca adbd
00000150: 69a9 213d 93d7 973d cee2 293b 41ae 95bd
00000160: 2904 e1bd 1673 b5bd 093d e73d ed19 cb3d
00000170: d165 d7bc 0ce5 fcbc e1f8 d33d acaa b1bc
00000180: 8fab 5bbb 5e77 ddbd 6a3e d03d d496 ee3b
00000190: 4930 89bd bdb5 683a 5333 b63d c83c cf3d
000001a0: a1a5 113b 7116 ddbc 7b3c c23d 3071 81bd
000001b0: 34f1 6dbd a672 e4bd d842 32bd 127e d8bd
000001c0: d0ec ffbd d8e1 90bc dc3f 623d b81a 03bd
000001d0: c80f 493d 1fcb 8b3d 10a2 66bd 24b6 69bd
000001e0: 62ce 33bd 5634 b4bc bf2e 653d f3cc a7bd
000001f0: dc62 d53d 30ef 4c3d d46d adbd d6f6 ae3d
00000200: 1041 e0bd 986e d6bd 1065 55bc 723d d1bd
00000210: 6b71 aa3d 962b 263d 7d17 d8bc 269b 8cbc
00000220: 0717 51bd 2273 d4bd 47e6 dc3d 43cc b23d
00000230: 207f e83d 146b 2d3d 1ed9 ec3d 00e9 733c
00000240: 3b72 52bc 706a 0dbd 85df 913d 2746 46bb
00000250: 4e3c 993c cf0e 9f3d 7fec 1a3d d0fc 91bc
00000260: e417 d43d 5098 8e3c 5034 16bd 6812 183d
00000270: d326 dcbd da03 933d 5794 533d 47f3 57bd
00000280: 71df 573d ecc1 73bd 2ada f7bd e2c3 753c
00000290: 692b 9bbd d8d8 28bd 2a22 7bbd cadd dc3d
000002a0: 601f 18bc b08f 9cbd 1008 6f3c d86b 27bd
000002b0: 3ec9 e23b e1ff d63d f375 323b 0d16 b4bc
000002c0: 43b9 313c 80ba e33d 9e99 a7bd 131b 19bd
000002d0: efe1 1ebc 9f2e 80bd b7f9 62bd 04c3 ca3c
000002e0: 2f8c b23d 3bd2 8abd 6cf6 2bbd 21a0 89bd
000002f0: d00c e23d eacf 043b f8e3 c2bd f12f 243c
00000300: 4067 2b3c d24b cb3d 3c5c 05bd 9c9c 823d
00000310: 73f5 8c3c 0fbb a33d 7ea5 c03b a7f7 8dbd
00000320: cfce 553d f3ee c7bd b214 92ba 1866 2dbd
00000330: 10cd 31bc 3a32 dabd a020 263d 509c 45bd
00000340: 7db9 943d ddde 4a3d e0ea 723c da61 d9bd
00000350: a63d b2bd 6a88 843d b2b9 ff3d bc13 3f3d
00000360: 80e0 bd3c 2a81 89bd 90f7 dabc 4265 abbd
00000370: de56 df3d b81c d6bd 9615 b83d a6e9 bcbc
00000380: 33d5 30bd 273d b83d 80e4 2e3d 0969 ebbd
00000390: 66f7 84bd 8bd0 72bd 6624 cebd 0681 783d
000003a0: 4056 79bd 5e78 92bd 246e 94bd 02fc b9bd
000003b0: 594f dd3b 6fc4 cb3d 48fe 24bd 3063 063d
000003c0: 49e8 af3d ec1e 10bd 6117 7dbd 54a5 f13c
000003d0: f797 a7bd f73c e73d 3e6e 023d c148 34bd
000003e0: 20e4 153d 4e22 ef3c 063f b1bd 0903 e7bc
000003f0: 687a 80bc 20fd cd3d c010 fabb 6019 d83d
-0.11448121 -0.042818412 0.028146276 0.10026718 -0.048004936 -0.1172132 0.10360532 -0.06361716
0.04773937 0.075235344 -0.11826156 0.12635767 0.10748833 -0.034329806 0.035412043 -0.07052393
0.09155146 -0.09178444 0.0011566052 -0.007396533 0.095072374 0.015293047 0.05221209 0.014011979
0.121431604 -0.07486097 0.037195135 -0.09063213 0.061287146 -0.115219444 0.018947832 0.074496195
-0.09596415 0.07600042 0.081572354 0.084659934 0.048189744 -0.09504956 -0.097270325 -0.05363308
0.072936594 -0.092290625 0.08148299 0.088460565 -0.06424004 -0.018788924 -0.08834698 0.015202851
-0.06045808 -0.11321162 0.06685561 0.07584556 -0.04388936 0.12246226 0.12008765 0.10479432
0.051472764 -0.07410539 0.004483827 0.09457066 -0.0013760442 0.07860308 0.027273567 -0.030897707
0.00067073107 -0.015722185 -0.10625735 -0.029996395 -0.037224766 0.06675388 -0.005332444 0.11024622
-0.0041157603 0.09972116 0.108318746 0.09656575 0.02116594 0.014972823 0.0034182041 0.06636912
-0.022007074 0.039737616 0.046580344 -0.0848595 0.039468203 0.074141644 0.002592254 -0.07308627
-0.109871216 -0.088598415 0.112909384 0.09917054 -0.026293667 -0.030870937 0.10350204 -0.021687828
-0.0033519005 -0.10813783 0.101681545 0.0072811637 -0.06698663 0.0008877179 0.08896508 0.10119015
0.0022223967 -0.02698824 0.09484192 -0.06320417 -0.058091357 -0.1115468 -0.04352078 -0.10570921
-0.1249634 -0.017685816 0.055236682 -0.032007903 0.049087316 0.06825852 -0.0563069 -0.05705847
-0.043897994 -0.021997612 0.055952784 -0.08193388 0.104192466 0.050032794 -0.08468214 0.08543174
-0.1094991 -0.10470313 -0.013024583 -0.10216798 0.08322414 0.04056891 -0.026378388 -0.017163824
-0.05104735 -0.10373522 0.107861094 0.08730366 0.11352372 0.042338446 0.11564849 0.0148870945
-0.0128446175 -0.034525335 0.07122711 -0.0030254216 0.018705513 0.077664964 0.037823197 -0.017820746
0.10356119 0.017406613 -0.036670983 0.03712693 -0.10749593 0.07178469 0.05165514 -0.05272224
0.052703325 -0.05951111 -0.12102158 0.015000315 -0.07576639 -0.041222423 -0.06131188 0.107844904
-0.009284824 -0.07644594 0.014589325 -0.040874332 0.0069209626 0.10498024 0.0027230948 -0.02198317
0.0108473925 0.111195564 -0.08183597 -0.037379336 -0.009697421 -0.06258892 -0.055413928 0.024751194
0.08718144 -0.067783795 -0.041983053 -0.06719995 0.110376 0.0020265528 -0.09516138 0.010021196
0.010461628 0.09926571 -0.032558665 0.06377527 0.017206883 0.07994663 0.005879103 -0.069320016
0.05219918 -0.09762373 -0.0011145084 -0.042333692 -0.010852113 -0.10654111 0.040558457 -0.048244774
0.072619416 0.049528945 0.014826506 -0.10614367 -0.08703165 0.064713314 0.124865904 0.04664968
0.023178339 -0.06714089 -0.026729375 -0.08368923 0.109052405 -0.104546964 0.08988492 -0.023060631
-0.043172073 0.08996039 0.042698383 -0.11494643 -0.064925 -0.059280913 -0.10065536 0.06066992
-0.06087327 -0.071518645 -0.0724757 -0.0908127 0.0067538437 0.09949576 -0.040281564 0.032809436
0.08589227 -0.03518574 -0.061789874 0.02949778 -0.08183282 0.11290925 0.031843416 -0.044014696
0.03659451 0.029191162 -0.08654599 -0.02819969 -0.015683368 0.100580454 -0.0076313913 0.10551715

rnn.weight_hh_l0 f4 [64, 64]
00000000: b4c3 69bd 80a7 e4bd d0f2 8f3c 8238 c43d
00000010: 6e83 f9bd f4d0 953d 8cc6 993d 2879 aa3c
00000020: e076 4c3d e0f4 463c 2055 9ebc 762e c5bd
00000030: b033 60bd 16ed c93d 98a2 db3c f465 423d
00000040: 1637 d8bd 482e ebbd 8cf9 d93d bc1c 193d
00000050: 98a7 e23c 9ce0 abbd d01a 7cbd d69c bcbd
00000060: 3cd9 893d f620 9f3d 4014 90bb 48a3 ad3d
00000070: 341b 04bd c8da 253d f440 863d 3817 bd3d
00000080: 283e e5bc 2267 a4bd 2011 78bc 6013 56bc
00000090: ca6c 8e3d cc71 58bd 5ce5 50bd fc01 973d
000000a0: 7021 6bbc 3064 3e3c d859 e13d 389e d5bc
000000b0: bcca dbbd f80e 913d 3882 c63c 4e27 d1bd
000000c0: 4050 8cbb 40af f43c 70a9 483d 404d ecbb
000000d0: 807c c3ba c068 aa3c 3c09 d8bd d43f ba3d
000000e0: 5a7c 863d 4033 933b d83b 21bd 0224 f93d
000000f0: 8ca3 1abd b090 fb3d 8059 9e3c 307e 5d3d
00000100: e42c f33d d091 0b3c 1085 aabd 8cf0 93bd
00000110: 50b1 79bd 2077 7f3c a8b8 bdbc eead b43d
00000120: 743e c13d 80c7 7cbb 606d c53c 70a0 5fbd
00000130: 8a4d 933d 86eb 92bd c869 7d3d 649d 353d
00000140: 90aa 98bd 904e c7bd 68b6 fe3c 04e8 51bd
00000150: 2c7c 613d d0fc 4ebc 6424 f4bd 8c5b 4d3d
00000160: 804c 943c 98f6 d03c d0f8 8ebc d017 12bc
00000170: 665f c5bd 1418 c43d ac95 013d 9aee c13d
00000180: 6826 17bd 00a2 5dbc 7435 5f3d 00ef f43c
00000190: 9078 4c3d cc76 bbbd 6a30 8c3d 26ec c63d
000001a0: 0c0f 2a3d 98ef 553d 52b5 b3bd d875 5abd
000001b0: d04d bdbd 2822 2c3d e803 923d 444e c1bd
000001c0: 689a d73c 40a0 11bb 6ebe d3bd d6aa de3d
000001d0: a841 c43d 4804 02bd 6ab7 943d 8cc6 a63d
000001e0: febd 9abd 744b 53bd 5e1d 9ebd ac3e 48bd
000001f0: 14b1 7a3d 6809 56bd f088 323d c81a 173d
00000200: c43c 193d 28c9 f5bc 78ad a4bc 941a 423d
00000210: ec00 5e3d fc4e b93d 4c8f 51bd 74b8 d8bd
00000220: 50c7 483d 2015 7bbd 669a f6bd dc26 643d
00000230: 1cc9 3f3d 0c63 a8bd ec80 f5bd 08c9 bebc
00000240: 6685 c93d 1ea9 c63d c8d0 4f3d 60b3 4dbc
00000250: 4c3f 85bd b8b1 f33c d803 29bd e026 513c
00000260: b451 a83d 34e4 74bd 1877 00bd 40b5 ba3c
00000270: 004a d3bb e0f2 723d 26a7 e63d d487 623d
00000280: 80b8 883a 5c2f 533d 00a9 93bd e8e8 d4bc
00000290: 0873 15bd 98ce 0ebd 6898 87bd 0004 4bbc
000002a0: 383d aa3c 20b2 09bc 1804 debd dcac 813d
000002b0: 685b bd3d 5813 e6bc 6410 8dbd 70bf c4bc
000002c0: 382e cabc 40a1 5dbc 0013 f83c 9eb9 873d
000002d0: 3851 7f3d a4b6 053d f410 4e3d 30cc 8ebc
000002e0: 96f2 f3bd eca7 da3d 0c70 4bbd 2a7f de3d
000002f0: a0ab 17bc f0fa 02bd 1841 84bd e097 8e3c
00000300: 1e6e f93d 88d7 50bd 5e20 aebd f450 5d3d
00000310: 1e85 d83d f856 febc 30c1 82bc c4e7 36bd
00000320: 9485 8f3d 707e d43d 70f5 f7bd 6447 ed3d
00000330: 544d 98bd b826 a0bd 56ac 873d a0cd 45bd
00000340: c2cc e53d 44cd 57bd f456 e1bd 223f 843d
00000350: 14d0 29bd 6038 c33c b04e 3dbc 0834 6ebd
00000360: 5cc6 803d 00dd afbb 9c90 50bd 6492 303d
00000370: 1694 cebd 98b7 b93c 6202 823d 90e8 0e3c
00000380: 68d5 52bd 9838 90bc 4a59 c1bd 1674 e7bd
00000390: 801b 7ebc fa63 893d 8679 9cbd 1e62 d43d
000003a0: 545d c7bd 7481 1b3d 580c dcbd 5828 9fbc
000003b0: 6037 7b3c 126b c03d 4863 8c3d f025 803d
000003c0: f467 01bd 3e5e ca3d 5065 d83c c892 77bd
000003d0: 0825 e9bd a0a5 0abd 3025 72bd c2b4 9cbd
000003e0: 6211 ddbd 30ba a03d 6427 b03d 5084 d33d
000003f0: 10c7 653d 20ca 383c ac44 67bd 000c 8bba
-0.057071403 -0.111647606 0.017571837 0.095810905 -0.12183271 0.07315245 0.07508573 0.020809725
0.049918056 0.012143344 -0.0193277 -0.09628002 -0.054736793 0.09859674 0.02681093 0.04746051
-0.10557382 -0.11483437 0.106433004 0.03738092 0.027667806 -0.0839245 -0.061549008 -0.092096016
0.06730887 0.07769959 -0.0043969452 0.08478409 -0.032252505 0.04049185 0.065553576 0.09232944
-0.02798374 -0.080274835 -0.015140802 -0.013066143 0.069543436 -0.0528429 -0.050999984 0.07373425
-0.014351234 0.011620566 0.110034645 -0.026076421 -0.10732028 0.07082933 0.024232015 -0.10212575
-0.0042820275 0.029868722 0.048989713 -0.0072113574 -0.0014914423 0.020801902 -0.10548636 0.090942055
0.06566687 0.0044921935 -0.039363712 0.12165071 -0.037753627 0.12283456 0.019329786 0.05407542
0.118737966 0.008518651 -0.08326161 -0.07223615 -0.060960114 0.015592366 -0.02315934 0.08822237
0.0943574 -0.003857106 0.024100006 -0.054596364 0.07192524 -0.07173829 0.06186846 0.044339553
-0.07454407 -0.097317815 0.031092837 -0.051246658 0.05505006 -0.012633517 -0.119210035 0.050136134
0.018102884 0.02550821 -0.017452627 -0.00891681 -0.096373364 0.09574905 0.03163688 0.09469338
-0.03690186 -0.013527393 0.054494336 0.02989912 0.049919665 -0.09153518 0.06845172 0.097130105
0.041518256 0.052230448 -0.087748185 -0.05333504 -0.09243357 0.04202476 0.07129651 -0.09438756
0.026318744 -0.002222076 -0.10339056 0.10872428 0.095828354 -0.031742364 0.07261546 0.081433386
-0.075557694 -0.05158563 -0.07720445 -0.048887894 0.06120403 -0.052255064 0.043587625 0.036890775
0.037411466 -0.030003145 -0.020102248 0.047388628 0.054200098 0.09048268 -0.05116205 -0.10582057
0.049018204 -0.061299443 -0.12041168 0.05570112 0.046822652 -0.08222017 -0.119874805 -0.023289219
0.09839897 0.09700225 0.05073622 -0.012554973 -0.065062135 0.029747829 -0.04126343 0.012765616
0.08218709 -0.059787944 -0.031363577 0.022791505 -0.0064480305 0.059313655 0.1126235 0.055305317
0.0010430962 0.051558837 -0.072099686 -0.025989965 -0.036486655 -0.034864992 -0.06620866 -0.01239109
0.020781144 -0.008404285 -0.108406246 0.063317984 0.0924595 -0.028085396 -0.06887892 -0.024017066
-0.024680242 -0.0135272145 0.030282497 0.066272005 0.062333316 0.032644883 0.050309137 -0.017431349
-0.11911504 0.1067656 -0.049667403 0.10864098 -0.009257227 -0.031977594 -0.06457728 0.017406404
0.12179206 -0.050986797 -0.08502267 0.05403228 0.10572265 -0.03104733 -0.01596126 -0.044654623
0.070079 0.103756785 -0.1210736 0.11585882 -0.07436624 -0.07819885 0.06624667 -0.048291802
0.11220695 -0.05268599 -0.11002913 0.06457354 -0.041458204 0.023830593 -0.011554405 -0.05815509
0.06287834 -0.0053669214 -0.05091916 0.04310836 -0.10086839 0.022670552 0.06348111 0.008722439
-0.05147305 -0.017605111 -0.09440859 -0.113014385 -0.015509486 0.06708522 -0.07640366 0.10370277
-0.09734598 0.037965253 -0.10744542 -0.019428417 0.015333027 0.09395422 0.06854874 0.06257236
-0.031593278 0.098812565 0.026415497 -0.060442716 -0.11384016 -0.03384936 -0.059117496 -0.07651664
-0.10794331 0.078480124 0.08601263 0.10327971 0.056098044 0.011278659 -0.056461975 -0.0010608435

rnn.bias_ih_l0 f4 [64]
00000000: 05ee 7c3d 1792 e1bd 1298 973d e86e e93d
00000010: a98c a53d 2037 b83b 3414 9abd 2e9b c3bc
00000020: 8017 b4ba c820 6f3d 822c e53d b67a 3c3d
00000030: 8ddf 283d 50d7 483d cee5 373d 7fb8 bebd
00000040: 0a0d ffbd ab8a ebbd f08d fd3c 0999 b43d
00000050: bc75 bfbc cecd 663d 22f5 03be d5f8 03bd
00000060: 4348 cf3d 3d9f 443a 39b6 69bc 4c3f bdbd
00000070: 9c4c 26bd 2fa7 d0bb 84a5 cf3d 64c9 ccbd
00000080: c824 883c ad9b 92bd 5c9c d6bd ccdf 9fbd
00000090: 9481 d43c c508 c2bd 0087 e83a 6a83 75bd
000000a0: 870e a7bd c8fe e9bd 0070 6ebc 38fe dbbb
000000b0: 23d2 533d 25b5 093d c3b1 8d3d 191f e7bc
000000c0: 4036 76bd a298 033e 8791 ad3d a4e5 833d
000000d0: 7e64 e73d 1446 9cbd dc7d d23d f6ca d63c
000000e0: e330 3bbc 4ff1 0c3c 90ae 6ebd c5ef 423d
000000f0: 5509 9abd c5f3 603d f84f f6bc 70ca d3bc
0.06175043 -0.110141926 0.07402052 0.11398107 0.080834694 0.005621806 -0.07523385 -0.023877706
-0.0013739914 0.058380872 0.1119013 0.046015464 0.04122882 0.049033463 0.044896893 -0.093125336
-0.12453659 -0.11501058 0.03095147 0.08818252 -0.02337157 0.056348614 -0.1288648 -0.032219727
0.10121205 0.0007500535 -0.014264637 -0.092405885 -0.040600404 -0.006367586 0.101389915 -0.0999935
0.016619101 -0.07158599 -0.10479042 -0.07806358 0.025940694 -0.09474329 0.0017740428 -0.05993978
-0.08157068 -0.11425549 -0.01455307 -0.006713655 0.051714074 0.03362002 0.06918671 -0.02821307
-0.06011033 0.12851194 0.08475023 0.06440285 0.11298464 -0.07630554 0.10277912 0.026219826
-0.01142523 0.008602454 -0.058271945 0.047591943 -0.07521311 0.054919977 -0.030067429 -0.025853366

rnn.bias_hh_l0 f4 [64]
00000000: 96df 583d 373a 82bd c8bc 6d3d 647a df3d
00000010: f37f 2c3d 20bb 4dbc 06e5 e9bd 7a9d a73c
00000020: e045 483c 8c3b 433d f668 bd3d 1eb4 413d
00000030: d6c1 8dbd 92c2 ff3d 3fa9 b33d 5d56 6a3c
00000040: 0e35 ff3d 2f94 dbbd 5c65 4e3d 150e bd3d
00000050: dcb1 b53c 5493 bfbc 82a2 90bd fdd9 913d
00000060: dba2 c0bd 67a2 febd da5f 80bd 6220 81bd
00000070: 2a72 f1bd 2daf a53c 8c44 e33d 004e a6ba
00000080: bc82 6f3d d28c 433d 5e43 e3bd d80f debd
00000090: bd36 f33d ed4d 23bc 5227 ff3d 862f 433d
000000a0: 6990 843d b486 86bd 9834 11bd 8a9c c83d
000000b0: 1364 a2bd 6af8 fb3d a553 913c 8e8d b53d
000000c0: 5601 e73d 7955 ef3d ce94 b03b c80e cd3c
000000d0: 3e0e d93d 10af cdbd 0e9e 9dbd d343 e7bd
000000e0: 8123 52bd 8985 dfbd e89c 193d 2b58 46bd
000000f0: c129 bfbd 5f85 2bbd d48b 72bd 6086 2e3d
0.052947603 -0.0635876 0.058041364 0.10912016 0.04211421 -0.012556821 -0.11420636 0.020460833
0.012223691 0.04766421 0.09248535 0.047290914 -0.06921737 0.12488283 0.087725155 0.014302817
0.12461291 -0.10721623 0.050389633 0.092312016 0.022179537 -0.023385681 -0.07062246 0.07121656
-0.09406062 -0.124333195 -0.06268282 -0.06305005 -0.11789353 0.020225132 0.11097059 -0.0012688041
0.058474287 0.04774172 -0.11096834 -0.10842866 0.11875675 -0.009967309 0.12458672 0.047652744
0.064728566 -0.06568661 -0.035450548 0.097954825 -0.07929244 0.123032406 0.01774008 0.0886489
0.11279552 0.116862245 0.0053888327 0.025031462 0.105984196 -0.10043156 -0.07696162 -0.11292233
-0.05130339 -0.10914142 0.037503153 -0.048423927 -0.09334136 -0.04187524 -0.05921538 0.04260862

fc.weight f4 [1, 64]
00000000: b988 04be 1730 71bd 1619 7f3d 064b 813c
00000010: 3774 9fbd a253 603c bcc1 433d 6906 b6bc
00000020: 4f5e aabd 37b7 823c cbde 733d 12cc 6a3d
00000030: 613c cbbd edfb 05bd cf40 b2bd 67b1 e23a
00000040: ab3b c5bd 16dd d93d 5bca a5bd bdaf a13d
00000050: 030f c2bd 6e64 47bd e80a 92bc f047 15bd
00000060: e94c 55bd 5764 93bc 9859 9e3d 1f94 993c
00000070: 35cc 303d e192 f3bc bdd1 3d3b 37d6 fd3d
00000080: 590b a3bd bec9 c43d ab0a c53d 3148 dcbd
00000090: 22df 323d d71c 023d b3c8 463d c981 993d
000000a0: 06b4 17bd b680 253d 8254 67bc fe9e a3bd
000000b0: de5a dbbd 1252 863d a42b f4bd 2e2d 0fbc
000000c0: eb0a e2bd 33f3 fa3d 0187 04bd 0824 0ebd
000000d0: 9d5b 7bbd 0fa5 87bc 3333 65bd 1f8f fb3c
000000e0: d0fc 32bd abeb febd 0b12 803d a7cc 983d
000000f0: ec9e ec3b 4beb a23d b2ff c8bd a502 903d
-0.1294278 -0.058883753 0.062279783 0.015782844 -0.07785838 0.013691815 0.04779218 -0.022219853
-0.08318769 0.015956504 0.059538644 0.057323523 -0.09923626 -0.03271096 -0.087037675 0.0017295302
-0.096305214 0.10637872 -0.08095237 0.078948475 -0.094755195 -0.04867976 -0.017827466 -0.036445558
-0.0520753 -0.017992182 0.077319324 0.018747387 0.043163497 -0.029733123 0.0028964125 0.12394374
-0.07961149 0.09608792 0.096211754 -0.10755957 0.043669827 0.031765785 0.048531245 0.07495458
-0.037036918 0.04040595 -0.014119269 -0.0798931 -0.10710691 0.065586224 -0.11922386 -0.008738799
-0.11037239 0.12253418 -0.032355312 -0.03470233 -0.061366666 -0.016558198 -0.05595703 0.030707894
-0.043698132 -0.12447294 0.062534414 0.07460909 0.0072210934 0.07955035 -0.09814395 0.070317544
