models/rnn_weights.pth (torch, 20784 bytes, 5 tensors)

rnn.weight_ih_l0 f4 [64, 4]
0	0xbd1a7ae6	-0.03771486
1	0x3da0b3b0	0.07846773
2	0x3c8c1179	0.017098175
3	0xbdfa349e	-0.12217067
4	0xbd87a611	-0.066234715
5	0xbdaf5d9d	-0.08562777
6	0x3dd9cc7b	0.10634705
7	0xbd1ac15e	-0.037782066
8	0xbdf355fc	-0.118816346
9	0xbc702d2d	-0.014659208
10	0xbdd41ab6	-0.10356657
11	0x3d8a530c	0.06754121
12	0xbd2ba338	-0.041903704
13	0xbcce35b8	-0.0251721
14	0x3ce24c77	0.027624352
15	0x3dcb1ba6	0.09917383
16	0x3c593430	0.013257071
17	0x3dbe97e4	0.093063146
18	0xbd0b3454	-0.03398545
19	0x3dce01e2	0.10058953
20	0xbdd22d52	-0.102625504
21	0x3da7827a	0.08179183
22	0xbdc0ea0e	-0.094196424
23	0xbdfe5b72	-0.124197856
24	0xbd5e8244	-0.05432345
25	0x3d225a34	0.039636806
26	0xbd9b22f4	-0.07575026
27	0x3dc0a9b7	0.094073705
28	0xbdb99271	-0.090611346
29	0xbc4725e4	-0.01215503
30	0x3def7ccd	0.11693726
31	0xbd121d18	-0.035672277
32	0xbda675d4	-0.08127943
33	0xbd46e8a5	-0.04856171
34	0xbca15c91	-0.01969746
35	0x3daa3682	0.08311178
36	0x3c1aa51b	0.009438778
37	0x3da01ac5	0.07817606
38	0xbd62a660	-0.05533445
39	0x3d7112d8	0.05885586
40	0x3da5ad63	0.080897115
41	0xbc095a3d	-0.008383331
42	0xbda021a3	-0.07818916
43	0x3ddb3f08	0.10705382
44	0x3dfe6979	0.12422461
45	0xbd2c3ef1	-0.042052213
46	0x3b5dc2d7	0.0033838057
47	0xbde959e4	-0.113940984
48	0x3d265f90	0.04061848
49	0x3d2e41ee	0.042543344
50	0xbd941a69	-0.072316
51	0xbd6ebc83	-0.058285248
52	0x3d6977d3	0.05699904
53	0xbcdad915	-0.02671484
54	0xbdbc2fd7	-0.09188812
55	0x3ddf2ffa	0.10897823
56	0xbdcfcbef	-0.10146319
57	0xbd8ec247	-0.06970649
58	0xbd02d484	-0.031940952
59	0x3d946f7c	0.072478265
60	0x3d22acd8	0.039715618
61	0x3de82d7c	0.113368005
62	0xbd369dd4	-0.04458411
63	0x3c4d57f0	0.012533173
64	0xbce22b85	-0.027608642
65	0xbd12d20a	-0.03584484
66	0x3cc06c92	0.02348927
67	0xbdde7e89	-0.108639784
68	0x3d8e1cfb	0.06939121
69	0xbdebef29	-0.115202256
70	0xbc9d201c	-0.01918035
71	0xbd477786	-0.04869797
72	0xbdcf98fc	-0.10136601
73	0xbc2efaa0	-0.010679871
74	0xbdd0c45c	-0.101937026
75	0xbd1b759c	-0.037953958
76	0xbcc8cb5f	-0.024511037
77	0x3d879510	0.06620228
78	0xbce84961	-0.028355302
79	0x3d8544b2	0.06507243
80	0xbd3dd7b7	-0.0463483
81	0xbda22622	-0.079174295
82	0xbdbe4692	-0.09290804
83	0x3d89c17e	0.06726359
84	0xbd5feac9	-0.054667268
85	0xbca8c145	-0.02059997
86	0x3bc90d4b	0.006135618
87	0xbc263460	-0.010144323
88	0xbd465f38	-0.04843065
89	0x3c03a830	0.0080357045
90	0xbd8c2e2e	-0.068447456
91	0xbd9893de	-0.074500784
92	0x3dcee493	0.10102191
93	0x3dfa33d6	0.12216918
94	0x3d0358f8	0.03206727
95	0xbdec53b6	-0.11539404
96	0x3dd279da	0.102771476
97	0xbd729d72	-0.059232183
98	0xbd80116a	-0.062533215
99	0xbe00e239	-0.12586297
100	0xbd00902c	-0.031387493
101	0xbd76e45c	-0.060276374
102	0xbdd46f02	-0.103727356
103	0xbdcdf61c	-0.10056707
104	0x3dfad1a4	0.12247017
105	0xbdeedfae	-0.11663757
106	0x3dc690ce	0.09695588
107	0x3af35180	0.0018563718
108	0xbdc6de36	-0.09710352
109	0xbdd8ddb3	-0.10589161
110	0x3d3e5991	0.046472136
111	0x3e04b601	0.12960054
112	0xbd967c26	-0.07347898
113	0xbcf3cccb	-0.029760739
114	0x3ce6a84a	0.028156418
115	0x3d87583c	0.06608626
116	0xbc6f8970	-0.01462017
117	0x3dada026	0.084778115
118	0x3c38b3d0	0.011273339
119	0x3d1ee58c	0.03879313
120	0x3de2c43e	0.110725865
121	0x3dbb584e	0.09147702
122	0x3da024f4	0.07819548
123	0x3b45c700	0.0030178428
124	0xbda76aa8	-0.0817464
125	0x3d06f4d4	0.03294833
126	0xbcdc1800	-0.026866913
127	0xbc41f640	-0.011838496
128	0x3ca7adca	0.020468611
129	0xbda4038f	-0.08008491
130	0xbd1bd76a	-0.03804723
131	0x3d8ba852	0.06819214
132	0xbd92ce23	-0.07168224
133	0xbdefb573	-0.117045306
134	0x3d28b60d	0.041189242
135	0x3db6c907	0.08925062
136	0xbc828d61	-0.015936555
137	0xbd068246	-0.032839082
138	0xbd864ae3	-0.06557252
139	0x3d27c393	0.040958
140	0xbdbd216b	-0.092348896
141	0xbdc773bb	-0.09738871
142	0xbcb80318	-0.022462413
143	0x3db885d1	0.090098985
144	0xbc8d21c5	-0.017228017
145	0x3de4902c	0.11160311
146	0x3c1f0050	0.009704664
147	0xbd6192ac	-0.055071518
148	0xbb9913c0	-0.004671544
149	0xbdba555a	-0.09098311
150	0xbd99fede	-0.07519315
151	0xbd0064c8	-0.031346112
152	0x3db09ba6	0.086234376
153	0x3ba36000	0.0049858093
154	0x3de7de1a	0.113216594
155	0x3cd684f8	0.026186451
156	0x3da3c780	0.07997036
157	0x3d064c5c	0.032787666
158	0xbbe78880	-0.0070658326
159	0x3de93fde	0.11389135
160	0x3dbe603f	0.09295701
161	0x3cf32de7	0.029684974
162	0xbd00a676	-0.03140875
163	0xbdf2d7a0	-0.118575335
164	0x3dff98c4	0.124803096
165	0x3d249258	0.040178627
166	0xbd480cbc	-0.04884027
167	0x3d4056e8	0.04695788
168	0xbd69419c	-0.056947336
169	0x3d7eec90	0.062237322
170	0xbcf38281	-0.029725315
171	0x3ce6fd69	0.028197007
172	0xbe0388c5	-0.12845142
173	0xbd9c877f	-0.07643031
174	0xbd8e0e72	-0.06936349
175	0x3d890b10	0.06691563
176	0xbdbde425	-0.09272031
177	0xbc0eac46	-0.008708065
178	0xbdc553d9	-0.09635133
179	0x3d9b0f40	0.07571268
180	0x3db794b5	0.089639105
181	0xbcd54317	-0.026032967
182	0x3d9ae921	0.07563997
183	0xbded08f2	-0.11573972
184	0x3d8edad8	0.06975335
185	0xba7bc400	-0.00096040964
186	0x3de4a5b4	0.11164418
187	0x3d3c4a84	0.0459695
188	0x3d9cea24	0.07661846
189	0xbc22a599	-0.009927177
190	0x3df79e04	0.12090686
191	0xbd36c4f9	-0.04462144
192	0xbdc45240	-0.095860004
193	0x3ce65148	0.02811493
194	0xbd969404	-0.073524505
195	0xbdf2a2ee	-0.118474826
196	0x3cf4d8d4	0.029888548
197	0xbd019779	-0.031638596
198	0x3d2f9085	0.042862434
199	0x3d8f35c3	0.06992676
200	0xbdc3428e	-0.09534179
201	0x3d513a09	0.051080737
202	0xbd87a138	-0.06622547
203	0x392f4388	0.00016714458
204	0x3dfd022c	0.1235393
205	0x3d438860	0.04773748
206	0xbdbd290c	-0.09236345
207	0x3d699c1c	0.057033643
208	0x3d7329b6	0.05936595
209	0xbdb1fcd7	-0.086908035
210	0xbd103766	-0.035209082
211	0x3d832ed7	0.06405418
212	0x3dc289ac	0.09498915
213	0xbdc3c206	-0.095584914
214	0x3d775474	0.060383275
215	0xbdd73ac5	-0.10509256
216	0x3de7c0a7	0.113160424
217	0xbdce6153	-0.10077157
218	0xbcf62928	-0.030048922
219	0xbdf0a8ec	-0.11750969
220	0x3cb31be8	0.021863893
221	0xbda446d4	-0.08021322
222	0xbd0285cc	-0.03186588
223	0xb918cc18	-0.0001457188
224	0x3b5640d9	0.003269246
225	0x3d37fb98	0.044917673
226	0xbdd55fe9	-0.10418684
227	0xbd61faa6	-0.055170678
228	0x3d7a4586	0.06110146
229	0xbcbe52db	-0.023232868
230	0x3c2d3f67	0.010574198
231	0xbd5be2fc	-0.053683266
232	0xbd6643c4	-0.05621697
233	0xbd4b7374	-0.04967065
234	0xbda83be8	-0.08214551
235	0xbdbb7152	-0.091524735
236	0x3b8ed2f5	0.004358644
237	0x3d35afa6	0.044356965
238	0xba7017b9	-0.00091588084
239	0xbc36b604	-0.011151794
240	0x3d137863	0.03600348
241	0x3dbce273	0.09222879
242	0xbd2c9f4b	-0.0421441
243	0xbde4bbd2	-0.111686364
244	0xbdecf9db	-0.11571094
245	0xbd329831	-0.043602172
246	0xbdb2ea7d	-0.08736131
247	0x3defebcb	0.11714896
248	0xbcce6425	-0.025194237
249	0xbdd2294d	-0.10261784
250	0xbd8b001c	-0.0678713
251	0x3def972a	0.11698754
252	0x3dc95c64	0.09832075
253	0xbda57c0d	-0.080803014
254	0xbd83322b	-0.06406053
255	0x3df37d74	0.11889163

rnn.weight_hh_l0 f4 [64, 64]
0	0xbcc845d8	-0.024447367
1	0xbddd8688	-0.108166754
2	0xbd26baa0	-0.040705323
3	0x3c52a370	0.012856349
4	0x3ddb1944	0.106981784
5	0xbd3a270c	-0.045447394
6	0xbda46262	-0.080265775
7	0xbde5b7c2	-0.1121669
8	0xbca37648	-0.019953862
9	0xbdfec14e	-0.12439214
10	0xbd0e0358	-0.034671158
11	0x3daff15a	0.08590956
12	0x3d03ce3c	0.032179102
13	0xbd838f00	-0.064237595
14	0xbd772734	-0.06034012
15	0xbd61fef8	-0.055174798
16	0x3d19939c	0.037494287
17	0xbb2c9e40	-0.0026339442
18	0x3c82e940	0.015980363
19	0xbd050cd4	-0.032482937
20	0x3d8d38cc	0.06895599
21	0xbdd88d58	-0.10573834
22	0xbd3dd808	-0.0463486
23	0x3d938ecc	0.07204971
24	0xbd00599c	-0.03133546
25	0xbdbc00d2	-0.09179844
26	0x3d1ec3f0	0.03876108
27	0x3d3f05f0	0.04663652
28	0x3c06b200	0.008221149
29	0x3d80b1c8	0.06283909
30	0xbdc4e53c	-0.096140355
31	0x3dcf170c	0.10111818
32	0xbcfa2948	-0.030537263
33	0xbdb6b5c0	-0.08921385
34	0xbdcbc6cc	-0.09950027
35	0xbd5e532c	-0.054278538
36	0x3d152f00	0.036421776
37	0xba005200	-0.00048950315
38	0x3d8a5a8c	0.06755552
39	0x3de27082	0.110566154
40	0xbda998b4	-0.08281079
41	0x3da1af06	0.07894711
42	0xbdef87ee	-0.116958484
43	0x3be9a4e0	0.0071302503
44	0x3d995b94	0.0748817
45	0xbdf98b0e	-0.12184726
46	0x3cccefc0	0.025016665
47	0x3cf7b2f8	0.030236706
48	0xbdc873dc	-0.097877234
49	0x3db6a3be	0.0891795
50	0xbdd82166	-0.10553245
51	0x3c822d20	0.015890658
52	0x3c195850	0.009359434
53	0x3d8c354c	0.06846103
54	0xbdb8a004	-0.090148956
55	0xbc89e2b0	-0.016831726
56	0xbca2b5d8	-0.0198621
57	0xbcc730d0	-0.024315268
58	0x3dc50b10	0.09621251
59	0xbd077c38	-0.03307745
60	0xbd9c4b98	-0.07631606
61	0x3c07f260	0.008297533
62	0xbbd1bb20	-0.006400481
63	0xbc4426b0	-0.011972114
64	0xbdd6d288	-0.104893744
65	0xbc0e8590	-0.008698836
66	0x3de24eac	0.11050162
67	0x3dec9040	0.11550951
68	0xbd6e3d80	-0.05816412
69	0x3dc7d4c8	0.09757382
70	0x3dbff21a	0.09372349
71	0x3d21cb10	0.039500296
72	0xbc033880	-0.008009076
73	0xbd540068	-0.0517582
74	0xbcaeb910	-0.021328479
75	0xbd9a6ec0	-0.07540655
76	0x3dc2a200	0.09503555
77	0x3df5c898	0.12001151
78	0x3da048d0	0.07826388
79	0xbc9a59b0	-0.018841594
80	0xbd84c6a8	-0.06483203
81	0x3db56c38	0.08858532
82	0x3d955fa2	0.07293631
83	0x3debfd1a	0.11522885
84	0xbd8f94b4	-0.07010785
85	0x3d92caf8	0.071676195
86	0xbd6addc4	-0.0573404
87	0xbdcde9c6	-0.10054354
88	0xbda21360	-0.07913852
89	0xbdca30a4	-0.09872559
90	0x3de558f8	0.1119861
91	0x3dbba88a	0.09163006
92	0xbd05bc98	-0.03265056
93	0xbdf2528c	-0.11832151
94	0xb948d800	-0.00019153953
95	0x3b092400	0.0020925999
96	0x3d568264	0.052370444
97	0x3c26b880	0.010175824
98	0xbd421890	-0.047386706
99	0x3d7c7370	0.061633527
100	0xbddbdcce	-0.107354745
101	0x3dafd44c	0.08585414
102	0xbd9467e2	-0.072463766
103	0x3cf87108	0.030327335
104	0x3c744cd0	0.014910892
105	0xbdd0fbc2	-0.10204269
106	0xbd99a7ca	-0.07502706
107	0xbdac094e	-0.08400212
108	0xbce432a8	-0.027856186
109	0xbdaf04d8	-0.08545846
110	0xbb03ec00	-0.002012968
111	0x3d864378	0.065558374
112	0xbc5978c0	-0.013273418
113	0xbde251fa	-0.11050792
114	0xbc181dc0	-0.009284437
115	0xbdfcfe28	-0.12353164
116	0xbcbdcba0	-0.023168385
117	0xbdbc29ce	-0.09187661
118	0xbdf2f98a	-0.11864002
119	0x3daca69e	0.08430217
120	0xbde64b70	-0.11244857
121	0xbdbfc470	-0.09363639
122	0x3cbb4cf8	0.02286385
123	0x3d436350	0.047702134
124	0xbd85f660	-0.06541133
125	0x3d07cb64	0.033152953
126	0xbdcc5a22	-0.09978129
127	0xbdf28436	-0.118416235
128	0xbce854c8	-0.02836074
129	0xbcad0cb0	-0.021124214
130	0x3bbbdea0	0.005733326
131	0x3d4e217c	0.050324902
132	0x3d8afa80	0.0678606
133	0xbd86c272	-0.06580056
134	0xbd3a9898	-0.04555568
135	0x3dacb358	0.084326446
136	0xbcbebde0	-0.023283899
137	0x3cfdd680	0.03098607
138	0x3d841eee	0.06451212
139	0xbb8651c0	-0.004099101
140	0x3dd2d46a	0.10294421
141	0x3c1d5af0	0.009604201
142	0x3d0f3580	0.03496313
143	0xbd0451c8	-0.032304555
144	0xbd229108	-0.039689094
145	0xbddbc562	-0.10731007
146	0xbda533c0	-0.08066511
147	0xbd485d1c	-0.04891692
148	0x3d85c200	0.06531143
149	0xbd9f8234	-0.07788506
150	0xbd5fd5f4	-0.0546474
151	0x3d9a933a	0.075476125
152	0x3da53844	0.080673724
153	0xbc333870	-0.010938749
154	0x3cd7e058	0.026352093
155	0xbd5a17ec	-0.05324547
156	0xbd235818	-0.039878935
157	0xbdb7fecc	-0.089841455
158	0xbdd498d0	-0.10380709
159	0x3b6ffd40	0.0036619455
160	0xbd7b57a8	-0.061362892
161	0xbd57498c	-0.052560374
162	0xbd0b1fc8	-0.033965856
163	0x3d3c2d10	0.045941412
164	0xbcad27d0	-0.021137148
165	0x3db5eb84	0.08882812
166	0x3b416d00	0.0029514432
167	0xbdcd3b00	-0.10021019
168	0x3da0c3ba	0.07849832
169	0xbb765bc0	-0.0037591308
170	0x3dbe637c	0.09296319
171	0x3de09066	0.10965042
172	0xbdee5b5a	-0.11638518
173	0x3bc116e0	0.0058926195
174	0xbda83324	-0.08212879
175	0x3d946670	0.07246101
176	0xbc6adec0	-0.014335334
177	0xbdbeaaee	-0.09309946
178	0xbc9b4040	-0.018951535
179	0x3dc3724c	0.09543285
180	0xbc64afa0	-0.013957888
181	0x3c425040	0.011859953
182	0x3d8fda10	0.07024014
183	0xbd552170	-0.05203384
184	0x3db62d5e	0.08895372
185	0x3ab88480	0.0014077574
186	0xbcd28878	-0.025699839
187	0xbcf7e030	-0.030258268
188	0x3df6cc92	0.120507374
189	0x3ce4dfe0	0.027938783
190	0x3d244050	0.040100396
191	0x3dcb8f06	0.09939389
192	0xbd8659d8	-0.06560105
193	0x3dd9d8c4	0.10637048
194	0x3cea6258	0.028611347
195	0xbc2b0050	-0.010437086
196	0x3dacf3ea	0.084449604
197	0xbc722dd0	-0.01478143
198	0xbccf78d8	-0.025326177
199	0x3bfc6b80	0.0077032447
200	0xbdedf746	-0.11619429
201	0xbce99580	-0.02851367
202	0xbc9009b0	-0.017582744
203	0x3db4a3c8	0.08820301
204	0x3df2153e	0.11820458
205	0xbdeae926	-0.11470251
206	0x3df8c0c6	0.121461436
207	0x3decfe0e	0.115718946
208	0x3dfc7f6a	0.1232899
209	0x3d153944	0.036431566
210	0xbc950e50	-0.018195301
211	0xbc9e0d28	-0.019293383
212	0xbcb95170	-0.02262184
213	0x3d28cf08	0.041213065
214	0x3db76b48	0.08956009
215	0xba3aad00	-0.0007121116
216	0x3d394830	0.04523486
217	0xbdac3c16	-0.08409898
218	0xbcb87ef0	-0.022521466
219	0x3de2cca2	0.11074187
220	0x3d3870a4	0.045029297
221	0xbccd5378	-0.025064215
222	0xbd93eefa	-0.072233155
223	0x3dad2742	0.084547535
224	0x3dd03e20	0.101680994
225	0x3bec7460	0.0072160214
226	0xbdffb81a	-0.124862865
227	0x3d33e6cc	0.043921277
228	0x3aa05f00	0.0012235343
229	0xbd815330	-0.06314695
230	0x3d716320	0.058932424
231	0x3db37958	0.08763379
232	0xbdec85ac	-0.115489334
233	0x3d9f1646	0.0776792
234	0x3dbf1156	0.093294784
235	0x3d7f7df4	0.062375978
236	0xbd424d80	-0.04743719
237	0x3c96e3a0	0.018419087
238	0xbda780ba	-0.081788495
239	0x3d3edd2c	0.046597645
240	0xbd45feb4	-0.048338607
241	0xbc0cc9b0	-0.008593008
242	0xbdc8ad38	-0.09798664
243	0x3d04f1a0	0.032456994
244	0xbcfc8a10	-0.030827552
245	0xbdfacf0a	-0.12246521
246	0xbd311d0c	-0.043240592
247	0x3c68a960	0.014200538
248	0x3df5ce38	0.12002224
249	0xbd02ca8c	-0.031931445
250	0xbd7c5ebc	-0.061613783
251	0xbdd28234	-0.102787405
252	0x3baf1ea0	0.005344227
253	0x3dbb6306	0.091497466
254	0x3c471cf0	0.012152895
255	0xbdc1ba08	-0.09459311

rnn.bias_ih_l0 f4 [64]
0	0x3dc4bf56	0.09606807
1	0x3b492896	0.0030694357
2	0xbd2db2fe	-0.04240703
3	0x3dbf2e85	0.09335045
4	0xbdb32172	-0.087466136
5	0xbd58247c	-0.05276917
6	0xbd0d8422	-0.03454984
7	0xbd1498ca	-0.036278524
8	0xbc367df1	-0.011138425
9	0xbcedfc6d	-0.02905103
10	0xbc63482a	-0.013872186
11	0x3cc4aa15	0.024006883
12	0x3db49932	0.08818282
13	0x3c5ab0c2	0.013347806
14	0x3d830e60	0.06399226
15	0xbd101c2c	-0.035183117
16	0x3dc78a84	0.09743217
17	0x3ba2e672	0.004971319
18	0xbddf1d82	-0.108943
19	0xbbaeb03d	-0.005331068
20	0xbcd31bf5	-0.025770167
21	0x3ccf8045	0.025329718
22	0xbde6cb12	-0.11269201
23	0xbd707ff5	-0.05871578
24	0x3dc1ebad	0.0946878
25	0x3cb7bba8	0.022428349
26	0xbd2c39e0	-0.04204738
27	0x3d53e475	0.051731545
28	0xbcf7dd17	-0.030256791
29	0x3d078b80	0.033092022
30	0x3d8c7912	0.0685903
31	0xbd932c94	-0.07186237
32	0x3d5826e3	0.05277146
33	0x3d506ee3	0.050887
34	0xbdb24d32	-0.0870613
35	0x3dcdc472	0.100472346
36	0x3dd743a4	0.10510948
37	0x3dc73630	0.09727132
38	0x3d689f60	0.056792617
39	0x3de76e42	0.11300327
40	0x3d37491d	0.04474746
41	0x3ba434c0	0.005011171
42	0xbc79f6b7	-0.015256575
43	0x3d0b3e24	0.03399481
44	0x3d9842a6	0.07434587
45	0xbda4cb6a	-0.08046611
46	0xbd8678d4	-0.06566015
47	0xbd59cbc3	-0.053172838
48	0xbd8e3c12	-0.06945051
49	0x3ddfaf6f	0.10922133
50	0xbb672ffc	-0.0035276404
51	0xbd882938	-0.06648487
52	0x3d861c9e	0.06548427
53	0xbda1e29f	-0.07904553
54	0xbd696417	-0.05698022
55	0x3d3b59f4	0.045740083
56	0x3dacb52f	0.084329955
57	0xbd7ea066	-0.062164687
58	0xbd7b938c	-0.06142001
59	0x3dd47d0c	0.10375413
60	0x3d392caf	0.04520863
61	0xbde8afd4	-0.113616616
62	0x3d6a5222	0.057207234
63	0xbd0b72be	-0.034044974

rnn.bias_hh_l0 f4 [64]
0	0xbdacbec2	-0.08434822
1	0xbd6e8d3e	-0.058240168
2	0x3ddcfb14	0.10790077
3	0x3c4eb5ca	0.012616584
4	0x3ddce028	0.10784942
5	0xbd9ec4f0	-0.077524066
6	0x3d3eed26	0.04661288
7	0x3ddbb952	0.107287064
8	0x3d3e13c8	0.046405584
9	0x3d99595a	0.074877456
10	0xbda5b843	-0.08091786
11	0xbd912d66	-0.07088737
12	0xbdde9dc0	-0.10869932
13	0x3cbed2d0	0.023293883
14	0xbded766c	-0.11594853
15	0x3dfbedc0	0.123012066
16	0x3ddffd94	0.10937038
17	0x3d21e302	0.039523132
18	0x3d8058c4	0.06266931
19	0xbd43e2f9	-0.04782388
20	0x3dd7c074	0.105347544
21	0x3dcf9ba2	0.101371065
22	0x3d5f89f0	0.054574907
23	0x3da44e50	0.080227494
24	0xbd81aa93	-0.063313626
25	0xbd930568	-0.071787655
26	0xbd5e56c4	-0.054281965
27	0xbc3c9d36	-0.011512091
28	0x3d7b8925	0.061410088
29	0x3debd1a0	0.11514592
30	0xbde274b4	-0.110574156
31	0xbccef3f0	-0.025262803
32	0xbd9f0eb8	-0.07766479
33	0x3dcbd1f9	0.099521585
34	0xbd7867dc	-0.060645923
35	0x3d883478	0.066506326
36	0x3c13747a	0.008999938
37	0x3c130a30	0.008974597
38	0xbd30ff9c	-0.043212518
39	0x3d4dd178	0.050248593
40	0x3d40f9e1	0.047113303
41	0xbcf4b248	-0.029870167
42	0x3dee58d5	0.11638037
43	0xbdba4d46	-0.0909677
44	0xbdc6f7aa	-0.09715207
45	0xbe040e48	-0.12896073
46	0x3dd7c19c	0.10534975
47	0xbcc623c5	-0.024186978
48	0xbdc22b6a	-0.09480937
49	0x3d9d95c7	0.076945834
50	0x3d7ba0b6	0.061432563
51	0xbdbf1e92	-0.09332003
52	0xbc62e9f8	-0.013849728
53	0x3d9c0131	0.07617415
54	0xbd216683	-0.039404403
55	0xbdc5ea81	-0.09663869
56	0xbd8009a3	-0.06251838
57	0x3de3ff59	0.11132688
58	0x3d018e8c	0.031630084
59	0x3c563c4a	0.0130758975
60	0xbcac93f9	-0.021066653
61	0x3d6fc534	0.058537677
62	0x3b13de14	0.0022562789
63	0xbde5ade3	-0.11214807

fc.weight f4 [1, 64]
0	0xbd066a14	-0.032816008
1	0x3db1e105	0.08685497
2	0xbcb0a99c	-0.021565251
3	0x3d46eccd	0.048565675
4	0xbbfa38bc	-0.007636158
5	0x3be2569c	0.0069072973
6	0x3dbb3ae2	0.091420904
7	0xbd4423b6	-0.04788562
8	0x3d842e85	0.064541854
9	0x3de3ee41	0.11129428
10	0x3c8d623d	0.017258758
11	0x3d75e079	0.060028527
12	0x3dc297ff	0.09501647
13	0xbc821663	-0.015879815
14	0xbdfc69a2	-0.12324835
15	0x3df20eb1	0.118192084
16	0xbd3aee0f	-0.045637187
17	0xbd77005b	-0.060303073
18	0xbde330fb	-0.11093327
19	0x3d17d90b	0.037072223
20	0x3aa8fa8b	0.001289205
21	0xbc937f09	-0.018004911
22	0x3d7320b0	0.059357345
23	0x3de6fa6e	0.112782344
24	0xbdba549c	-0.09098169
25	0xbc897771	-0.016780587
26	0xbd84f843	-0.06492665
27	0x3d718b54	0.058970764
28	0xbb61d271	-0.0034457708
29	0x3dee06bd	0.11622379
30	0xbde9559d	-0.113932826
31	0xbdfd9761	-0.12382389
32	0x3d3ae4e6	0.04562845
33	0xbd5247d7	-0.051338043
34	0xbd225e87	-0.03964093
35	0xbe004b3b	-0.12528698
36	0x3d32883e	0.043586962
37	0x3d8509ad	0.06495986
38	0x3d7dff7b	0.062011223
39	0x3d34c3d7	0.04413208
40	0x3d365cd1	0.04452211
41	0xbdcf76cb	-0.1013008
42	0xbdf784e1	-0.120858915
43	0xbd89f482	-0.06736089
44	0xbd6df825	-0.058097977
45	0xbd8c3a6e	-0.06847082
46	0x3daf69d9	0.08565111
47	0x3d8554bb	0.06510302
48	0x3daea0e1	0.08526779
49	0xbd19b04d	-0.03752165
50	0xbd4a3ab8	-0.049372405
51	0x3d909155	0.0705897
52	0xbd854aba	-0.065083936
53	0xbcc706c9	-0.024295228
54	0xbd96dd30	-0.07366407
55	0xbdf5f9d0	-0.120105386
56	0xbd221153	-0.039567303
57	0xbd25276e	-0.040320806
58	0x3d02be85	0.031919975
59	0x3daeb138	0.085298955
60	0x3d176127	0.036957886
61	0xbd1ed704	-0.038779274
62	0xbcce5c37	-0.025190456
63	0x3dcf78b5	0.10130445
