models/rnn_weights_buy.pth (torch, 21080 bytes, 5 tensors)

rnn.weight_ih_l0 f4 [64, 5]
-0.022868484 0.09744285 -0.088676155 0.10516971 0.1191801 -0.064193636 -0.09366642 0.038746126
0.024259705 0.11169358 0.07872158 -0.033804983 0.07002509 0.08271429 0.09805809 0.054074533
-0.005565635 0.031306114 -0.07484378 -0.050931256 -0.10306237 0.032961983 0.028020928 0.07902383
-0.024934985 -0.055735223 -0.06383499 0.098405406 -0.09596677 0.0733128 -0.07019764 0.058195077
0.066909164 -0.11396948 0.021260243 -0.05875596 0.030121738 -0.00747558 0.058111276 -0.014493153
0.10347611 -0.11226602 0.022086784 0.059536144 0.017380118 -0.00028863573 -0.084170446 -0.01921932
0.09189227 0.056527343 -0.059552807 0.085144855 0.054503847 0.111959174 -0.008326944 0.09835691
0.08059382 0.11525744 0.05935522 -0.0992971 -0.016840309 0.03326188 -0.07314864 -0.055214748
-0.051389083 -0.03873508 0.05922988 0.03261908 -0.09255356 -0.09929045 0.06390065 0.014777094
-0.11223371 -0.09200984 -0.024365112 0.056526154 0.02750662 0.09154208 0.0058636814 0.07470189
0.09459928 0.09695992 0.08342378 0.101340845 -0.11308491 -0.013239729 -0.07618702 0.010943814
-0.045250643 0.08800686 0.0552211 -0.07098779 0.10364368 0.05017177 -0.118693694 -0.051756367
0.0029672533 -0.10493627 -0.03138335 -0.02988626 -0.11254229 -0.0750896 -0.0035073685 0.044947438
0.119876996 -0.04557789 0.018968485 0.11582429 -0.08717968 0.040700063 -0.091481745 -0.1201184
0.07244524 -0.029281203 0.04842094 0.104754195 -0.044591427 -0.10523592 -0.057312734 0.0713786
-0.07131714 0.024031654 0.05397813 0.08904749 0.03082177 0.040769935 0.08409113 0.07746248
0.08776134 0.0024579167 -0.031027652 -0.03791322 0.08178303 -0.0497991 0.01150213 -0.006620124
0.12361735 -0.0232483 0.081984326 0.06036736 -0.12330783 -0.061446548 0.0869778 0.044548605
-0.09742554 -0.1124703 -0.0631362 -0.055370033 -0.0869133 0.10960196 0.070824586 0.11688624
0.012012999 -0.08995138 -0.1085788 0.08336606 -0.01655765 -0.08315857 -0.04022095 0.033218715
0.107430786 -0.11978434 -0.03290862 0.03898551 -0.015510729 0.11272842 -0.05613362 0.05230602
-0.118153475 -0.04964802 -0.046179883 -0.03580479 0.09363432 -0.017629903 -0.11269137 -0.022170976
0.10699573 0.0906751 0.072117925 0.11575313 -0.055464968 0.07186314 0.10458577 -0.06634682
0.0834448 -0.040341116 0.10149717 0.11924206 0.057787582 -0.08215727 -0.072070375 0.064540096
0.027350334 0.02589732 -0.020960646 0.08913076 -0.112690866 -0.04058458 -0.051532373 0.009174237
0.00810885 0.010461124 -0.01640246 -0.11894574 0.0955274 0.10536757 -0.106433846 -0.040371306
-0.025003357 0.081467375 -0.089117646 0.084235415 0.02417095 0.12235056 0.07253355 -0.04920563
-0.045771345 -0.06383088 0.019584924 -0.0058454275 0.010601992 0.08590712 -0.10873847 0.07216
-0.11097002 0.04272828 0.06735804 -0.10009459 0.07540288 -0.027043784 -0.026629344 -0.11160533
-0.06418191 0.076687664 -0.075752705 -0.081585035 0.10902226 0.104323044 0.09490601 -0.013751118
0.11069704 -0.019072745 -0.018416546 -0.0137271155 0.04395088 -0.124152586 -0.011479482 -0.07450837
-0.07330987 -0.018619835 -0.0728186 -0.05569902 0.053126276 -0.01794135 0.029696064 0.0658319
00000000: b056 bbbc 1e90 c73d d89b b5bd 3863 d73d
00000010: b214 f43d f477 83bd 2ed4 bfbd 42b4 1e3d
00000020: 4abc c63c 9bbf e43d c838 a13d 1877 0abd
00000030: 5069 8f3d 1c66 a93d aed2 c83d 427d 5d3d
00000040: ee5f b6bb d73a 003d b247 99bd 4b9d 50bd
00000050: 5d12 d3bd 2503 073d 258c e53c 3fd7 a13d
00000060: 7444 ccbc 9e4a 64bd ebbb 82bd c688 c93d
00000070: 3a8a c4bd 0525 963d c8c3 8fbd f65d 6e3d
00000080: ac07 893d d568 e9bd f629 ae3c 17aa 70bd
00000090: ddc1 f63c b6f5 f4bb 1706 6e3d b174 6dbc
000000a0: 48eb d33d baeb e5bd 58ef b43c 2cdc 733d
000000b0: c060 8e3c 0854 97b9 8e61 acbd d671 9dbc
000000c0: 0432 bc3d 3789 673d a5ed 73bd 6d60 ae3d
000000d0: 6d3f 5f3d da4a e53d bc6d 08bc 596f c93d
000000e0: 5f0e a53d 180c ec3d 761e 733d 475c cbbd
000000f0: b0f4 89bc 9c3d 083d f4ce 95bd dc28 62bd
00000100: 5c7d 52bd ada8 1ebd 089b 723d 969b 053d
00000110: b98c bdbd cb58 cbbd 58de 823d a01b 723c
00000120: cada e5bd a86f bcbd 5899 c7bc f887 673d
00000130: 9055 e13c 6a7a bb3d 2024 c03b 4efd 983d
00000140: 44bd c13d ec92 c63d 16da aa3d ca8b cf3d
00000150: 1099 e7bd 73eb 58bc f107 9cbd af4d 333c
00000160: bd58 39bd f13c b43d 852f 623d 0c62 91bd
00000170: 2343 d43d ea80 4d3d ae15 f3bd 7cfe 53bd
00000180: 4076 423b d4e8 d6bd d48b 00bd 08d4 f4bc
00000190: 927c e6bd 94c8 99bd e1db 65bb ce1a 383d
000001a0: 1282 f53d e2af 3abd cc63 9b3c 4935 ed3d
000001b0: 438b b2bd 1cb5 263d c85a bbbd a300 f6bd
000001c0: 2c5e 943d 22df efbc 0955 463d 5e89 d63d
000001d0: 80a5 36bd ee85 d7bd c2c0 6abd f22e 923d
000001e0: b80e 92bd 08de c43c 2c18 5d3d 885e b63d
000001f0: f07d fc3c 60fe 263d f837 ac3d a6a4 9e3d
00000200: 38bc b33d 0015 213b b42d febc e44a 1bbd
00000210: dc7d a73d 24fa 4bbd 6e73 3c3c a0ed d8bb
00000220: 182b fd3d 3873 bebc 66e7 a73d c443 773d
00000230: d188 fcbd 60af 7bbd 6b21 b23d 9978 363d
00000240: 0b87 c7bd d456 e6bd 8d4d 81bd b0cb 62bd
00000250: 9aff b1bd fe76 e03d 7b0c 913d 0e62 ef3d
00000260: 2bd2 443c 6e38 b8bd 905e debd d3bb aa3d
00000270: e9a3 87bc 0a4f aabd b9be 24bd 5910 083d
00000280: ac04 dc3d 7e51 f5bd 30cb 06bd 45af 1f3d
00000290: b620 7ebc 28de e63d 5eec 65bd d63e 563d
000002a0: 73fa f1bd b95b 4bbd 1e27 3dbd 0ba8 12bd
000002b0: 5ac3 bf3d 966c 90bc bcca e6bd e89f b5bc
000002c0: 9420 db3d deb3 b93d 90b2 933d fa0f ed3d
000002d0: 3c2f 63bd fb2c 933d 1031 d63d d7e0 87bd
000002e0: 1be5 aa3d ba3c 25bd c0dd cf3d 2e35 f43d
000002f0: acb2 6c3d 1242 a8bd a299 93bd 992d 843d
00000300: cf0d e03c 9e26 d43c a9b5 abbc 308a b63d
00000310: 78ca e6bd 043c 26bd 9c13 53bd 8a4f 163c
00000320: fbda 043c 2265 2b3c 745e 86bc d399 f3bd
00000330: dfa3 c33d f4ca d73d fdf9 d9bd 625c 25bd
00000340: d7d3 ccbc 5ed8 a63d 5083 b6bd 9e83 ac3d
00000350: 2802 c63c ee92 fa3d 788c 943d d88b 49bd
00000360: bc7a 3bbd c4b9 82bd 9070 a03c 008b bfbb
00000370: fab3 2d3c 12f0 af3d 46b2 debd 9fc8 933d
00000380: 4044 e3bd d903 2f3d 03f3 893d 64fe ccbd
00000390: d36c 9a3d ed8a ddbc c825 dabc 5691 e4bd
000003a0: ce71 83bd 6c0e 9d3d 3c24 9bbd 0e16 a7bd
000003b0: 1047 df3d 52a7 d53d 155e c23d 5f4c 61bc
000003c0: 21b5 e23d 723e 9cbc 4cde 96bc b2e7 60bc
000003d0: d705 343d b643 febd 7014 3cbc d897 98bd
000003e0: 7c23 96bd a088 98bc eb21 95bd a824 64bd
000003f0: f09a 593d bdf9 92bc 2945 f33c e0d2 863d

rnn.weight_hh_l0 f4 [64, 64]
0.11283617 -0.08670536 -0.10381304 0.052179784 -0.11778164 0.04528606 -0.04768075 0.03525105
0.065036595 -0.0050961375 0.09020276 -0.0032250583 -0.11465888 0.049505383 0.052037522 -0.10184671
-0.038396075 -0.08739723 0.050707653 -0.09221743 0.107908085 0.0066017956 0.05765666 -0.028128609
-0.0139927715 -0.03738177 -0.03322336 0.030992031 -0.0197123 0.07944748 0.057449818 0.063455075
-0.019055322 0.05792086 -0.015558049 -0.01595889 -0.101991326 -0.0018619895 -0.0645296 -0.06069486
0.1225985 0.08635329 0.10068177 0.071092665 -0.034494013 0.09467311 -0.11091621 0.09290548
-0.08395849 0.08027145 -0.0983322 0.047485232 0.08843538 -0.057675064 0.093526915 0.07602595
0.009812042 0.09891735 0.11983666 -0.02616623 -0.10498716 0.118829966 -0.058749348 0.063613206
-0.08438137 -0.116715685 -0.09535663 -0.10256377 0.02156347 0.0595475 -0.08799577 -0.047278672
-0.063314006 -0.11709717 0.0396643 -0.031127587 -0.025582463 0.014886245 -0.08083676 0.06143132
-0.00680995 0.059336826 0.07550949 0.10941227 0.059927717 -0.036178038 -0.101352796 -0.09399645
0.022775188 -0.030322671 -0.026031107 -0.017845795 0.07135062 0.110261306 0.11238523 0.00055880845
0.06922573 0.047419086 -0.0808264 -0.017357484 -0.114569634 -0.015726417 -0.02049315 -0.041842595
0.11039284 0.0860028 0.107191235 0.105895355 -0.050511315 0.078186646 0.10502513 -0.0047799796
0.12271248 0.021494642 0.039907977 -0.08211045 0.08664745 0.062229812 0.1005816 0.11840904
-0.10877727 0.052965924 -0.07234003 -0.110744596 0.06305045 -0.094680324 0.057244867 0.05270362
-0.041209415 -0.092751786 0.08577086 0.114811316 0.09547171 0.07913944 -0.047796577 0.01793237
-0.08975753 0.10105117 0.0648997 -0.009649783 0.03827676 -0.10058756 0.014715433 -0.0757377
-0.015522897 0.018959284 0.122695565 0.05389461 -0.0832338 0.040222093 -0.072551385 -0.09398088
0.050035685 -0.09055406 -0.033213124 0.07872918 -0.0650121 -0.02515465 0.06260693 -0.0906373
-0.07025829 -0.0115492195 0.02158697 -0.10269028 -0.08927281 -0.054470316 -0.027295336 -0.07570794
-0.0072502494 -5.7816505e-05 0.013958201 0.059943423 0.048684493 0.037482634 -0.039784864 0.02699095
0.008972257 -0.07943186 0.12285149 0.017934188 -0.0983956 -0.014617339 0.04071732 0.038033023
0.089275286 0.1108153 0.092974186 -0.06290443 0.10254808 0.034368053 -0.043482214 -0.04350418
0.006844759 0.094559595 0.036157012 0.062205225 -0.09234962 0.010623619 -0.007717833 -0.015433803
0.0040711164 0.11842908 -0.099682555 -0.07821664 -0.08272274 -0.123686016 0.0015776157 0.12013291
-0.00073090196 -0.10273488 -0.066406354 -0.10776614 -0.105860665 -0.004688993 -0.112593696 -0.02083397
-0.07499166 0.11192989 -0.02118121 0.06335153 0.05631447 0.04763487 0.07117902 -0.04308103
-0.04471387 0.037830457 -0.0040309727 0.029230043 -0.013037458 0.0039598495 -0.098410904 0.10437457
-0.025061056 -0.071018025 0.07543962 0.109457135 -0.0013416708 0.003315121 -0.024905577 -0.050390944
-0.0043866932 0.058962643 -0.1166023 -0.06453179 -0.008649349 -0.050034508 -0.055225655 -0.0076694936
0.05814977 -0.017955542 0.11557831 -0.035518765 0.11662537 0.102431744 -0.029782861 -0.039637983
00000000: a616 e73d 9492 b1bd ee9b d4bd 78ba 553d
00000010: 8037 f1bd e07d 393d e44c 43bd 6863 103d
00000020: e831 853d 80fd a6bb 3abc b83d 805b 53bb
00000030: 46d2 eabd 28c6 4a3d 4c25 553d 0295 d0bd
00000040: 3445 1dbd 52fd b2bd d4b2 4f3d 7edc bcbd
00000050: eafe dc3d e053 d83b 6429 6c3d f86d e6bc
00000060: f041 65bc a01d 19bd 3815 08bd 00e3 fd3c
00000070: b07b a1bc 5cb5 a23d 8050 6b3d bcf4 813d
00000080: e819 9cbc 6c3e 6d3d 30e7 7ebc 38bc 82bc
00000090: d4e0 d0bd 000e f4ba 1828 84bd 2c9b 78bd
000000a0: ec14 fb3d fed9 b03d 3e32 ce3d 0899 913d
000000b0: 9849 0dbd fae3 c13d 0a28 e3bd 3a45 be3d
000000c0: 6ef2 abbd 5c65 a43d 6462 c9bd e07f 423d
000000d0: 9c1d b53d b03c 6cbd 0a8b bf3d 7eb3 9b3d
000000e0: b0c2 203c 2e95 ca3d ec6c f53d 905a d6bc
000000f0: 8203 d7bd 205d f33d 28a3 70bd a447 823d
00000100: 24d0 acbd a208 efbd 564a c3bd f40c d2bd
00000110: e0a5 b03c 14e8 733d 2037 b4bd 48a7 41bd
00000120: c6aa 81bd a4d0 efbd 0877 223d 48ff febc
00000130: 5092 d1bc 70e5 733c be8d a5bd 689f 7b3d
00000140: 0026 dfbb 2c0b 733d b8a4 9a3d 8a13 e03d
00000150: c476 753d 6c2f 14bd 0e92 cfbd 3681 c0bd
00000160: 0893 ba3c 4067 f8bc 303f d5bc 5831 92bc
00000170: 4620 923d aed0 e13d 3a2a e63d 007d 123a
00000180: 38c6 8d3d 843a 423d 5088 a5bd 4831 8ebc
00000190: 7ca3 eabd b0d4 80bc 40e1 a7bc 2463 2bbd
000001a0: a415 e23d 3c22 b03d 1487 db3d aadf d83d
000001b0: f4e4 4ebd 5220 a03d 6a17 d73d 60a1 9cbb
000001c0: ae50 fb3d 8815 b03c 8c76 233d 8629 a8bd
000001d0: 3874 b13d b0e4 7e3d bafd cd3d 7080 f23d
000001e0: 9ec6 debd ccf2 583d 0227 94bd 10ce e2bd
000001f0: 9820 813d c2e7 c1bd 9879 6a3d c0df 573d
00000200: 34cb 28bd a6f4 bdbd a2a8 af3d 3222 eb3d
00000210: ac86 c33d dc13 a23d 58c6 43bd e8e6 923c
00000220: ccd2 b7bd eaf3 ce3d 22ea 843d 201a 1ebc
00000230: 18c8 1c3d da00 cebd 0019 713c 5e1c 9bbd
00000240: c053 7ebc 8050 9b3c d047 fb3d 98c0 5c3d
00000250: 7c76 aabd ecbf 243d d295 94bd 0c79 c0bd
00000260: 38f2 4c3d 6874 b9bd 7c0a 08bd c43c a13d
00000270: 1025 85bd 2011 cebc 1038 803d 0ca0 b9bd
00000280: 94e3 8fbd f038 3dbc 28d7 b03c 484f d2bd
00000290: aad4 b6bd 441c 5fbd 789a dfbc c40c 9bbd
000002a0: 8093 edbb 0080 72b8 f0b0 643c 3c87 753d
000002b0: 6469 473d 6487 193d 74f5 22bd 201c dd3c
000002c0: 6000 133c 2cad a2bd 9099 fb3d b8ea 923c
000002d0: a283 c9bd 907d 6fbc 34c7 263d 84c8 1b3d
000002e0: f6d5 b63d 22f3 e23d 4069 be3d 0ad4 80bd
000002f0: ba04 d23d 84c5 0c3d 681a 32bd 7031 32bd
00000300: 004a e03b 76a8 c13d 6019 143d e8ca 7e3d
00000310: cc21 bdbd b00e 2e3c e0e5 fcbb 10de 7cbc
00000320: 0067 853b f28a f23d 5e26 ccbd 0c30 a0bd
00000330: 8a6a a9bd 184f fdbd 00c8 ce3a 3e08 f63d
00000340: 009a 3fba aa66 d2bd 0e00 88bd 7eb4 dcbd
00000350: 7acd d8bd 20a6 99bb 8697 e6bd 00ac aabc
00000360: 3a95 99bd 803b e53d 3884 adbc 72be 813d
00000370: 00aa 663d c81c 433d 4ec6 913d bc75 30bd
00000380: e425 37bd 1cf4 1a3d 4016 84bb d873 ef3c
00000390: 109b 55bc a0c1 813b a88b c9bd 56c2 d53d
000003a0: d84c cdbc e671 91bd 1680 9a3d 102b e03d
000003b0: 00db afba 8042 593b c806 ccbc bc66 4ebd
000003c0: 40be 8fbb d082 713d 30cd eebd 3e29 84bd
000003d0: 00b6 0dbc fcf0 4cbd 4c34 62bd 6050 fbbb
000003e0: 742e 6e3d 8017 93bc 52b4 ec3d 207c 11bd
000003f0: 48d9 ee3d bcc7 d13d 30fb f3bc 705b 22bd

rnn.bias_ih_l0 f4 [64]
-0.02010502 -0.015192998 -0.012561873 0.045903713 0.10336127 -0.11421 0.08305622 0.029497536
0.024811372 -0.06955382 0.035506573 -0.05810949 -0.01588057 -0.05480935 0.11153796 0.05963637
-0.11500826 0.019563543 -0.035863917 0.021640852 0.110830314 -0.014235186 0.08463213 -0.029172927
-0.09022567 0.06591578 -0.096967325 -0.045449793 0.07001011 0.06888872 -0.12407376 -0.0070190355
0.010549213 0.06680294 0.071454585 0.05938497 0.09411443 -0.013493309 -0.075908266 0.014177065
0.06487754 -0.04991532 -0.074823156 0.0014441013 -0.12392398 -0.07982348 -0.08892615 0.102423646
-0.11990057 -0.014266387 -0.040938374 -0.08322562 -0.116092674 -0.11365644 0.008688993 -0.012582678
-0.04445122 -0.029177679 0.037325278 0.030151868 -0.090065286 -0.028719544 -0.09321096 -0.03775245
00000000: 48b3 a4bc 0dec 78bc 50d0 4dbc 8805 3c3d
00000010: 13af d33d efe6 e9bd 6119 aa3d d1a4 f13c
00000020: 3841 cb3c 3c72 8ebd 576f 113d 3704 6ebd
00000030: f817 82bc c57f 60bd 046e e43d 4445 743d
00000040: 7389 ebbd b943 a03c 0be6 12bd 2848 b13c
00000050: 01fb e23d b33a 69bc 9c53 ad3d 10fc eebc
00000060: 3cc8 b8bd dafe 863d ce96 c6bd 9029 3abd
00000070: 7661 8f3d 8715 8d3d 621a febd f0ff e5bb
00000080: 9bd6 2c3c fbcf 883d c856 923d a83d 733d
00000090: 11bf c03d 0a13 5dbc cb75 9bbd ec46 683c
000000a0: 84de 843d 0274 4cbd e23c 99bd 0048 bd3a
000000b0: dbcb fdbd 7e7a a3bd ea1e b6bd 7dc3 d13d
000000c0: 6e8e f5bd 90bd 69bc ffae 27bd 3272 aabd
000000d0: ffc1 edbd b5c4 e8bd 475c 0e3c 9427 4ebc
000000e0: 7c12 36bd 0706 efbc 64e2 183d 0d01 f73c
000000f0: 2674 b8bd 4045 ebbc 63e5 bebd 50a2 1abd

rnn.bias_hh_l0 f4 [64]
-0.05996771 -0.09781856 0.085188925 -0.046614975 -0.1250211 0.024152905 0.0813754 0.096892565
0.01663813 0.046145428 0.03209149 -0.12775235 0.056060642 -0.007522677 0.05871822 -0.08103813
0.086402275 0.022690477 -0.064603835 -0.047589228 -0.04103047 -0.09659423 0.064910725 -0.08943543
0.056364104 -0.0576635 -0.07272689 -0.024333164 0.036272146 0.09431318 0.1069285 -0.01894339
0.09097186 -0.07129163 -0.092326075 -0.036070347 0.05512399 0.026829455 0.019331908 -0.053463254
0.0027863681 0.066612974 0.068320796 0.09594187 -0.060822375 -0.11275776 0.08340581 0.060508084
-0.06382862 -0.11080554 -0.04759207 0.12023157 0.12581632 -0.06720308 0.07110514 0.10022835
-0.06299357 -0.08307052 0.012094824 -0.098367825 0.0024410812 0.07246767 0.034994118 -0.10370219
00000000: b4a0 75bd 1955 c8bd 8877 ae3d 58ef 3ebd
00000010: 8805 00be 50dc c53c 25a8 a63d 9c6f c63d
00000020: b04c 883c fd02 3d3d 5e72 033d 83d1 02be
00000030: d89f 653d ca80 f6bb 8482 703d 52f7 a5bd
00000040: adf3 b03d 61e1 b93c 044f 84bd ecec 42bd
00000050: 910f 28bd 32d3 c5bd eaef 843d ec29 b7bd
00000060: 0cde 663d 9030 6cbd d6f1 94bd 5856 c7bc
00000070: 1a92 143d 4527 c13d 54fd da3d 2b2f 9bbc
00000080: 744f ba3d 5901 92bd 7415 bdbd 80be 13bd
00000090: b1c9 613d 72c9 db3c f35d 9e3c 49fc 5abd
000000a0: 809b 363b 626c 883d c6eb 8b3d 2c7d c43d
000000b0: e220 79bd 8aed e6bd aad0 aa3d 53d7 773d
000000c0: 94b8 82bd 04ee e2bd e7ef 42bd f83b f63d
000000d0: fed5 003e c5a1 89bd 929f 913d 8544 cd3d
000000e0: c602 81bd e020 aabd 5e29 463c 1275 c9bd
000000f0: 8cfa 1f3b ee69 943d fe55 0f3d d061 d4bd

fc.weight f4 [1, 64]
-0.06229716 -0.05882597 -0.12111812 0.059836537 0.046215232 -0.010731291 0.05782446 0.12061597
-0.009782873 -0.074545994 -0.07203829 0.118869536 -0.032649536 0.024287574 -0.032936875 0.08406942
0.12506886 0.09552141 -0.070489444 0.029223181 -0.016355755 0.07134726 0.06862035 -0.018537624
-0.05180199 0.0061470345 0.007265732 0.0708204 -0.0065778717 0.09688671 0.015202427 -0.045202564
0.07584848 0.05728307 -0.116090305 0.10501803 0.1096885 -0.11748756 -0.06399301 -0.101846136
0.06957474 0.058551334 0.09224283 0.03175076 0.11862059 -0.036454782 -0.009309746 -0.087817244
0.025900073 -0.11086462 -0.08813184 -0.08790632 0.042302344 -0.107065335 0.11799601 -0.004783875
0.072526865 -0.009235583 0.11877631 0.049662467 0.11558385 0.08911944 -0.117579766 0.025105573
00000000: 4f2b 7fbd 80f3 70bd c70c f8bd 2817 753d
00000010: 2f4c 3d3d 4cd2 2fbc 57d9 6c3d 8105 f73d
00000020: 5848 20bc 92ab 98bd d088 93bd df71 f33d
00000030: 85bb 05bd bcf6 c63c d1e8 06bd 972c ac3d
00000040: 0d12 003e bba0 c33d c55c 90bd 7465 ef3c
00000050: 81fc 85bc 831e 923d d388 8c3d 37dc 97bc
00000060: 532e 54bd 106d c93b 6115 ee3b 490a 913d
00000070: 308b d7bb 8a6c c63d 9a13 793c 5326 39bd
00000080: 7356 9b3d a7a1 6a3d c1c0 edbd b113 d73d
00000090: 5da4 e03d 519d f0bd c40e 83bd b594 d0bd
000000a0: 347d 8e3d 86d3 6f3d cfe9 bc3d 160d 023d
000000b0: 5aef f23d 9c51 15bd e887 18bc 87d9 b3bd
000000c0: 642c d43c fd0c e3bd 777e b4bd 3b08 b4bd
000000d0: 3945 2d3d 1245 dbbd e4a7 f13d 0dc2 9cbb
000000e0: f788 943d d850 17bc fe40 f33d df6a 4b3d
000000f0: 3ab7 ec3d 4184 b63d a9cd f0bd 34aa cd3c
